saved_models/gcn_ba_2motifs.model (torch, 17223 bytes, 10 tensors)

conv1.bias f4 [32]
0	0xbd025661	-0.03182066
1	0x00000000	0.0
2	0x00000000	0.0
3	0xbd86c84c	-0.06581172
4	0x00000000	0.0
5	0x3e86687e	0.26251596
6	0x00000000	0.0
7	0x00000000	0.0
8	0xbea6dec4	-0.32591832
9	0x00000000	0.0
10	0x00000000	0.0
11	0xbe8703ed	-0.26370183
12	0xbe4563e5	-0.19276388
13	0x00000000	0.0
14	0xbd0c7e72	-0.034300275
15	0xbdbd7746	-0.09251265
16	0x00000000	0.0
17	0x00000000	0.0
18	0xbea233fe	-0.31680292
19	0x00000000	0.0
20	0x3ec15ed3	0.37767658
21	0x3e9538d1	0.2914491
22	0x00000000	0.0
23	0x00000000	0.0
24	0x3de2f611	0.1108209
25	0x00000000	0.0
26	0xbe61efeb	-0.22064178
27	0x00000000	0.0
28	0x00000000	0.0
29	0x00000000	0.0
30	0x00000000	0.0
31	0x00000000	0.0

conv1.lin.weight f4 [32, 10]
0	0xbe807c3d	-0.25094786
1	0xbd3afc74	-0.045650914
2	0xbea9b536	-0.33146065
3	0xbc75e51d	-0.015008238
4	0xbe69ecfc	-0.22844309
5	0x3eab8962	0.33503252
6	0x3e6e45bc	0.23268789
7	0xbe3e2ed5	-0.18572553
8	0x3d7f9ea2	0.062407143
9	0x3e8f3557	0.27970383
10	0x3e912df0	0.2835536
11	0x3e19bb4d	0.15012856
12	0x3d7903d1	0.060794655
13	0xbe4a5a0a	-0.1976091
14	0xbc045fba	-0.008079464
15	0xbd0377f1	-0.032096807
16	0xbcc90b54	-0.024541534
17	0xbebc3d67	-0.36765596
18	0xbe08847c	-0.13331789
19	0xbe2fa497	-0.1715263
20	0xbe832935	-0.25617376
21	0x3e8eb495	0.27872148
22	0xbe6b69f0	-0.2298963
23	0xbeb161db	-0.3464497
24	0x3eb4c749	0.35308293
25	0xbe24b42e	-0.16084358
26	0x3eb3f021	0.3514414
27	0x3a465f4e	0.0007567302
28	0xbe1afe6d	-0.15136118
29	0xbd1ac89d	-0.037788976
30	0x3dd7894a	0.10524233
31	0xbeab5333	-0.33461913
32	0xbd7c6323	-0.06161798
33	0x3e8b88bf	0.27252766
34	0xbe88b58a	-0.26701003
35	0x3e36d19b	0.17853396
36	0x3db5f876	0.08885281
37	0xbe12d920	-0.14340639
38	0xbe78493e	-0.2424669
39	0x3b989c54	0.0046573076
40	0x3e834537	0.25638744
41	0xbd289ddb	-0.041166168
42	0xbdab2cd9	-0.083581634
43	0xbe9fd307	-0.3121569
44	0xbe94d47d	-0.29068366
45	0xbde6ed5a	-0.1127574
46	0x3e8112ef	0.25209758
47	0xbdaeae89	-0.08529384
48	0x3c8b7fc9	0.017028706
49	0xbe86f140	-0.26355934
50	0xbc981b1b	-0.018567612
51	0xbd9dadbd	-0.076991536
52	0x3e27259f	0.16322945
53	0xbe8e0977	-0.27741596
54	0xbdf8f6f7	-0.1215648
55	0xbe95d469	-0.2926362
56	0x3e2642ef	0.1623647
57	0x3dacaaf1	0.08431042
58	0x3e372d2a	0.17888322
59	0xbe3e7e67	-0.18602906
60	0xbeadcfdc	-0.33947647
61	0x3c7a89bc	0.0152916275
62	0xbdffdfa1	-0.12493826
63	0x3eabbe66	0.335437
64	0xbdcef439	-0.101051755
65	0xbe3c2ef9	-0.18377294
66	0x3e64afe3	0.2233272
67	0xbc9a3b1d	-0.018827016
68	0xbe657051	-0.22406127
69	0x3ea93b67	0.33053133
70	0x3e2fd4fe	0.17171094
71	0xbccd6d51	-0.02507654
72	0xbdbf981e	-0.09355186
73	0x3c9c203b	0.019058337
74	0xbd207301	-0.039172176
75	0x3e809dd2	0.25120407
76	0x3c5c93b4	0.01346295
77	0xbe46e3dd	-0.1942286
78	0x3d0fd5ea	0.035116114
79	0xbe96c2d0	-0.29445505
80	0xbe4876b3	-0.1957653
81	0x3e31c744	0.1736117
82	0x3ead99de	0.33906454
83	0x3d1c6e67	0.038191225
84	0xbd441d50	-0.047879517
85	0x3eb1c050	0.34717035
86	0xbe350356	-0.17677054
87	0x3ebb8e53	0.36632022
88	0x3e6a46fe	0.22878644
89	0xbddc33d5	-0.10752074
90	0x3cf82e38	0.030295476
91	0xbea7f4e7	-0.32804033
92	0x3e0f93cb	0.14021222
93	0xbe5f8f61	-0.21832038
94	0xbebb10d0	-0.36536264
95	0x3e0639b2	0.13107947
96	0x3c91551f	0.017740784
97	0x3d8b85c9	0.06812627
98	0x3cfe51cc	0.031044863
99	0x3cc4d015	0.024025002
100	0x3ebb0591	0.36527684
101	0x3d8834f2	0.066507235
102	0x3b54ea41	0.003248826
103	0xbe634136	-0.22192845
104	0xbeae300f	-0.3402104
105	0xbcce1613	-0.02515701
106	0xbd9ddea7	-0.07708483
107	0xbe5b9990	-0.21445298
108	0x3e02753f	0.12740038
109	0xbdd8dab0	-0.10588586
110	0x3b9a140f	0.004702098
111	0x3e9a369b	0.30119786
112	0x3ea890cd	0.32922974
113	0x3eb5d8a8	0.35516858
114	0x3e34ef42	0.17669395
115	0xbe01581a	-0.12631264
116	0x3e02813b	0.1274461
117	0xbea539c9	-0.3227065
118	0x3c81c675	0.015841702
119	0x3c6177d6	0.013761481
120	0xbeec5740	-0.46160316
121	0xbdd713f7	-0.10501855
122	0xbcdd9d2a	-0.02705248
123	0xbcde9642	-0.027171258
124	0x3ae3331f	0.0017333961
125	0x3e2c5649	0.1682979
126	0xbec5b1d2	-0.3861223
127	0xbdafe945	-0.085894145
128	0xbe9a18ea	-0.30097133
129	0x3e844d63	0.2584029
130	0xbe84ba5b	-0.25923428
131	0x3e0a9c28	0.13536131
132	0x3dfa1dda	0.12212725
133	0x3e220238	0.15821159
134	0xbe720aa8	-0.23636878
135	0xbe8ad8b9	-0.2711847
136	0xbe3e1c19	-0.18565406
137	0xbd827a8a	-0.06371029
138	0x3e03c9c5	0.12869938
139	0xbe3072d1	-0.17231299
140	0x3e3986b7	0.18117796
141	0xbeb85408	-0.3600161
142	0xbec6658c	-0.3874935
143	0x3e4ef634	0.20211107
144	0xbde7be08	-0.113155425
145	0x3e139256	0.14411291
146	0x3cf8c692	0.030368123
147	0xbe920302	-0.2851792
148	0x3e5a5a18	0.2132343
149	0x3e0bd88b	0.13656823
150	0xbd51b22d	-0.051195312
151	0x3ad6762a	0.001636212
152	0x3e855fd5	0.26049677
153	0x3e5edee7	0.21764718
154	0x3e496fd5	0.19671567
155	0x3e54ec7d	0.20793338
156	0xbeb33b0a	-0.3500598
157	0xbe8c082e	-0.2734999
158	0xbe477e99	-0.19481887
159	0xbe8164e0	-0.25272274
160	0x3e29d6d3	0.16585855
161	0xbeaddcf0	-0.33957624
162	0x3ea493bf	0.3214397
163	0x3c1de991	0.009638206
164	0xbead700c	-0.33874547
165	0xbe8722db	-0.2639378
166	0x3d5da9d6	0.054117046
167	0xbe650242	-0.22364143
168	0xbe94b63e	-0.2904529
169	0x3d9f9016	0.07791154
170	0xbccd5da1	-0.02506906
171	0xbea7d48e	-0.32779354
172	0xbe2c5767	-0.16830216
173	0xbd50f727	-0.051016953
174	0xbdcc4068	-0.09973222
175	0x3ccb890c	0.024845622
176	0x3e1ecf8c	0.1550886
177	0xbe95c3d6	-0.29250973
178	0xbeb93154	-0.36170447
179	0xbe3a4338	-0.18189704
180	0xbe1cee16	-0.15325198
181	0x3db4539e	0.08805011
182	0x3e467acd	0.19382782
183	0x3eb485d6	0.3525836
184	0xbd9111a4	-0.07083443
185	0x3e108daa	0.1411654
186	0x3e1a108d	0.15045376
187	0x3ea12c0d	0.3147892
188	0x3ed2103a	0.41028005
189	0x3ee93f70	0.4555621
190	0xbda102a2	-0.0786183
191	0x3e88dd9a	0.2673157
192	0xbeb29b86	-0.3488428
193	0xbea7e252	-0.32789856
194	0xbe08891d	-0.13333555
195	0x3e9f2422	0.31082255
196	0x3d690b85	0.05689575
197	0x3cf1f428	0.029535368
198	0x3d3edda4	0.04659809
199	0xbc673206	-0.014111048
200	0x3da3e524	0.080026895
201	0x3e8ff597	0.28117058
202	0xbe9d3f21	-0.30712226
203	0x3e39b73d	0.18136306
204	0xbdfedd1b	-0.12444516
205	0xbe5d5aee	-0.21616718
206	0xbd150550	-0.03638202
207	0xbea00d16	-0.31259984
208	0xbd268327	-0.04065242
209	0x3dc35931	0.09538496
210	0x3ded4f9f	0.11587452
211	0x3d81ef33	0.06344452
212	0xbdb8e39c	-0.09027788
213	0xbe18d949	-0.14926638
214	0xbe9aebff	-0.30258176
215	0x3e56f537	0.2099198
216	0x3ea921d4	0.3303362
217	0xbe0138f2	-0.12619379
218	0x3e13a372	0.14417818
219	0x3ea74c29	0.32675293
220	0xbea55b1e	-0.3229608
221	0xbe386eb5	-0.18010981
222	0x3e253431	0.1613319
223	0x3df4550e	0.119302854
224	0x3e558a95	0.20853646
225	0xbccfff42	-0.025390271
226	0xbda4ff89	-0.08056552
227	0xbe8da73f	-0.2766666
228	0xbdc649d5	-0.09682051
229	0x3e83193a	0.25605184
230	0xbe87f4ad	-0.2655386
231	0xbeb6f3c9	-0.35732868
232	0x3da7694c	0.08174381
233	0xbea5d224	-0.32386887
234	0xbe99fb67	-0.30074617
235	0xbcaafe86	-0.02087332
236	0xbe54bfbf	-0.2077627
237	0xbe950420	-0.2910471
238	0x3ce5d4e1	0.02805561
239	0xbe8c2ed1	-0.27379468
240	0x3e442369	0.19154133
241	0xbeee5e46	-0.465563
242	0x3e199501	0.14998247
243	0x3db34467	0.08753281
244	0xbea93683	-0.33049402
245	0xbeed8a26	-0.4639446
246	0xbbc4ea1e	-0.0060093543
247	0x3d1d1513	0.038350176
248	0x3d82d80c	0.06388864
249	0x3e68a933	0.22720794
250	0x3e03c702	0.12868884
251	0x3ea500d8	0.32227206
252	0xbdadc769	-0.084853
253	0xbe400f0f	-0.18755744
254	0x3e3fc445	0.18727215
255	0xbeba1997	-0.36347649

convs.0.bias f4 [32]
0	0x3e939552	0.2882486
1	0xbd970c80	-0.07375431
2	0xbd9c29d0	-0.076251626
3	0xbe93bfb0	-0.28857183
4	0x3d248057	0.040161457
5	0xbce3b10b	-0.027794382
6	0x00000000	0.0
7	0x00000000	0.0
8	0x00000000	0.0
9	0xbd86dfd4	-0.065856606
10	0x00000000	0.0
11	0x00000000	0.0
12	0xbd116315	-0.035494883
13	0xbdb87041	-0.09005786
14	0x00000000	0.0
15	0x00000000	0.0
16	0xbdb9726f	-0.090550296
17	0x00000000	0.0
18	0x00000000	0.0
19	0xbe864aae	-0.2622885
20	0xbe52607c	-0.20544618
21	0x00000000	0.0
22	0x00000000	0.0
23	0x3cc3e262	0.023911659
24	0xbd83c755	-0.06434504
25	0x00000000	0.0
26	0x00000000	0.0
27	0xbd8297f6	-0.063766405
28	0xbd499fc3	-0.049224626
29	0xbe0dac62	-0.1383529
30	0xbcf5fc19	-0.030027436
31	0xbec706b7	-0.3887231

convs.0.lin.weight f4 [32, 32]
0	0xbe2c8ca7	-0.1685053
1	0xbdceac7c	-0.100914925
2	0xbe58732f	-0.21137689
3	0xbe00a2f7	-0.12562166
4	0x3acbb950	0.0015542898
5	0x3eec3321	0.46132758
6	0xbdb12174	-0.08648959
7	0x3d6fcdb0	0.05854577
8	0xbea4a18b	-0.32154498
9	0x3d0f43b7	0.034976687
10	0xbe542b15	-0.2071956
11	0x3e5092f5	0.2036856
12	0xbd11e42e	-0.035618
13	0xbcb1017f	-0.021607159
14	0x3d7b7129	0.061387215
15	0xbe5635ba	-0.20918933
16	0xbe2cef73	-0.16888218
17	0x3e850799	0.2598236
18	0xbe4f05fc	-0.20217127
19	0x3e9a45db	0.3013142
20	0x3e9e39c9	0.30903462
21	0x3e87c9ef	0.2652125
22	0x3e8205a5	0.2539493
23	0x3d87226f	0.065983646
24	0x3e12a82e	0.14321968
25	0xbe7737df	-0.24142407
26	0xbe0182b4	-0.12647516
27	0xbdbdd355	-0.09268824
28	0x3e6816f6	0.22665009
29	0x3e172708	0.14760983
30	0xbcfefe23	-0.031127041
31	0x3ccbd976	0.024883967
32	0x3dac56d0	0.08414996
33	0x3cdd5f2b	0.027022919
34	0xbe308cd9	-0.17241229
35	0xbe12c591	-0.14333178
36	0xbdf759d2	-0.12077679
37	0x3cb605ac	0.022219501
38	0x3e4eda8b	0.20200555
39	0x3e9226c0	0.2854519
40	0xbeb5c950	-0.35505152
41	0x3e822f76	0.25426835
42	0x3e87a1c9	0.2649062
43	0xbe4f5cfb	-0.20250313
44	0xbea67f9e	-0.3251924
45	0xbb918e40	-0.0044420063
46	0xbe162461	-0.14662315
47	0xbe87f977	-0.26557514
48	0xbdaf25bd	-0.0855212
49	0x3c8ab951	0.016934069
50	0x3e3361c6	0.17517766
51	0x3e64c335	0.2234009
52	0x3c9dab47	0.01924671
53	0xbe3609f4	-0.17777234
54	0xbe52ee81	-0.20598795
55	0xbd3c295f	-0.045937892
56	0xbdf36b63	-0.11885717
57	0xbe7bf8e0	-0.24606657
58	0xbd215524	-0.039387837
59	0xbe469de6	-0.19396171
60	0x3da132f0	0.07871044
61	0xbdcce211	-0.10004056
62	0x3d30d4fc	0.043171868
63	0x3e941316	0.2892081
64	0xbe1f6e0d	-0.15569325
65	0xbe4fa956	-0.2027944
66	0x3e5dfff6	0.21679673
67	0xbe969be6	-0.29415816
68	0x3d49bfd6	0.049255215
69	0xbe276f6a	-0.16351095
70	0xbd6da0c6	-0.058014654
71	0x3de69092	0.11258043
72	0x3dd267b0	0.10273683
73	0xbd3f0bd1	-0.04664213
74	0xbda0d691	-0.07853425
75	0xbea8fb7d	-0.3300437
76	0xbe3c3511	-0.18379618
77	0xbe851c39	-0.25998095
78	0x3e7edb85	0.24888428
79	0xbca0f7ec	-0.019649468
80	0xbe147e83	-0.14501385
81	0x3e6f1024	0.23346001
82	0x3e016785	0.12637146
83	0xbd203d60	-0.03912103
84	0xbe1fd833	-0.15609817
85	0xbe62aa87	-0.22135364
86	0x3e6f74c8	0.23384392
87	0x3d6938b5	0.056938846
88	0xbeaa6dbb	-0.33286843
89	0x3e9aa03c	0.30200374
90	0x3e4e9432	0.2017372
91	0x3e69a5f8	0.22817218
92	0xbe890f85	-0.26769653
93	0x3e7e7e38	0.24852836
94	0x3df6d044	0.12051442
95	0xbdaf06fd	-0.08546255
96	0x3e0536cf	0.13009189
97	0xbd569653	-0.052389454
98	0x3d88e3af	0.06684052
99	0x3e1a2bc6	0.1505576
100	0x3e184268	0.14869082
101	0x3c5b82e6	0.013397908
102	0xbd808165	-0.0627468
103	0x3e29c5ff	0.16579436
104	0x3db9ec75	0.09078304
105	0xbdb88926	-0.09010534
106	0x3e1b1d3f	0.15147875
107	0x3eafc8bb	0.34332833
108	0x3e4b7bd5	0.19871457
109	0x3d65e044	0.05612208
110	0x3e2027fe	0.15640256
111	0xbda51d7d	-0.08062265
112	0xbe9b1dec	-0.30296266
113	0x3e898241	0.26857188
114	0x3e1adb48	0.15122712
115	0x3df43d42	0.119257465
116	0xbe83a3d5	-0.2571093
117	0xbde61335	-0.11234132
118	0x3dc4451f	0.09583496
119	0xbe114c98	-0.14189374
120	0xbe6e4c9b	-0.2327141
121	0xbe044a30	-0.12918925
122	0x3d52ede7	0.051496413
123	0x3c757b80	0.014983058
124	0xbdffcfdb	-0.12490817
125	0xbe89902e	-0.26867813
126	0xbddc5682	-0.107586876
127	0x3e9ae841	0.3025532
128	0xbe19f1e9	-0.15033688
129	0xbd872e78	-0.0660066
130	0x3e9876e0	0.29778194
131	0xbdcaf606	-0.099102065
132	0x3de9d687	0.11417871
133	0x3efbcd1a	0.49179918
134	0x3d397761	0.045279864
135	0xbd90f00d	-0.07077036
136	0xbe023497	-0.12715374
137	0xbc11d832	-0.008901643
138	0x3e473e63	0.19457392
139	0x3c81dc8b	0.015852233
140	0xbe9665c6	-0.29374522
141	0xbe3e1e5e	-0.18566272
142	0x3e63c188	0.22241795
143	0x3e915853	0.283877
144	0x3db7a92c	0.08967814
145	0x3d7d22c9	0.06180075
146	0x3e23650f	0.1595652
147	0x3dd87483	0.10569098
148	0x3ef2f59b	0.47453007
149	0xbe231343	-0.15925317
150	0xbe5f58bd	-0.21811195
151	0xbe34d4f5	-0.17659362
152	0xbe04c90e	-0.12967321
153	0x3d1e0307	0.038577106
154	0xbe4a9b4a	-0.197858
155	0xbdcaeab7	-0.099080496
156	0x3e411044	0.18853861
157	0xbe392755	-0.1808141
158	0xbca86a8b	-0.020558616
159	0xbe811edf	-0.25218865
160	0xbea11ba9	-0.31466416
161	0xbcef1ac3	-0.029187566
162	0xbd4daded	-0.050214697
163	0x3e3a84fe	0.18214795
164	0x3ca39889	0.019970195
165	0xbd99ec3a	-0.0751576
166	0xbe0f65a5	-0.14003618
167	0xbdecc421	-0.11560846
168	0xbd723bcd	-0.05913906
169	0x3e5554d7	0.20833145
170	0x3e329fcb	0.17443769
171	0xbe93f7ca	-0.28899986
172	0x3e2705c9	0.163108
173	0x3d51bbb5	0.051204402
174	0xbe5db3ae	-0.21650574
175	0x3d7e80bf	0.0621345
176	0x3e44e329	0.1922728
177	0xbe1a9154	-0.15094501
178	0xbe9e9297	-0.30971214
179	0xbd9dfb38	-0.07713932
180	0xbe7bb912	-0.24582317
181	0x3e5d3526	0.21602306
182	0xbd3ae6ce	-0.04563027
183	0xbe4d3d54	-0.20042926
184	0xbd426e8c	-0.047468707
185	0x3e0a7c08	0.13523877
186	0x3e759b65	0.2398506
187	0xbe73d20e	-0.23810598
188	0xbb514fd1	-0.0031938443
189	0xbdde4fbc	-0.10855052
190	0xbc92e590	-0.01793173
191	0xbc536333	-0.012902069
192	0x3e40e16b	0.1883599
193	0x3e86fef8	0.263664
194	0x3dc3aace	0.09554063
195	0x3ccd4499	0.025057124
196	0xbe27723c	-0.1635217
197	0xbdfbd119	-0.122957416
198	0x3e840d48	0.25791383
199	0x3d38184d	0.04494505
200	0x3d7bd824	0.061485425
201	0x3e00041b	0.12501566
202	0xbd51ca0f	-0.05121809
203	0x3e4432e5	0.1916004
204	0x3bc5b66c	0.0060337093
205	0x3e272b3d	0.16325088
206	0x3cc97f0a	0.02459671
207	0xbdc68226	-0.096927926
208	0xbc0cd4aa	-0.008595625
209	0xbe436e2e	-0.19084999
210	0xbe9ab40c	-0.3021549
211	0x3dec7c28	0.115471184
212	0x3dbdcfa4	0.0926812
213	0xbdcf22e2	-0.10114075
214	0x3e11ce0e	0.1423876
215	0x3db207c8	0.086928904
216	0x3cd1a677	0.025592072
217	0x3e714a22	0.23563436
218	0x3d008d78	0.031384915
219	0x3e73ed50	0.23820996
220	0xbe5f88e5	-0.21829565
221	0xbe84b32e	-0.25917953
222	0x3e00b3f7	0.12568651
223	0x3e5626d1	0.20913245
224	0xbe77d9e7	-0.24204217
225	0xbe97a51e	-0.29618162
226	0x3d3b7d90	0.045774043
227	0x3cfd4fcb	0.030921837
228	0xbe8004d9	-0.25003698
229	0x3e1b1cd5	0.15147717
230	0xbd20d678	-0.039267033
231	0xbe7f7170	-0.24945617
232	0xbdbbffff	-0.09179687
233	0x3dd8162b	0.10551103
234	0x3e961d70	0.29319334
235	0xbe18515d	-0.14874788
236	0xbe977453	-0.29580936
237	0x3e773648	0.241418
238	0xbe89c87e	-0.26910776
239	0x3e81983d	0.2531146
240	0xbe98aff3	-0.2982174
241	0xbe55db81	-0.20884515
242	0xbde775e3	-0.11301782
243	0xbdc19fd7	-0.09454315
244	0xbe934991	-0.28767064
245	0xbe8c9a14	-0.27461302
246	0xbe9924c6	-0.29910868
247	0xbe1d10d8	-0.15338457
248	0xbd844b42	-0.06459667
249	0x3b02cc87	0.0019958334
250	0x3dd33451	0.10312713
251	0x3e4d6cb8	0.20061004
252	0x3e83fe22	0.25779825
253	0xbe345e6f	-0.17614149
254	0x3dae8686	0.08521752
255	0x3dab0642	0.08350803

convs.1.bias f4 [32]
0	0xbea81bfb	-0.32833847
1	0xbdbc48ca	-0.09193571
2	0xbda0cca0	-0.07851529
3	0xbeaf925e	-0.34291357
4	0xbdc3d426	-0.095619485
5	0xbda148b5	-0.07875196
6	0xbde2e708	-0.11079222
7	0x3e257f7c	0.16161913
8	0xbdbe3d03	-0.09288981
9	0xbdea1946	-0.11430602
10	0xbdee6cab	-0.116418205
11	0xbec9706e	-0.3934359
12	0x3c1747de	0.009233443
13	0xbeb1d9a8	-0.3473637
14	0x00000000	0.0
15	0xbdb8327a	-0.08994003
16	0xbde54de1	-0.11196495
17	0xbd013ff6	-0.03155514
18	0x00000000	0.0
19	0xbd9e7732	-0.077375785
20	0x00000000	0.0
21	0xbd4dd5a1	-0.05025256
22	0xbe58399e	-0.21115729
23	0x3e03dcdd	0.12877221
24	0xbe0a1258	-0.1348356
25	0x3e1df07a	0.15423766
26	0xbe35014b	-0.17676274
27	0xbdb20cae	-0.08693825
28	0xbedae59e	-0.4275331
29	0xbe2f4bec	-0.17118806
30	0xbe4e2cbd	-0.20134254
31	0xbd8f3e98	-0.06994361

convs.1.lin.weight f4 [32, 32]
0	0xbeb440dc	-0.35205734
1	0x3e026492	0.12733677
2	0x3e8af112	0.27137047
3	0x3f021458	0.5081229
4	0xbd90780a	-0.07054146
5	0x3dd32597	0.10309904
6	0xbe2a5da3	-0.16637282
7	0xbc2f491f	-0.010698586
8	0x3e8a492e	0.27008957
9	0x3e8e1d30	0.27756643
10	0xbe305cff	-0.17222975
11	0x3e363673	0.17794208
12	0xbe61a92d	-0.22037192
13	0x3e1292cb	0.1431381
14	0xbdec6a04	-0.115436584
15	0x3d1efc4d	0.03881483
16	0xbec91137	-0.39270946
17	0xbe8f2677	-0.27959034
18	0x3e5e1199	0.216864
19	0x3e9d8dfd	0.3077239
20	0xbe19fee6	-0.15038642
21	0x3e16f280	0.14740944
22	0xbe1a81c7	-0.15088569
23	0xbef09eca	-0.46996146
24	0x3e114310	0.14185739
25	0x3e8d288e	0.27570003
26	0xbe9c08f4	-0.3047558
27	0x3cd6f893	0.026241576
28	0xbda9ee91	-0.08297456
29	0x3d914944	0.070940524
30	0x3e14ee6b	0.14544074
31	0x3f023f2c	0.5087764
32	0xbdd70a1a	-0.104999736
33	0x3e99eb32	0.30062252
34	0x3cd7ca32	0.026341531
35	0xbe0e03a5	-0.13868578
36	0x3c5b8c9e	0.013400225
37	0xbd9e3794	-0.077254444
38	0x3cab09c7	0.020878686
39	0x3e1d839e	0.15382239
40	0xbe5f7b8c	-0.21824473
41	0x3e5e8bee	0.21733066
42	0xbdaca2e7	-0.08429509
43	0xbe1ced6c	-0.15324944
44	0xbdb2fb86	-0.087393805
45	0x3e89b992	0.2689939
46	0xbdd656c6	-0.104657695
47	0x3e64cab8	0.22342956
48	0xbde33e86	-0.1109591
49	0xbe4ba4c3	-0.1988707
50	0xbe8fad29	-0.28061798
51	0xbe3fb1c5	-0.18720157
52	0x3ce867d3	0.02836982
53	0xbe85ac93	-0.26108226
54	0x3e8db5a6	0.2767765
55	0xbe847255	-0.25868478
56	0xbcf69db0	-0.030104488
57	0xbd0ff5e0	-0.035146594
58	0xbe127a66	-0.14304504
59	0xbe33ea72	-0.17569903
60	0xbe902c79	-0.2815893
61	0xbe4855de	-0.19564006
62	0xbe2a51c3	-0.16632752
63	0xbdf30f75	-0.118681826
64	0xbeecafc9	-0.46227863
65	0xbe697f72	-0.22802523
66	0xbe27db3d	-0.16392227
67	0x3ebff70b	0.37493166
68	0x3d88ec9f	0.06685757
69	0xbe6c217f	-0.23059653
70	0xbdc6faec	-0.09715828
71	0x3dd57c37	0.10424083
72	0x3e76c763	0.24099497
73	0x3d2a4e96	0.04157885
74	0x3cfac29f	0.03061038
75	0x3e6f9da0	0.23399973
76	0xbd89048b	-0.0669032
77	0x3bb17032	0.005414986
78	0x3cd79ae4	0.026318975
79	0xbe4e2887	-0.20132647
80	0xbdec6c63	-0.115441106
81	0x3e0251ed	0.12726565
82	0x3de165e8	0.11005765
83	0x3e924430	0.28567648
84	0x3e4cd455	0.20002873
85	0xbe622c9f	-0.22087334
86	0x3dd2ec18	0.102989376
87	0xbedc76cb	-0.43059382
88	0xbd90c336	-0.070684835
89	0xbe7e75ed	-0.24849673
90	0xbe5d863c	-0.21633238
91	0x3db5fcd1	0.088861115
92	0xbd490aba	-0.049082495
93	0x3e84c476	0.25931138
94	0xbe969efd	-0.29418173
95	0x3ea8c78e	0.32964748
96	0x3db07774	0.08616534
97	0x3e3082e0	0.17237425
98	0xbe4f5cbb	-0.20250218
99	0x3e489e1e	0.19591567
100	0xbef8aba8	-0.48568463
101	0xbe6393dc	-0.22224373
102	0xbe7fce20	-0.24980974
103	0xbe96c5ae	-0.29447693
104	0x3dcb2765	0.09919623
105	0x3cc490a4	0.023994751
106	0xbc9d0bc8	-0.019170657
107	0x3d843424	0.064552575
108	0xbe1b6ea1	-0.1517892
109	0x3dbd4ca6	0.09243135
110	0x3e7ca171	0.2467096
111	0x3d9bd6a1	0.076092966
112	0x3e39c9fc	0.18143457
113	0x3e59dc14	0.2127536
114	0xbd9c98e8	-0.07646352
115	0x3b082a3c	0.0020777127
116	0x3e944b87	0.28963873
117	0xbe55940f	-0.20857261
118	0xbe00163b	-0.1250848
119	0xbe7a629e	-0.24451682
120	0xbe9c64c5	-0.3054563
121	0xbe0f9926	-0.14023265
122	0x3cfbcd63	0.030737584
123	0xbd9e601f	-0.077331774
124	0x3d3aaa17	0.045572367
125	0xbe12f764	-0.14352185
126	0xbe364d9e	-0.17803046
127	0x3ea1d913	0.31610927
128	0xbd71d1dc	-0.059038028
129	0x3e4d8faa	0.20074335
130	0xbe548a58	-0.20755899
131	0xbe8ac7cf	-0.27105567
132	0x3eca86f2	0.3955608
133	0x3d4c3a5f	0.049860355
134	0xbdce70df	-0.10080122
135	0xbe41b404	-0.18916327
136	0xbe021f66	-0.1270729
137	0x3e29c235	0.1657799
138	0xbdd29ca9	-0.10283787
139	0xbe58b83d	-0.21164031
140	0xbe042561	-0.12904884
141	0x3e8d050f	0.27542922
142	0x3e1e1397	0.1543716
143	0xbe1c10a7	-0.15240727
144	0x3e5216d6	0.20516524
145	0xbe94579d	-0.28973094
146	0x3e99ce3b	0.30040154
147	0xbeccd163	-0.400035
148	0xbe739fc3	-0.23791413
149	0xbe88a715	-0.26689973
150	0xbe90c1b8	-0.28272796
151	0xbe8e6ddc	-0.2781819
152	0x3cafcfd8	0.021461412
153	0xbe63b73c	-0.22237867
154	0x3d3bff80	0.04589796
155	0xbdb3fa8a	-0.08788021
156	0xbde171b1	-0.11008013
157	0x3e9c2461	0.30496505
158	0x3c915301	0.017739775
159	0xbe40b723	-0.18819861
160	0xbf15f188	-0.5857167
161	0xbe53e9f6	-0.20694718
162	0x3de2519c	0.11050722
163	0x3df94994	0.12172237
164	0xbcaaec9a	-0.020864774
165	0x3e44e083	0.1922627
166	0xbc22d0fa	-0.009937519
167	0x3deb6353	0.11493554
168	0xbdf44ee7	-0.11929112
169	0xbe951403	-0.2911683
170	0xbe380e68	-0.17974246
171	0x3e663881	0.22482492
172	0xbdd2c828	-0.10292083
173	0x3e263527	0.16231214
174	0x3e8cb23f	0.2747974
175	0xbdd6680e	-0.104690656
176	0xbe913ceb	-0.2836679
177	0xbe23a95b	-0.15982573
178	0x3d0f1081	0.03492785
179	0x3eeb2685	0.45927826
180	0x3da26d57	0.07931011
181	0xbe827231	-0.25477746
182	0x3e863a4a	0.26216346
183	0xbdc87a6c	-0.09788975
184	0x3e54aa9e	0.2076821
185	0xbce37f39	-0.027770625
186	0xbe93cd3b	-0.28867516
187	0x3cdbf9ab	0.02685245
188	0xbe64476c	-0.2229287
189	0x3e2177dc	0.15768379
190	0x3e240801	0.16018678
191	0x3f06bc52	0.52631104
192	0xbe2687c0	-0.16262722
193	0xbd832a2e	-0.064045295
194	0x3dd74dd9	0.10512895
195	0x3d79f5d1	0.061025444
196	0x3d2dae25	0.042402405
197	0x3dbb6866	0.09150772
198	0xbe09ed8d	-0.13469525
199	0xbe8fba35	-0.28071752
200	0x3e2b8032	0.16748121
201	0xbd9dc321	-0.077032335
202	0x3e6f74d1	0.23384406
203	0xbe8f3727	-0.27971765
204	0xbe64485e	-0.22293231
205	0x3e00a30d	0.12562199
206	0xbe87af05	-0.26500717
207	0x3e582b75	0.21110328
208	0x3e045db5	0.12926371
209	0xbe4c35e9	-0.1994244
210	0xbdba0883	-0.09083655
211	0x3db71463	0.08939435
212	0x3c5eb5c9	0.013593146
213	0x3e917fcf	0.28417823
214	0x3c6a074e	0.014283968
215	0x3e071060	0.1318984
216	0xbe89160f	-0.26774642
217	0xbe8ee9fb	-0.27912888
218	0x3daa43a3	0.08313682
219	0xbe8bf449	-0.27334812
220	0x3da0d302	0.078527465
221	0xbe14f9ff	-0.14548491
222	0xbe558921	-0.20853092
223	0xbea77cc1	-0.32712367
224	0x3cf86e35	0.030325988
225	0xbe731ab0	-0.23740649
226	0xbe1b90a1	-0.1519189
227	0xbdadcb97	-0.08486097
228	0x3f15ec97	0.5856413
229	0x3e172ab1	0.14762379
230	0x3e3b0aa8	0.18265784
231	0x3e2e1d83	0.17003445
232	0xbe9a08fa	-0.30084974
233	0xbe63ff93	-0.22265463
234	0xbe848788	-0.25884652
235	0x3d341d6d	0.043973375
236	0x3e34895e	0.17630526
237	0x3c770222	0.015076192
238	0xbe8a8515	-0.2705466
239	0xbde37b74	-0.11107531
240	0x3dbfd8de	0.09367536
241	0x3dc5ea88	0.09663874
242	0x3e1376e3	0.1440082
243	0x3e72f081	0.23724557
244	0x3e004928	0.12527907
245	0xbe935951	-0.2877908
246	0x3db29b98	0.087210834
247	0xbe56abeb	-0.20964019
248	0x3e82ac81	0.25522235
249	0x3e92fe47	0.28709623
250	0x3e2188fa	0.15774909
251	0x3a84899e	0.0010111814
252	0x3e37c342	0.17945579
253	0xbe46c1f9	-0.19409932
254	0xbe6d3efd	-0.2316856
255	0x3e853e93	0.26024303

lin1.weight f4 [32, 32]
0	0xbe2a0978	-0.16605175
1	0x3d8eef27	0.069792084
2	0x3e0d66c5	0.13808735
3	0xbd86d0b6	-0.06582777
4	0xbe1bfc9b	-0.1523308
5	0x3e020535	0.12697299
6	0x3cf1b55e	0.029505428
7	0xbd30e230	-0.04318446
8	0xbcdb8e3d	-0.026801223
9	0x3def8491	0.11695207
10	0x3d57165c	0.052511558
11	0xbd8a8576	-0.06763737
12	0x3de18e8c	0.11013517
13	0x3da9834c	0.08276996
14	0x3e2f531f	0.17121552
15	0xbd80e5d3	-0.062938355
16	0x3e303fbd	0.17211814
17	0x3d3063b5	0.043063838
18	0x3db8c0b4	0.0902113
19	0x3d372fa1	0.044723157
20	0xbe2cdd1d	-0.16881223
21	0x3e148fcb	0.14507978
22	0x3cec121e	0.028817233
23	0xbdd4b8f7	-0.10386842
24	0xbddb6e35	-0.1071438
25	0x3ddc7ce6	0.1076601
26	0xbdd632a3	-0.10458877
27	0xbe0f49e0	-0.13993025
28	0x3cbd8cf0	0.023138493
29	0x3ce84b53	0.02835623
30	0xbe0d16aa	-0.13778177
31	0xbded9d23	-0.11602237
32	0xbf05968f	-0.5218286
33	0x3da5111c	0.08059904
34	0xbed3bca8	-0.4135487
35	0xbdf966f6	-0.12177841
36	0x3e8e0749	0.27739933
37	0xbf019566	-0.5061859
38	0xbd1fbe05	-0.038999576
39	0x3e385107	0.1799966
40	0x3da6c276	0.08142559
41	0x3e0f9ad9	0.14023913
42	0xbd8e73f6	-0.069557115
43	0xbf00ded6	-0.5034002
44	0xbe97fc63	-0.29684743
45	0xbec04bf9	-0.37557963
46	0xbe315c2a	-0.17320314
47	0x3d53d8fb	0.0517206
48	0x3de1d2a2	0.11026503
49	0x3d13e8ac	0.036110565
50	0x3e2f15e0	0.17098188
51	0x3dc802a9	0.097661324
52	0x3cc5ff01	0.024169447
53	0xbd46ec4e	-0.0485652
54	0xbd65c38b	-0.056094687
55	0x3dabb9e1	0.08385063
56	0xbdb00d39	-0.08596272
57	0x3e1c09bd	0.1523809
58	0xbef3c037	-0.47607586
59	0xbed58b75	-0.4170796
60	0xbefd842e	-0.49514908
61	0x3def4ca9	0.11684544
62	0xbd8c5f09	-0.06854064
63	0xbe0a7bce	-0.1352379
64	0x3f89a634	1.0753846
65	0x3dd8f893	0.10594287
66	0x3f0bc3d3	0.5459568
67	0x3dbeeeda	0.09322901
68	0x3e911a45	0.28340355
69	0x3f50f22c	0.81619525
70	0xbd42509c	-0.047440156
71	0x3dbc1a30	0.09184682
72	0x3e4fc1de	0.20288798
73	0xbd9434a9	-0.07236607
74	0x3ef7edb4	0.4842354
75	0x3f7ca022	0.98681843
76	0x3f1c3757	0.6102194
77	0x3f1943ab	0.5986888
78	0xbe18a05a	-0.1490492
79	0x3e3263fa	0.1742095
80	0xbdaa79b5	-0.08323995
81	0xbd03cccb	-0.032177728
82	0x3cb752fc	0.022378437
83	0x3de021cb	0.109439455
84	0xbe16d37a	-0.1472911
85	0x3e70e77f	0.23525809
86	0x3e7d4cd7	0.24736343
87	0xbe15fce7	-0.14647256
88	0x3ea3ee53	0.32017764
89	0xbe4a56bf	-0.19759654
90	0x3f5b3325	0.85624915
91	0x3ed0eb12	0.40804344
92	0x3f3cbe08	0.73727465
93	0x3caa7492	0.020807538
94	0x3e6bf458	0.23042428
95	0x3df06e2c	0.117397636
96	0x3c6357d6	0.013875922
97	0xbddd33da	-0.108009055
98	0xbe2473e9	-0.16059841
99	0xbd59efad	-0.05320709
100	0x3d2710d8	0.040787548
101	0xbcceac07	-0.025228513
102	0xbe1c1b2b	-0.15244739
103	0xbe1c4aa4	-0.15262848
104	0xbe252c93	-0.16130285
105	0xbda69b99	-0.08135147
106	0x3e203f4f	0.1564915
107	0xbd4caede	-0.049971454
108	0xbe103d52	-0.14085892
109	0xbe164d08	-0.14677823
110	0x3e28a26c	0.16468209
111	0xbe1ebc28	-0.15501463
112	0x3d919c1b	0.07109853
113	0xbe24dba9	-0.16099419
114	0xbe16699d	-0.14688726
115	0x3e017997	0.12644039
116	0xbd1e986a	-0.038719572
117	0x3d83d5b5	0.06437246
118	0xbe0586e5	-0.1303974
119	0x3e273cb1	0.16331746
120	0xbae68d7f	-0.0017589777
121	0xbd90197f	-0.07036113
122	0x3d421c1b	0.047390085
123	0xbded5ac2	-0.11589576
124	0x3c9ec37b	0.019380322
125	0x3de09f0d	0.109678365
126	0x3c63bf57	0.013900599
127	0x3d97c1b2	0.07409991
128	0xbf1e449b	-0.61823434
129	0x3e61d686	0.2205449
130	0xbeed3d7a	-0.46335965
131	0xbe8647c7	-0.26226637
132	0xbe3c7cff	-0.18407057
133	0xbef2d739	-0.47429827
134	0xbd17d323	-0.03706659
135	0x3e84c94b	0.25934824
136	0xbe89e44a	-0.26931983
137	0x3e178620	0.14797258
138	0xbe8ce8e3	-0.27521428
139	0xbecdd163	-0.40198812
140	0xbe7ab1b0	-0.24481845
141	0xbe7ba089	-0.24572958
142	0xbe1f058a	-0.15529457
143	0x3d7fc563	0.062444102
144	0xbb1e950e	-0.002419773
145	0xbdc0e4c8	-0.094186366
146	0xbd6b351a	-0.05742369
147	0xbceaefc8	-0.02867879
148	0x3d33807c	0.043823704
149	0x3d05f661	0.03270567
150	0xbe1a809a	-0.1508812
151	0x3d2dc2e8	0.042422205
152	0xbe58a937	-0.211583
153	0x3e7b59c1	0.24545957
154	0xbf31e463	-0.69489115
155	0xbe510a9e	-0.20414206
156	0xbee5304b	-0.44763407
157	0xbcb427a1	-0.021991553
158	0xbe4f1902	-0.20224383
159	0xbe9e2a2e	-0.30891556
160	0x3dd3a7cc	0.10334739
161	0xbd9028a4	-0.070390016
162	0xbd0c547a	-0.03426025
163	0xbe85dc42	-0.26144606
164	0x3ca61523	0.02027375
165	0xbdcac259	-0.0990035
166	0xbdda3942	-0.10655452
167	0x3d68536f	0.056720193
168	0xbe32b742	-0.1745272
169	0xbe0e7242	-0.13910773
170	0xbcdd13f5	-0.026987055
171	0xbe0cf352	-0.13764694
172	0xbe37375c	-0.17892212
173	0xbe6206df	-0.22072934
174	0x3e09d30c	0.13459414
175	0xbd21533a	-0.03938601
176	0x3df89317	0.1213743
177	0xbd20ed6f	-0.039288934
178	0x3e34a82e	0.1764228
179	0x3dea4d70	0.11440551
180	0x3d846d0d	0.06466112
181	0xbb901069	-0.0043964875
182	0xbc08dd24	-0.008353505
183	0xbc82c2a9	-0.015961962
184	0xbd2ff001	-0.042953495
185	0xbdc8cbff	-0.09804534
186	0x3e113fe6	0.14184532
187	0xbdfdda10	-0.12395108
188	0xbe081ca4	-0.13292176
189	0x3d101f67	0.035186198
190	0xbd39ac9e	-0.045330636
191	0x3e29f04c	0.16595572
192	0x3f1269a1	0.57192427
193	0x3e1eef3e	0.15520951
194	0x3f87a423	1.0596966
195	0x3e2c5bf8	0.16831958
196	0x3e4545d8	0.19264925
197	0x3e9b39a1	0.30317405
198	0xbc93615f	-0.017990766
199	0xbdc77344	-0.09738782
200	0xbdc0b2c3	-0.09409096
201	0x3d83ccfd	0.06435583
202	0x3f97f92a	1.1872914
203	0x3e6eadb0	0.23308444
204	0x3f962d66	1.1732605
205	0x3e0435b0	0.12911105
206	0xbe085c58	-0.13316476
207	0xbe1e5fac	-0.15466183
208	0x3cdc0cc4	0.026861556
209	0xbde61c1b	-0.112358294
210	0x3d7ef86e	0.06224864
211	0x3ddd5da8	0.10808879
212	0x3dd70649	0.10499246
213	0xbdafca89	-0.085835524
214	0x3c5295a4	0.01285306
215	0xbd0a034b	-0.033694547
216	0x3e539fc1	0.2066641
217	0x3d090b60	0.033458114
218	0x3f8ac836	1.084235
219	0x3e890ecc	0.26769102
220	0x3f4e61c8	0.8061795
221	0x3d765012	0.060134955
222	0x3e838112	0.2568441
223	0x3be384b8	0.0069433115
224	0x3f8c364f	1.0954074
225	0xbd1baf31	-0.038008872
226	0x3f3ee811	0.74572855
227	0x3dc7d670	0.097576976
228	0x3e179a84	0.14805037
229	0x3e3e05d1	0.18556906
230	0xbb97bbe7	-0.004630554
231	0xbd4f5236	-0.05061551
232	0xbde62608	-0.11237723
233	0x3ddbd3dd	0.10733769
234	0x3f31e5a9	0.6949106
235	0x3f013b2e	0.50480926
236	0x3f815700	1.0104675
237	0x3f037a2f	0.5135831
238	0xbdcd1a20	-0.100147486
239	0xbda15708	-0.07877928
240	0x3d532504	0.051548973
241	0x3e12d9c9	0.14340891
242	0x3e26064e	0.16213343
243	0x3d996d9d	0.0749161
244	0xbd17107d	-0.03688096
245	0x3e18f757	0.14938103
246	0x3d2d3e37	0.04229566
247	0xbdf88c49	-0.12136132
248	0x3e49eae4	0.1971851
249	0xbe707691	-0.2348273
250	0x3f63b0f3	0.8894188
251	0x3e85d94d	0.2614235
252	0x3f27f47a	0.65607417
253	0x3d8a6f28	0.067594826
254	0xbbc6a4d2	-0.0060621286
255	0x3e46e9ea	0.19425169

lin1.bias f4 [32]
0	0xbd8ccb41	-0.06874705
1	0x3ebd83d9	0.37014654
2	0xbdf99827	-0.12187224
3	0xbe21fa07	-0.15818034
4	0x3ebde981	0.37092212
5	0xbd4127a5	-0.04715695
6	0xbe40c8db	-0.1882662
7	0xbc6c1fa6	-0.014411842
8	0x3eaf7474	0.34268534
9	0x3ea203dc	0.3164357
10	0x3d625738	0.05525896
11	0xbcb30dcb	-0.021857163
12	0xbe5c42fd	-0.21509929
13	0xbd59ca7d	-0.053171623
14	0xbded2cc0	-0.11580801
15	0xbe32b86f	-0.17453168
16	0xbdacdc1a	-0.084404185
17	0xbded1ccf	-0.115777604
18	0xbdf9970d	-0.12187014
19	0x3ebc947b	0.36832032
20	0x3e96af94	0.2943083
21	0x3ea5bdeb	0.32371458
22	0x3eba42b9	0.3637903
23	0xbe428d16	-0.18999133
24	0xbd8095f2	-0.062786
25	0xbe2f5e55	-0.17125829
26	0xbdb5c83c	-0.08876082
27	0xbe25affe	-0.16180417
28	0xbe3c6213	-0.18396787
29	0xbd0357eb	-0.032066267
30	0xbe1473e4	-0.14497334
31	0xbe3167e1	-0.17324783

lin2.weight f4 [2, 32]
0	0xbdbedd52	-0.09319557
1	0x3f42bba5	0.7606757
2	0xbf295dd1	-0.6615878
3	0x3ddcbff3	0.10778799
4	0x3f4a6934	0.7906678
5	0x3cef0dfa	0.02918147
6	0xbee6815e	-0.45020574
7	0xbedaea61	-0.42756942
8	0x3f1ac95a	0.6046349
9	0x3f5373af	0.82598394
10	0x3f6c3656	0.9227041
11	0xbd859bf2	-0.06523885
12	0xbf3692b9	-0.7131763
13	0xbf1899ef	-0.59609884
14	0xbcc4cad7	-0.024022503
15	0x3d1e4147	0.038636472
16	0x3e1c65a2	0.15273145
17	0xbf0bcd59	-0.5461021
18	0x3dffe5f5	0.12495033
19	0x3f47f177	0.7810282
20	0x3f0f1dc6	0.55904806
21	0x3f3945bc	0.7237203
22	0x3f52b327	0.82304615
23	0xbed75deb	-0.4206384
24	0xbbac474a	-0.0052575218
25	0xbed5f077	-0.41785023
26	0x3d1a6c64	0.037701026
27	0xbe1e207d	-0.15442081
28	0xbd9bb3cf	-0.07602655
29	0xbdc9fa5d	-0.09862206
30	0x3d64c1a8	0.055848747
31	0xbe31fb1d	-0.17380948
32	0x3db67b92	0.08910288
33	0xbf73d553	-0.9524738
34	0x3ed3a874	0.41339457
35	0xbd83c38c	-0.06433782
36	0xbf465764	-0.774771
37	0xbd69483e	-0.05695366
38	0x3edab722	0.42717844
39	0x3f12929a	0.57254946
40	0xbed765dd	-0.42069903
41	0xbf5cd125	-0.8625663
42	0xbf662e83	-0.8991472
43	0x3b94a855	0.0045366683
44	0x3f14d5da	0.5813881
45	0x3f02ecff	0.5114288
46	0x3bb2a504	0.0054518003
47	0x3ddd6828	0.10810882
48	0x3e1ed5fd	0.15511318
49	0x3f1e386c	0.6180484
50	0xbd8549e8	-0.06508237
51	0xbf3408ee	-0.70326126
52	0xbf22d7ad	-0.63610345
53	0xbf71de5d	-0.94479924
54	0xbf668f7e	-0.900627
55	0x3f16fbf7	0.5897822
56	0x3dfd4e95	0.12368504
57	0x3f147814	0.57995725
58	0x3d4a32cd	0.049364854
59	0xbe212d33	-0.15739898
60	0x3dc92876	0.098221704
61	0xbe0c0210	-0.13672662
62	0xbd68da73	-0.056848954
63	0xbe1dc87a	-0.15408507

lin2.bias f4 [2]
0	0x3e3cb917	0.18429981
1	0x3e0284af	0.12745927
