saved_models/gcn_MUTAG.model (torch, 206151 bytes, 10 tensors)

conv1.bias f4 [128]
0	0x3e01ad69	0.12663807
1	0x3e468cee	0.19389698
2	0x3e08b63d	0.13350768
3	0x00000000	0.0
4	0x3e91052f	0.28324267
5	0xbda372c3	-0.079808734
6	0xbddd3f31	-0.108030684
7	0xbe26d4e8	-0.16292155
8	0x3dd89dee	0.10576998
9	0xbd28518b	-0.04109339
10	0x3cf4d18c	0.029885076
11	0xbddca599	-0.10773773
12	0xbddb91d1	-0.10721172
13	0x3e0d9f2a	0.13830248
14	0xbdb84f11	-0.08999456
15	0x00000000	0.0
16	0xbcacbb68	-0.021085456
17	0xbe2313f7	-0.15925585
18	0xbe111f1b	-0.14172022
19	0xbddaf8fb	-0.106920205
20	0x3d9e634c	0.07733783
21	0xbe2e2d1d	-0.17009397
22	0xbd0c685d	-0.034279216
23	0xbd8d3415	-0.068946995
24	0xbdf96223	-0.12176921
25	0x3cbc10dd	0.02295726
26	0xbd18fb34	-0.03734894
27	0xbe04eb5e	-0.1298041
28	0xbe03fc6e	-0.12889263
29	0xbe0c0af4	-0.13676053
30	0xbdf7d21a	-0.121006206
31	0x3e0ae75c	0.13564819
32	0x3ce0e953	0.027455008
33	0x3dd76411	0.10517133
34	0x3d6b98df	0.057518836
35	0xbd5e66ca	-0.054297246
36	0xbe284101	-0.16431047
37	0xbe03bf67	-0.12865983
38	0x3d9835cb	0.07432135
39	0x3e54c18e	0.2077696
40	0xbd480d60	-0.04884088
41	0x3dfc574a	0.123213366
42	0xbe196fb1	-0.14984013
43	0x3e0da3ea	0.1383206
44	0xbe158b59	-0.14603938
45	0x3e0f9c96	0.14024577
46	0xbdde5f94	-0.10858074
47	0x3ce891ef	0.028389899
48	0xbdf81f83	-0.121153854
49	0x3e0041a5	0.12525041
50	0xbd63a78e	-0.055579714
51	0xbd3bda84	-0.04586269
52	0xbd87e3c4	-0.0663524
53	0xbe3f107e	-0.18658635
54	0x3d9d4e30	0.07680929
55	0xbd6de453	-0.058079075
56	0x3e3bfb86	0.18357667
57	0x3e01f5a0	0.12691355
58	0xbe070b94	-0.1318801
59	0xbe25b5cd	-0.16182633
60	0x3cc11249	0.02356829
61	0xbdff8087	-0.124756865
62	0xbce05522	-0.027384344
63	0xbd393479	-0.045216057
64	0xbdc8b3f7	-0.097999506
65	0x3d9608f5	0.07325927
66	0xbe0ec840	-0.13943577
67	0x3cf18da8	0.029486492
68	0xbd00081d	-0.031257737
69	0xbdc2772b	-0.09495386
70	0x3ded271c	0.11579725
71	0xbcff3622	-0.031153742
72	0x3d76928e	0.06019836
73	0xbe314ce3	-0.17314486
74	0x3d61e172	0.055146642
75	0xbd0655f6	-0.032796822
76	0x3c2f1ce6	0.010688042
77	0x3d86d4b7	0.06583541
78	0xbd08534c	-0.033282563
79	0xbdfa933f	-0.12235116
80	0x00000000	0.0
81	0x3e52fca1	0.20604183
82	0x3d985a02	0.07439043
83	0x3d844773	0.0645894
84	0x3e804a00	0.25056458
85	0xbd4de63e	-0.050268404
86	0x3e0f0bdb	0.13969366
87	0x3c08d5ce	0.008351756
88	0xbe09bf4e	-0.13451883
89	0xbdb28432	-0.087166205
90	0xbc34a78a	-0.011026273
91	0x3e08a475	0.13343985
92	0xbc4db318	-0.012554906
93	0x3e2b4545	0.16725643
94	0x00000000	0.0
95	0xbe089c40	-0.13340855
96	0xbc48f1f8	-0.012264721
97	0x3cdd8829	0.027042465
98	0xbd8eb845	-0.069687404
99	0xbd41dde8	-0.047330767
100	0x3e4d33c3	0.20039277
101	0xbe47612d	-0.19470663
102	0xbe187eaf	-0.14892076
103	0xbc957abc	-0.018247
104	0xbdeffcca	-0.117181376
105	0xbd805c4c	-0.06267604
106	0x3db490bc	0.088166684
107	0xbe069994	-0.13144523
108	0x3e1f43ad	0.1555316
109	0xbe002d7d	-0.12517352
110	0xbcc689e8	-0.02423568
111	0x00000000	0.0
112	0x3daf958c	0.08573446
113	0xbd7bdaa6	-0.061487816
114	0x3d70afb8	0.05876133
115	0xbda2abba	-0.079429105
116	0xbbca57ac	-0.006175002
117	0xbac58764	-0.0015070257
118	0xbce2adad	-0.027670706
119	0x3e0ae4f4	0.13563901
120	0x3db57904	0.088609725
121	0xbe1e4f1b	-0.15459864
122	0x3db7c1cd	0.089725114
123	0xbe2d115a	-0.1690115
124	0xbdeb4c33	-0.11489143
125	0x3e19bba6	0.15012988
126	0x3e1e7614	0.1547473
127	0x3da7c2da	0.08191462

conv1.lin.weight f4 [128, 7]
0	0xbd3e7c59	-0.046505306
1	0xbe613528	-0.21992934
2	0xbd8cbb07	-0.0687161
3	0x3e4054e1	0.18782379
4	0x3d0850d1	0.033280198
5	0x3eaa7ca2	0.33298212
6	0xbd7b8c22	-0.061412938
7	0xbd86ed21	-0.065881975
8	0x3d95a39a	0.07306595
9	0xbda9ddfe	-0.08294295
10	0xbdb9f12a	-0.090792015
11	0xbdd93186	-0.10605149
12	0xbe4361da	-0.19080296
13	0xbda9199e	-0.08256839
14	0xbd0aeee6	-0.033919238
15	0xbe2aaa34	-0.1666649
16	0xbe018ffc	-0.12652582
17	0x3ec06b0d	0.37581673
18	0xbe467f0e	-0.19384405
19	0x3f40771c	0.75181746
20	0x3e834650	0.25639582
21	0xbd4ba56a	-0.049718298
22	0xbe50b881	-0.20382883
23	0xbd1241a8	-0.035707146
24	0xbe3af069	-0.18255772
25	0xbe307f63	-0.17236094
26	0xbbe1eae6	-0.006894457
27	0xbccc2354	-0.02491919
28	0xbefb9f32	-0.49144894
29	0x3e1e2b4a	0.15446201
30	0x3f209460	0.627264
31	0xbe4d5615	-0.20052369
32	0x3d9e86f2	0.077405825
33	0xb94f2e91	-0.00019758406
34	0xbcf3aaab	-0.029744467
35	0xbe08e050	-0.13366818
36	0xbcbc92a4	-0.023019142
37	0x3d71f142	0.059067972
38	0xbcbe7700	-0.023250103
39	0x3dfd3945	0.12364439
40	0xbe11f9f7	-0.1425551
41	0x3e329c0d	0.17442341
42	0x3dbccfe8	0.092193425
43	0x3ed77bbb	0.42086586
44	0x3d7cb75a	0.061698295
45	0xbe201c27	-0.1563574
46	0x3e045400	0.12922668
47	0xbe6ca06f	-0.23108076
48	0xbe133950	-0.14377332
49	0x3dc72039	0.09722943
50	0x3eb43ce9	0.3520272
51	0x3e0170ec	0.12640733
52	0x3eb85551	0.3600259
53	0x3e20238b	0.15638559
54	0xbde2ca36	-0.11073725
55	0xbe32a479	-0.17445554
56	0xbcb70194	-0.02233962
57	0xbdb12a7b	-0.08650681
58	0xbe46be6f	-0.19408582
59	0x3e8e928a	0.27846175
60	0xbe3e963c	-0.18611997
61	0x3f185215	0.5950025
62	0xbd8bfffd	-0.06835935
63	0xbdfad386	-0.12247376
64	0xbd7c055f	-0.06152856
65	0xbb386a07	-0.002813937
66	0xbe4a33bf	-0.19746302
67	0xbe216a79	-0.15763272
68	0x3d6b277e	0.05741071
69	0xbe148007	-0.14501964
70	0x3cc96827	0.024585797
71	0x3ec772cd	0.38954774
72	0xbef8513a	-0.4849947
73	0xbe6b1f2b	-0.22961108
74	0xbe1d8344	-0.15382105
75	0xbe37d41a	-0.17952004
76	0xbe02007b	-0.12695496
77	0x3d503102	0.050827987
78	0xbe0fa521	-0.14027835
79	0xbe1ce581	-0.15321924
80	0xbe1e41e7	-0.15454827
81	0x3d15c847	0.036567952
82	0xbe194ae4	-0.14969975
83	0x3e6acd60	0.22929907
84	0xbe2c3a2a	-0.16819063
85	0x3bba1ca0	0.005679682
86	0xbe0d1e36	-0.13781056
87	0x3ea78330	0.32717276
88	0xbd99c6da	-0.07508631
89	0x3dec2c5d	0.11531899
90	0x3e02609f	0.1273217
91	0xbd23ae1d	-0.03996097
92	0xbe41b022	-0.18914846
93	0xbd5f8e44	-0.054579034
94	0xbdc241c6	-0.094852015
95	0xbe091a0e	-0.13388845
96	0xbe3b986b	-0.18319862
97	0xbd8d301a	-0.0689394
98	0x3e30d570	0.1726892
99	0xbe03e69f	-0.12880944
100	0xbc09c5a8	-0.008408941
101	0x3e7a4391	0.24439837
102	0x3cdd2894	0.026996888
103	0xbe913000	-0.28356934
104	0xbd7f3526	-0.062306546
105	0xbdb53cdc	-0.08849499
106	0xbd4c9e9a	-0.04995594
107	0xbe10b37f	-0.14130972
108	0xbd5340a4	-0.051575318
109	0x3d8f6640	0.070019245
110	0x3d8212d0	0.063512444
111	0xbe3f6c82	-0.18693736
112	0xbe7b63c1	-0.24549772
113	0xbda99bcc	-0.08281669
114	0x3e8a6a2c	0.27034128
115	0xbdec6148	-0.115419924
116	0xbe35b1eb	-0.17743652
117	0xbe34ae21	-0.1764455
118	0x3e081962	0.13290933
119	0x3d946654	0.0724608
120	0xbdd7e41e	-0.10541557
121	0x3e235a58	0.15952432
122	0x3edfee01	0.4373627
123	0x3e53dfe2	0.20690873
124	0x3eb41018	0.3516853
125	0x3f25c4a8	0.647532
126	0x3e27daa8	0.16392004
127	0xbe74b2a2	-0.23896268
128	0x3da189ae	0.078875884
129	0xbe9c0bc9	-0.3047774
130	0xbde85b0d	-0.113454916
131	0xbe70c2d4	-0.23511821
132	0xbe3bd79f	-0.18343972
133	0x3db3ccad	0.08779273
134	0x3ef2018d	0.47266808
135	0x3cbbaa51	0.022908362
136	0xbe1494af	-0.14509843
137	0xbad1445c	-0.0015965807
138	0xbe25a296	-0.16175303
139	0xbe647d4f	-0.22313426
140	0x3e1814a9	0.14851631
141	0xbac37834	-0.0014913143
142	0xbe8979cd	-0.2685074
143	0x3ed3c700	0.41362762
144	0xbe46ebe7	-0.19425927
145	0xbe885f24	-0.26635087
146	0x3e89fe03	0.26951608
147	0x3dba8639	0.09107632
148	0xbe155b4d	-0.1458561
149	0xbe31e39c	-0.17371982
150	0xbe0d4d25	-0.1379896
151	0xbddade9b	-0.1068699
152	0x3e0a344c	0.13496512
153	0x3e3c7167	0.18402635
154	0xbda308ae	-0.0796064
155	0xbd744d33	-0.059643935
156	0xbe26aa4b	-0.16275899
157	0x3f0cfc9b	0.55072945
158	0xbdbed6fa	-0.09318347
159	0xbe25802a	-0.16162172
160	0xbdaa4ec1	-0.08315802
161	0xbe16b806	-0.14718637
162	0xbcda8566	-0.026674937
163	0x3d01ae68	0.031660467
164	0x3e97d871	0.2965732
165	0xbd453bda	-0.048152782
166	0x3e051665	0.12996824
167	0xbcf22421	-0.029558243
168	0x3c6c9b9f	0.0144414
169	0xbe10ffc2	-0.14160064
170	0xbe037dc7	-0.12840949
171	0xbe392f06	-0.18084344
172	0x3e46cb1a	0.19413415
173	0xbd752539	-0.05984995
174	0x3e279248	0.16364396
175	0xbe03528a	-0.12824455
176	0x3eaa28b7	0.33234188
177	0x3e0a5b07	0.13511287
178	0x3e9fa12f	0.3117766
179	0xbda1e42e	-0.0790485
180	0xbe10203d	-0.14074798
181	0xbd9ea8d9	-0.07747049
182	0xbddc8ecc	-0.10769424
183	0xbcf079bf	-0.029354928
184	0xbdaa427a	-0.08313461
185	0xbe041c5d	-0.12901445
186	0x3e34a81f	0.17642258
187	0x3e02fe7c	0.1279239
188	0x3dd89ce6	0.10576801
189	0x3e1db8bc	0.15402502
190	0xbc784c37	-0.01515489
191	0x3ddef4ae	0.10886513
192	0xbe9cc5bf	-0.30619618
193	0x3dec684a	0.11543329
194	0xbe92c08c	-0.28662527
195	0xbc9f82ec	-0.019471608
196	0x3e01a7e9	0.12661709
197	0x3bd79780	0.0065793395
198	0x3de08247	0.109623484
199	0xbe827e20	-0.2548685
200	0x3e1eb896	0.15500101
201	0xbe2c9904	-0.16855246
202	0x3bf1abca	0.007375215
203	0x3e07615f	0.13220738
204	0x3e565c7d	0.20933719
205	0x3dccf153	0.100069664
206	0xbe2156d5	-0.1575578
207	0x3d1f97d6	0.03896316
208	0xbe84e033	-0.259523
209	0xbd4f0521	-0.050542
210	0x3e40234b	0.18763463
211	0x3d20c6c1	0.039252046
212	0x3d1fe3bf	0.039035555
213	0x3deabd97	0.11461943
214	0x3e0cc439	0.13746728
215	0xbe8d9cb0	-0.27658606
216	0xbe05a48a	-0.13051048
217	0xbd2bdde1	-0.041959647
218	0xbccec24b	-0.02523913
219	0xbcc8e888	-0.024524942
220	0xbe30fa0a	-0.17282882
221	0xbdf9ada8	-0.121913254
222	0xbddc1a21	-0.10747171
223	0xbda83b6f	-0.08214461
224	0xbdf96313	-0.121771
225	0x3e0cf5e3	0.13765673
226	0x3e526bb9	0.20548905
227	0x3e1523a4	0.14564377
228	0xbcf8df84	-0.030380018
229	0xbe10f926	-0.14157543
230	0xbe57a75b	-0.21059935
231	0xbd290039	-0.041259978
232	0x3ddea732	0.10871734
233	0x3d923673	0.071392916
234	0x3e40bc26	0.18821773
235	0x3dc7d227	0.0975688
236	0xbd8e9b64	-0.06963232
237	0xbd600cbb	-0.05469964
238	0xbe4c49c9	-0.19950022
239	0x3e2fd75d	0.17171998
240	0x3e1e5f6c	0.15466088
241	0xbc925a82	-0.017865423
242	0xbd06542a	-0.03279511
243	0xbe1a85e1	-0.15090133
244	0xbe484a33	-0.19559555
245	0x3d623654	0.055227593
246	0x3efa5165	0.48890224
247	0xbd30d182	-0.043168552
248	0xbe6f2628	-0.23354399
249	0x3e3ac4e7	0.18239175
250	0xbe55f272	-0.20893267
251	0xbe53c3c2	-0.20680144
252	0x3da4bc50	0.0804373
253	0xbd27a051	-0.040924374
254	0x3e882455	0.2659022
255	0x3e2cc39e	0.16871497

convs.0.bias f4 [128]
0	0xbdfb471f	-0.12269425
1	0x3e1881e3	0.14893298
2	0xbd721727	-0.05910411
3	0xbcf5f75a	-0.030025173
4	0x3e2b2c4f	0.16716121
5	0x3db3c93b	0.08778616
6	0xbcf5fa36	-0.030026536
7	0xbe07832d	-0.13233633
8	0xbd3581a9	-0.044313107
9	0x3e00de14	0.12584716
10	0x3eec0117	0.4609458
11	0xbc9ffb7e	-0.0195291
12	0x3d946290	0.07245362
13	0x3c2cb61c	0.010541465
14	0xbdf4538c	-0.11929998
15	0xbd8be53c	-0.06830832
16	0x3de073b7	0.10959571
17	0xbd1cff7e	-0.038329594
18	0x3d2cc4e7	0.04217997
19	0xbd82334a	-0.06357439
20	0xbd47ed6f	-0.04881042
21	0xbd37badc	-0.044855937
22	0x3d48ec9d	0.049053777
23	0xbd968949	-0.07350404
24	0x3d012641	0.031530622
25	0xbd1a5486	-0.037678264
26	0xbe0c75e3	-0.13716845
27	0xbcd1c710	-0.025607616
28	0xbd2a22e7	-0.04153719
29	0xbd000dee	-0.031263284
30	0xbd9fd373	-0.078040026
31	0x3df98e3b	0.121853314
32	0xbddbdf5b	-0.10735961
33	0x3e3442c1	0.1760359
34	0xbcd94b09	-0.026525037
35	0x3da04296	0.078252
36	0x00000000	0.0
37	0x3d6e7a20	0.058221936
38	0xbd4a2265	-0.049349207
39	0xbcd483cc	-0.025941752
40	0xbcf5f6a2	-0.03002483
41	0xbde7a240	-0.113102436
42	0xbd069a15	-0.032861788
43	0x3e1c7fd1	0.15283133
44	0xbd2014e5	-0.039082427
45	0xbcf5f38c	-0.030023359
46	0x3c250f73	0.010074484
47	0xbd44c987	-0.048043754
48	0xbd458b0a	-0.0482283
49	0xbd05e0c9	-0.032685075
50	0xbdba2e12	-0.090908185
51	0xbdaa485c	-0.08314583
52	0xbd3f7b99	-0.04674873
53	0xbd8567ca	-0.06513937
54	0xbc7bde19	-0.015372776
55	0xbdba6894	-0.09101978
56	0xbd43edda	-0.047834255
57	0xbd098525	-0.033574242
58	0xbd7898d1	-0.060692612
59	0xbd136944	-0.03598906
60	0xbd70099f	-0.058602925
61	0xbd0829d7	-0.033243027
62	0xbd1a92be	-0.0377376
63	0xbdd79395	-0.10526196
64	0xbaa5c58a	-0.0012647372
65	0xbd0496a5	-0.03237023
66	0xbd0493f3	-0.032367658
67	0xbd2b681d	-0.041847337
68	0xbd1e7e0f	-0.038694438
69	0xbcaa80e2	-0.02081341
70	0xbe19dc47	-0.15025435
71	0xbdde8f1b	-0.10867139
72	0xbd1e99ae	-0.03872078
73	0xbe14ec04	-0.14543158
74	0xbdcd772f	-0.10032498
75	0xbcd46c2b	-0.025930485
76	0xbcf5f808	-0.030025497
77	0xbccd837c	-0.02508711
78	0xbd56ddd7	-0.052457657
79	0xbdef6ee4	-0.116910726
80	0xbc270179	-0.010193222
81	0xbd0a688c	-0.03379111
82	0xbd6a2c24	-0.057171002
83	0xbd766efa	-0.06016443
84	0xbcf590b2	-0.029976223
85	0x3d86e1fa	0.0658607
86	0xbcc46a01	-0.023976328
87	0x3e14f70d	0.14547367
88	0xbd68d0f9	-0.056839917
89	0x3d6ba2d3	0.05752833
90	0xbcdc7f0f	-0.026916055
91	0x00000000	0.0
92	0xbd193f53	-0.037413906
93	0xbc9318fc	-0.01795625
94	0xbdcc5acb	-0.09978255
95	0xbcf4985e	-0.02985781
96	0x3d833bb7	0.06407874
97	0xbd237fe8	-0.039916903
98	0x3d1408f8	0.036141366
99	0x3e1a61c6	0.1507636
100	0xbd24bd5d	-0.040219653
101	0x3e524cbd	0.20537086
102	0xbcf98037	-0.030456645
103	0x3c89ef99	0.016837882
104	0xbd2ad5d4	-0.04170783
105	0x3dff2880	0.12458897
106	0x3cacd175	0.02109597
107	0xbcd3a46b	-0.025835237
108	0x3e08aea8	0.13347876
109	0x3e30a4c6	0.17250356
110	0xbd5f67cc	-0.054542348
111	0x3e295158	0.16534936
112	0xbe03a3bf	-0.12855433
113	0xbcf5f945	-0.030026088
114	0xbcf5291d	-0.02992683
115	0xbe0b72d7	-0.13618027
116	0x00000000	0.0
117	0xbd57a7e0	-0.052650332
118	0xbcf0c5b9	-0.029391157
119	0xbcb31bcb	-0.021863839
120	0xbd400728	-0.046881825
121	0xbd9a50f7	-0.07534974
122	0xbdd3694d	-0.10322819
123	0xbc7226f8	-0.014779799
124	0xbccb6f4f	-0.02483335
125	0xbdabb309	-0.083837576
126	0x3e1c2f36	0.15252385
127	0x3cad7473	0.021173691

convs.0.lin.weight f4 [128, 128]
0	0x3c2cdf28	0.0105512515
1	0xbd9c154c	-0.076212496
2	0xbe7d1918	-0.24716604
3	0x3e0943bc	0.13404745
4	0xbe2d68a9	-0.16934456
5	0x3df9ea06	0.122028396
6	0x3e1a1772	0.15048006
7	0x3e7cd413	0.24690275
8	0x3c83cabe	0.016087886
9	0xbe02f329	-0.1278807
10	0xbdb759e7	-0.089526944
11	0xbd93ea55	-0.0722243
12	0x3d038fb0	0.032119453
13	0xbe44facf	-0.19236301
14	0x3e00db0d	0.12583561
15	0xbe134c82	-0.14384654
16	0xbe8b2570	-0.27177
17	0xbc92841f	-0.017885266
18	0x3db1ae20	0.0867579
19	0x3bad2e1f	0.005285039
20	0x3cf3a564	0.02974195
21	0x3debeb46	0.11519484
22	0xbda9477f	-0.0826559
23	0xbe06ffd8	-0.13183534
24	0xbd96b31f	-0.073583834
25	0x3dca382f	0.098739974
26	0xbdcc6386	-0.0997992
27	0xbd6447a2	-0.055732377
28	0x3e0b8b40	0.13627338
29	0xbd42eead	-0.0475909
30	0x3d79b6f9	0.060965512
31	0xbcb8ac5b	-0.022543123
32	0xbe57e9b6	-0.21085247
33	0x3cf77c85	0.030210743
34	0x3cffa5fe	0.03120708
35	0xbcc9876d	-0.024600709
36	0x3df904b6	0.12159102
37	0xbdcab8c9	-0.09898526
38	0xbd79b44f	-0.06096297
39	0x3d1f62e5	0.038912673
40	0x3c87f591	0.016596587
41	0xbd21ee83	-0.039534103
42	0x3d790971	0.06080002
43	0xbe295da9	-0.16539635
44	0xbdfc739b	-0.123267375
45	0xbeb059a0	-0.34443378
46	0x3d6be1c1	0.057588343
47	0x3dfd5c87	0.12371164
48	0xbd68453d	-0.056706656
49	0x3c1b7c12	0.00949003
50	0x3d5c85b1	0.053838436
51	0xbd69860a	-0.057012595
52	0xbd99fd91	-0.07519067
53	0x3e5627f2	0.20913675
54	0xbd817471	-0.063210376
55	0xbcee49f5	-0.029088
56	0xbe34e56e	-0.17665645
57	0xbea6befe	-0.3256759
58	0xbe2bb264	-0.1676727
59	0x3c6b6d14	0.014369268
60	0xbead32c8	-0.33827806
61	0x3e11bc27	0.1423193
62	0x3da1f6c7	0.07908397
63	0x3d2c5c59	0.042080257
64	0x3d8f909a	0.070100024
65	0x3da6d862	0.081467405
66	0xbd6598e8	-0.056054026
67	0xbdf2a498	-0.118478
68	0x3dbf77ad	0.09348998
69	0x3de89282	0.11356069
70	0xbe2da9f8	-0.16959369
71	0xbe0c0832	-0.13675001
72	0xbe2b07bb	-0.16702168
73	0xbdb96c5a	-0.090538695
74	0x3d72ae66	0.05924835
75	0xbd6d866b	-0.05798952
76	0x3c915080	0.01773858
77	0x3e0b653c	0.13612837
78	0x3df63fe9	0.12023909
79	0xbc4455eb	-0.011983375
80	0xbadf316a	-0.0017028276
81	0xbd448c06	-0.0479851
82	0x3d10c5ea	0.035344996
83	0x3d87f098	0.066376865
84	0x3d923dd1	0.07140697
85	0xbe2cbf74	-0.16869909
86	0x3ce62271	0.028092595
87	0xbe56c539	-0.20973672
88	0x3e253c18	0.16136205
89	0x3da4dfe8	0.08050519
90	0xbecd345b	-0.40079007
91	0xbe7f0e57	-0.24907814
92	0x3e003722	0.12521031
93	0xbe04d63c	-0.12972349
94	0x3dba861b	0.0910761
95	0x3e17417e	0.14771077
96	0x3eb51cea	0.35373622
97	0xbd9d1746	-0.07670455
98	0xbb98aa68	-0.004658986
99	0x3d15d602	0.036581047
100	0xbe1f7538	-0.15572059
101	0x3e325dc4	0.17418581
102	0xbd0102a7	-0.03149667
103	0x3c00d4f4	0.007863272
104	0x3e261fe4	0.16223103
105	0x3d94010d	0.07226763
106	0xbe424df7	-0.18975054
107	0x3e300aae	0.17191574
108	0xbea032da	-0.31288797
109	0x3e0ce5b3	0.13759498
110	0xbceaf60e	-0.028681781
111	0x3dcb257b	0.09919258
112	0xbe07f9a9	-0.13278832
113	0x3e23f9c4	0.16013247
114	0xbd170b81	-0.036876205
115	0xbd3a5a78	-0.045496434
116	0xbc816835	-0.01579676
117	0xbea5cc86	-0.32382601
118	0xbd874d22	-0.06606509
119	0x3b34c404	0.0027582655
120	0xbe2a0aa6	-0.16605625
121	0xbd6ea5c0	-0.05826354
122	0xbd805d00	-0.06267738
123	0xbd379fec	-0.044830248
124	0xbd535504	-0.05159475
125	0xbe8fa25b	-0.28053555
126	0xbe5d1dd3	-0.21593408
127	0x3e20f5d0	0.1571877
128	0x3e87f89e	0.26556867
129	0x3e915c80	0.28390884
130	0x3e316c70	0.17326522
131	0xbe10f388	-0.141554
132	0xbe8a0d11	-0.26963094
133	0x3d045fa8	0.032317787
134	0xbd7b3f4e	-0.06133967
135	0xbe07482a	-0.13211122
136	0x3d385dfe	0.045011513
137	0x3db40f72	0.087920085
138	0x3ca214f4	0.019785382
139	0xbd7bcf01	-0.06147671
140	0xbd602eac	-0.05473201
141	0xbd842f53	-0.06454339
142	0x3d10f978	0.035394162
143	0xbb4156b3	-0.002950114
144	0xbe886d8b	-0.26646075
145	0xbd96c1af	-0.07361161
146	0x3de7eaad	0.11324058
147	0x3e128844	0.14309794
148	0x3dd88a1e	0.10573219
149	0x3c9763ca	0.0184802
150	0x3edcb0df	0.43103692
151	0xbd7fe8a2	-0.062477715
152	0x3d8e0f7e	0.06936549
153	0xbe31b9ef	-0.17356084
154	0x3c3c6b63	0.011500212
155	0xbbaeb054	-0.0053310785
156	0x3df38e41	0.11892367
157	0xbe1a8402	-0.1508942
158	0x3d9001d5	0.070315994
159	0x3e12c69d	0.14333577
160	0xbd61ccb2	-0.055126853
161	0x3d318c19	0.0433465
162	0xbe785f3e	-0.24255082
163	0x3d44901f	0.047989007
164	0xbe07087b	-0.13186829
165	0xbdbbdac3	-0.09172585
166	0x3cc7cfe1	0.024391117
167	0x3c2cd18b	0.010548006
168	0xbdb1167e	-0.08646868
169	0x3e2f203b	0.17102139
170	0x3d474391	0.04864842
171	0xbbe7c4ba	-0.007073012
172	0xbbb6ec45	-0.0055823647
173	0x3f1301f7	0.57424873
174	0xbce2ff72	-0.027709696
175	0x3e00492a	0.1252791
176	0xbe25a707	-0.16176997
177	0x3e691208	0.22760785
178	0xbd0381b0	-0.0321061
179	0xbea24737	-0.31694958
180	0x3d0c9758	0.03432402
181	0x3dab9794	0.083785206
182	0x3cec5e26	0.028853487
183	0xbd6a89a2	-0.057260163
184	0xbc4c6093	-0.012474197
185	0xbe5f73dc	-0.2182154
186	0xbc77aa3a	-0.015116269
187	0xbdebb4b6	-0.11509077
188	0xbe1354a1	-0.14387752
189	0x3d36fd27	0.04467502
190	0xbed2b7e2	-0.41155916
191	0xbc842a17	-0.016133351
192	0xbd943918	-0.07237452
193	0x3dc65ae6	0.09685306
194	0xbdae175e	-0.08500551
195	0xbe038d38	-0.1284684
196	0xbda5d8bf	-0.08097982
197	0x3dd5087b	0.10402008
198	0x3e4c50e9	0.1995274
199	0xbe920658	-0.28520465
200	0x3dec8191	0.1154815
201	0x3ba2f370	0.0049728677
202	0xbe18bcfc	-0.14915842
203	0xbe6737ce	-0.22579882
204	0xbdbf0193	-0.09326472
205	0x3e318c1b	0.17338602
206	0x3dafd0d5	0.085847534
207	0xbdb35de3	-0.08758142
208	0xbcd7a9c7	-0.026326073
209	0x3e2888bb	0.16458409
210	0x3dd7514c	0.10513553
211	0x3dffacc0	0.12484121
212	0xbcfd686f	-0.030933587
213	0x3d2aab29	0.041667137
214	0x3e1ce00d	0.15319844
215	0xbdf47c6d	-0.11937795
216	0xbdddaea6	-0.10824327
217	0xbc6cdf31	-0.01445751
218	0xbe3ce1f3	-0.18445568
219	0x3e4a119a	0.19733277
220	0xbe24cf68	-0.16094744
221	0x3e11212a	0.14172807
222	0xbcb02d31	-0.021505924
223	0xbc3d8b72	-0.011568891
224	0xbdc676f3	-0.096906565
225	0x3ca474d9	0.020075249
226	0x3d0f0c07	0.03492358
227	0xbe3f2cdd	-0.18669458
228	0xbdf7254c	-0.12067661
229	0xbd9ae4f5	-0.07563201
230	0xbe16d3d1	-0.14729239
231	0x3e2ddb78	0.16978252
232	0xbe3fbe01	-0.18724824
233	0xbe137a57	-0.14402138
234	0x3d832855	0.06404177
235	0x3d20550a	0.0391436
236	0x3cc63ad3	0.024197971
237	0xbe22dff3	-0.15905742
238	0x3ddc84d8	0.107675254
239	0xbdb05214	-0.08609405
240	0x3e011d40	0.12608814
241	0xbdeca41d	-0.115547396
242	0xbea1ca3a	-0.315996
243	0xbc46a9fb	-0.012125487
244	0x3b909005	0.0044116997
245	0xbdd235fa	-0.102642015
246	0x3d87740e	0.066139325
247	0x3e886960	0.26642895
248	0xbc1bf3d3	-0.009518581
249	0xbe1bb180	-0.1520443
250	0xbd8ed523	-0.06974246
251	0x3d873dcb	0.06603583
252	0xbe010a9b	-0.12601702
253	0xbcfb71aa	-0.030693848
254	0x3e75766e	0.23970959
255	0x3e117c1f	0.14207505

convs.1.bias f4 [128]
0	0xbdd0de47	-0.10198646
1	0xbcf5f7e5	-0.030025432
2	0x3cff139e	0.031137284
3	0xbcf5a00f	-0.029983548
4	0xbd92cc21	-0.07167841
5	0xbd662f51	-0.05619747
6	0xbd282633	-0.041052055
7	0xbd1254ec	-0.03572552
8	0xbd8b0bad	-0.06789336
9	0xbd3482ac	-0.04406993
10	0x3c1270ce	0.008938028
11	0xbddc0289	-0.10742671
12	0xbd48f7f4	-0.04906459
13	0xbdb5b78f	-0.08872902
14	0xbd496ba4	-0.04917492
15	0xbdf78113	-0.12085166
16	0xbcf5fb38	-0.030027017
17	0xbdee8869	-0.11647112
18	0xbdc591ee	-0.096469745
19	0xbdc5586e	-0.09636007
20	0xbcf5fbc2	-0.030027274
21	0xbd95f93b	-0.073229276
22	0xbdd1c2a1	-0.10242201
23	0xbe001357	-0.12507378
24	0xbd8a5c70	-0.06755912
25	0x3de26017	0.11053484
26	0xbcf5af9a	-0.02999096
27	0xbd2896d3	-0.041159462
28	0xbe0a8249	-0.13526262
29	0x3df1b7e3	0.11802652
30	0xbd840e8b	-0.06448086
31	0xbd2b0b61	-0.0417589
32	0xbddac092	-0.10681261
33	0xbcb8cc57	-0.022558374
34	0x3d986477	0.07441037
35	0xbdd0de94	-0.101987034
36	0xbd43801c	-0.047729596
37	0xbcf5fb8c	-0.030027173
38	0xbda57aeb	-0.08080085
39	0xbca76572	-0.020434115
40	0xbd28872c	-0.041144535
41	0xbd8123d0	-0.06305659
42	0xbda42f26	-0.08016805
43	0xbce39b4b	-0.02778401
44	0xbe1a7802	-0.15084842
45	0xbd7374a1	-0.059437398
46	0x3dcbe21c	0.09955236
47	0xbcf620d5	-0.030044952
48	0xbdfbfcb0	-0.12304056
49	0x3de62b8b	0.11238774
50	0xbd6d0bea	-0.05787269
51	0xbcf5fa1b	-0.030026486
52	0xbdd17137	-0.10226672
53	0x3e08037f	0.13282584
54	0xbd101d46	-0.035184167
55	0xbd0ce30d	-0.03439622
56	0xbdbf733b	-0.0934815
57	0xbd02f7dc	-0.03197466
58	0xbd8f2029	-0.06988556
59	0x3de52409	0.11188514
60	0xbdf0c035	-0.117554106
61	0xbde1ba37	-0.11021846
62	0xbcf5fbc0	-0.03002727
63	0xbda2d45d	-0.07950661
64	0xbdc2a36a	-0.09503825
65	0xbd9a8cdd	-0.07546399
66	0xbd8cd27b	-0.068760835
67	0xbcff5c02	-0.031171802
68	0xbdd4f1c0	-0.10397673
69	0xbcf72e23	-0.030173367
70	0xbda6d379	-0.08145804
71	0xbdaa8e73	-0.08327951
72	0xbd607e5a	-0.054808
73	0xbdd3063e	-0.10303925
74	0xbcec4f1c	-0.028846316
75	0xbdf061ca	-0.11737402
76	0xbd5b9391	-0.053607527
77	0xbd8be72c	-0.06831202
78	0xbe3bec43	-0.18351845
79	0x3d236aee	0.039896898
80	0xbcfb425f	-0.030671297
81	0x3df22b44	0.118246585
82	0xbdbe14a9	-0.09281284
83	0xbd2a4bd8	-0.041576236
84	0xbd2d0653	-0.04224236
85	0xbd0770fa	-0.033066727
86	0xbcf832cd	-0.030297661
87	0xbdc5c932	-0.096575156
88	0xbd6df98e	-0.058099322
89	0xbd19a40d	-0.037509967
90	0xbd85f32d	-0.06540523
91	0xbde8c298	-0.11365241
92	0xbd11efee	-0.035629205
93	0xbd8259d9	-0.06364793
94	0xbdc42732	-0.095777884
95	0xbd17c999	-0.037057493
96	0xbdb49ba8	-0.088187516
97	0x3ded7a8b	0.11595639
98	0xbd832619	-0.06403751
99	0xbd961b7d	-0.07329462
100	0xbd766e65	-0.060163874
101	0x3cff8174	0.031189658
102	0xbd7dab73	-0.061931085
103	0xbdcb1020	-0.09915185
104	0xbde437fd	-0.111434914
105	0xbcf8f222	-0.030388895
106	0xbd055195	-0.032548506
107	0xbdf41d48	-0.119196475
108	0xbda6e416	-0.08148973
109	0xbd1811b3	-0.037126254
110	0xbd65700f	-0.05601507
111	0xbba1ea29	-0.004941244
112	0xbdc02bc0	-0.09383345
113	0xbdd9fb62	-0.106436506
114	0xbde0407d	-0.109498
115	0xbcf5fbdd	-0.030027324
116	0xbd50fd21	-0.051022653
117	0xbd606dba	-0.054792143
118	0xbcf7cb31	-0.030248256
119	0xbcc9d452	-0.024637375
120	0xbd47ee7a	-0.048811413
121	0xbdc0a3f9	-0.09406275
122	0xbcf5fbf5	-0.030027369
123	0xbd2d4e21	-0.042310838
124	0xbcfd1469	-0.030893521
125	0xbd920d9f	-0.07131504
126	0xbdd347f0	-0.10316455
127	0xbd18d781	-0.037314896

convs.1.lin.weight f4 [128, 128]
0	0x3e2a7540	0.1664629
1	0xbe1df408	-0.15425122
2	0xbe34c364	-0.1765266
3	0x3d27c38c	0.040957972
4	0xbcc5fd8c	-0.024168752
5	0xbde24043	-0.11047413
6	0xbe2dd11a	-0.16974297
7	0xbd26b26e	-0.040697508
8	0xbd143662	-0.036184676
9	0x3dfa25c2	0.12214233
10	0xbe7eb029	-0.24871887
11	0x3e14c211	0.14527155
12	0xbe8ba3d6	-0.27273434
13	0xbe010491	-0.12599398
14	0x3e210645	0.15725048
15	0xbce864b3	-0.02836833
16	0xbc91c907	-0.017796053
17	0x3d5828cf	0.052773293
18	0xbded867c	-0.115979165
19	0x3dc7d211	0.09756864
20	0xbd0c93f5	-0.03432079
21	0x3d52a242	0.051424272
22	0xbc19b132	-0.009380626
23	0xbda8dcb6	-0.08245222
24	0xbd8b2368	-0.067938626
25	0xbbb820d0	-0.005619146
26	0x3df6171f	0.12016129
27	0x3e14669e	0.1449227
28	0xbe2607ba	-0.16213885
29	0xbe25a74e	-0.16177103
30	0xbbe56dfe	-0.0070016375
31	0x3de45fdc	0.11151096
32	0x3e0f0aef	0.13969015
33	0xbd1f01bf	-0.038820025
34	0xbc393e5a	-0.01130637
35	0xbea06e4c	-0.3133415
36	0xbd92a1af	-0.07159745
37	0xbcefb98f	-0.029263286
38	0x3e058acb	0.13041227
39	0x3e12e8fa	0.14346686
40	0x3d0b66bd	0.034033526
41	0x3dc1d5e8	0.094646275
42	0x3d81105d	0.06301949
43	0xbe4a46fb	-0.1975364
44	0xbdbab1eb	-0.091159664
45	0xbcf69686	-0.030101072
46	0x3e296553	0.16542558
47	0x3ddd12e1	0.107946165
48	0xbda4276e	-0.08015333
49	0xbd86d674	-0.065838724
50	0x3d2206c4	0.039557233
51	0x3ba5ebcc	0.0050635096
52	0x3db6422c	0.0889934
53	0xbbdfbc93	-0.0068278997
54	0x3d8459f4	0.0646247
55	0x3dc52a3f	0.096271984
56	0x3e0e5848	0.13900864
57	0x3d8be10d	0.068300344
58	0x3ceca827	0.028888775
59	0xbd3b211d	-0.045685876
60	0x3e016fce	0.12640306
61	0xbe1f096d	-0.1553094
62	0x3e1a16a8	0.15047705
63	0xbc2280f1	-0.009918437
64	0xbca828de	-0.0205273
65	0x3d94275e	0.07234071
66	0xbc685fc5	-0.0141829895
67	0xbe140a3d	-0.1445703
68	0x3ca8700c	0.02056124
69	0x3e118644	0.14211375
70	0x3e14679a	0.14492646
71	0x3e2e93a6	0.17048511
72	0x3e3865f0	0.18007636
73	0x3cc3d709	0.023906248
74	0x3e5f09f9	0.21781148
75	0xbdfddd74	-0.123957545
76	0xbc8ff166	-0.017571162
77	0xbe04f851	-0.1298535
78	0x3e109866	0.14120635
79	0x3e5e58d8	0.21713579
80	0xbe16634a	-0.14686313
81	0xbde63260	-0.11240077
82	0x3c90c661	0.01767272
83	0x3dcf0d54	0.10109964
84	0xbc8577bc	-0.016292445
85	0xbdda120d	-0.10647974
86	0x3d8ad37f	0.06778621
87	0x3e2b6f07	0.16741572
88	0xbdc9fd1b	-0.09862729
89	0xbe637d28	-0.22215712
90	0xbe362e99	-0.17791213
91	0xbdddacf0	-0.10824001
92	0xbdd8be4b	-0.105831705
93	0x3df17749	0.1179033
94	0x3e09dfe6	0.13464317
95	0x3e33b215	0.17548402
96	0x3dff1c57	0.12456577
97	0x3c7bb08d	0.015361917
98	0x3e11776d	0.14205714
99	0xbcd47bd3	-0.02593795
100	0x3db7280a	0.08943184
101	0x3deae1b6	0.11468832
102	0xbcb5e41d	-0.0222035
103	0x3c511085	0.012760286
104	0x3db9c795	0.090712704
105	0x3d9540d2	0.07287754
106	0x3cee3707	0.029078973
107	0xbe153e8d	-0.14574642
108	0xbe739195	-0.23786004
109	0xbdce4f91	-0.1007377
110	0xbdbca64b	-0.09211405
111	0xbd8a69e2	-0.06758477
112	0x3e25b4a4	0.1618219
113	0x3dea4a11	0.11439908
114	0xbdbd87d5	-0.092544235
115	0x3e4cf206	0.200142
116	0xbe134c3e	-0.14384553
117	0xbc933d38	-0.017973527
118	0x3d61ab79	0.05509517
119	0xbd9d1b35	-0.07671205
120	0xbd491c9a	-0.049099542
121	0x3e0dfd17	0.13866077
122	0x3e2ead91	0.17058398
123	0x3d0d185f	0.03444707
124	0x3d033c91	0.032040183
125	0x3d44ab5d	0.048014987
126	0xbe4cbbb6	-0.19993481
127	0xbe293a2b	-0.16526096
128	0x3d39235a	0.04519973
129	0xbd793bb7	-0.060847964
130	0xbdf57735	-0.119856276
131	0xbd833585	-0.064066924
132	0xbdc1b12c	-0.09457621
133	0x3da5255a	0.08063765
134	0xbe03b72a	-0.1286284
135	0xbb890e1e	-0.004182591
136	0xbca503f7	-0.020143492
137	0xbccf5d13	-0.025312936
138	0xbdc14a0c	-0.094379514
139	0xbd62ddec	-0.055387422
140	0xbdc17e78	-0.0944795
141	0xbd9a3f05	-0.07531551
142	0x3d01fe1e	0.031736486
143	0xbe11eace	-0.14249727
144	0x3c4fdd68	0.012687065
145	0xbd1ad691	-0.037802283
146	0xbc1d156d	-0.009587628
147	0x3d201919	0.039086435
148	0xbe0a9006	-0.13531503
149	0x3d322ab4	0.043497756
150	0x3d2d1af2	0.042262025
151	0xbdd8d729	-0.105879135
152	0xbe14f800	-0.1454773
153	0x3dd430c6	0.10360865
154	0xbe33aee4	-0.17547184
155	0x3e0cf5ce	0.13765642
156	0xbd84a137	-0.06476062
157	0xbe271714	-0.16317397
158	0x3d8adc42	0.06780292
159	0x3d2a5f48	0.041594774
160	0x3ddd63ed	0.10810075
161	0xbdeb3cae	-0.11486183
162	0x3d0a34d0	0.033741772
163	0xbd3464b1	-0.04404134
164	0x3decbf14	0.11559883
165	0x3d3da826	0.046302937
166	0xbe1c129c	-0.15241474
167	0x3da37925	0.07982091
168	0xbdc76ba3	-0.09737327
169	0xbde39b8c	-0.111136526
170	0xbd88592e	-0.06657635
171	0xbd58b3c6	-0.05290582
172	0x3d8e4905	0.06947521
173	0xbe351b15	-0.17686112
174	0x3e162cea	0.14665571
175	0x3d427d3b	0.04748271
176	0x3c2d9530	0.010594651
177	0x3dda9a11	0.10673917
178	0xbe05300e	-0.13006613
179	0xbe2ae58b	-0.16689126
180	0x3d9d2bd9	0.07674379
181	0xbd2508b0	-0.04029149
182	0x3dd9fa9e	0.106435046
183	0xbe102040	-0.14074802
184	0xbdb9bf25	-0.09069661
185	0xbe070057	-0.13183723
186	0x3e0fb279	0.14032926
187	0xbc6ddabd	-0.014517483
188	0x3d4118e8	0.047142893
189	0xbe00c30a	-0.12574401
190	0xbe27d844	-0.16391093
191	0x3e297b56	0.16550955
192	0xbc847f93	-0.016174113
193	0x3d540b97	0.051768865
194	0x3cd09814	0.025463142
195	0xbd983a72	-0.074330226
196	0x3c65d673	0.014028179
197	0x3b1c47d3	0.0023846522
198	0xbd52b34d	-0.051440526
199	0x3e125b50	0.14292645
200	0x3cc535dc	0.024073534
201	0x3cb4f8cf	0.022091297
202	0x3e0dace0	0.13835478
203	0xbd216297	-0.039400663
204	0xbcf8f8e9	-0.030392127
205	0x3dabe85d	0.08393929
206	0x3ccbc54b	0.02487435
207	0xbdc5f72c	-0.09666285
208	0x3bb231c5	0.005438062
209	0x3d3713e7	0.044696715
210	0xbb412656	-0.0029472313
211	0xbe15f987	-0.14645968
212	0xbd2c0b80	-0.042003155
213	0x3d7b8b80	0.061412334
214	0xbe173a80	-0.1476841
215	0x3d76a634	0.060217097
216	0x3d928067	0.07153397
217	0xbe245980	-0.16049767
218	0x3db16d61	0.086634405
219	0x3d17f33d	0.037097204
220	0x3dac7e97	0.084225826
221	0xbc65534e	-0.013996912
222	0xbd9f9318	-0.07791728
223	0xbc26d2af	-0.010182067
224	0xbd0657c9	-0.032798562
225	0xbd9ad7a3	-0.07560661
226	0x3d6370e4	0.055527583
227	0x3dce6c91	0.10079301
228	0xbe04438a	-0.12916389
229	0xbe033430	-0.12812877
230	0xbe040fe8	-0.12896693
231	0xbadd28e5	-0.001687315
232	0xbdf39345	-0.11893324
233	0xbe2c2959	-0.16812648
234	0x3de1dd9c	0.11028597
235	0x3e000540	0.12502003
236	0xbdd9131a	-0.105993465
237	0x3dd728ee	0.105058536
238	0xbcad35f7	-0.021143897
239	0x3bcc4fbf	0.0062350924
240	0xbe2c422e	-0.1682212
241	0x3d9df416	0.07712571
242	0xbe1302db	-0.14356558
243	0x3c4c780e	0.012479795
244	0x3d870f67	0.06594735
245	0xbe08dc72	-0.13365343
246	0xbca4d47b	-0.02012085
247	0xbc4d3799	-0.012525463
248	0x3d02981a	0.031883337
249	0xbd21f7e5	-0.03954305
250	0xbd2a1b19	-0.04152975
251	0xbda60195	-0.081057705
252	0xbd59be14	-0.05315979
253	0x3e0e2604	0.1388169
254	0x3de9cdd3	0.11416211
255	0xbe14460e	-0.14479849

lin1.weight f4 [128, 128]
0	0x3d17114b	0.036881726
1	0x3b8bf14e	0.004270709
2	0x3d256dc7	0.040387895
3	0x3d87343e	0.06601761
4	0x3d299394	0.041400507
5	0xbc0cd88b	-0.00859655
6	0x3dfedfe0	0.124450445
7	0x3d77b873	0.06047864
8	0x3c086613	0.008325118
9	0x3e3ddf8d	0.18542309
10	0x3dbd72f4	0.09250441
11	0xbb85fe76	-0.004089172
12	0x3cdd6dad	0.027029837
13	0x3da49a7e	0.080372795
14	0x3d91aeb5	0.07113401
15	0x3e12cfb0	0.14337039
16	0xbccfec05	-0.025381098
17	0x3decc319	0.115606494
18	0x3d6c38b5	0.057671268
19	0x3d331be4	0.04372777
20	0xbcb3f33f	-0.021966575
21	0x3c4391c9	0.011936613
22	0x3e29b824	0.1657415
23	0x3df09337	0.11746829
24	0xbd991888	-0.07475382
25	0xbdc3ae37	-0.09554713
26	0x3d3d19e1	0.04616726
27	0x3d83ae6c	0.06429753
28	0x3e5ecf14	0.21758682
29	0xbe70e5fe	-0.23525235
30	0x3e2495b9	0.1607274
31	0x3dd1216c	0.10211453
32	0x3dd7fa5c	0.10545799
33	0x3d9b7044	0.07589772
34	0x3da43ede	0.080198035
35	0x3e4fa475	0.20277579
36	0x3d498175	0.049195725
37	0xbc93119c	-0.017952733
38	0x3cad96e8	0.021190122
39	0xbd31aa70	-0.043375432
40	0xbcb20267	-0.021729661
41	0x3cfe8472	0.031069014
42	0x3e6389c1	0.22220518
43	0x3d5ed58d	0.054402877
44	0x3e9cca9b	0.30623326
45	0x3cc1d91b	0.023663094
46	0xbe33419e	-0.175055
47	0xbd205986	-0.039147876
48	0x3e14ea2e	0.14542457
49	0xbc36ee3a	-0.011165196
50	0x3e2fbad6	0.17161116
51	0x3cccb857	0.024990244
52	0x3e291f59	0.16515864
53	0xbde27cfd	-0.11058996
54	0xbd93c836	-0.072159216
55	0x3d97f2fc	0.074193925
56	0x3d5f4a55	0.054514248
57	0x3e0f69a3	0.14005141
58	0x3caa3e5f	0.020781694
59	0xbd0f6e89	-0.035017524
60	0x3dac9e08	0.084285796
61	0x3d2abb60	0.0416826
62	0x3dcc983e	0.099899754
63	0x3db25abf	0.08708715
64	0x3dadb879	0.08482451
65	0x3e30b4f2	0.17256525
66	0x3e0fd3cd	0.1404564
67	0x3d8eaec6	0.06966929
68	0x3ddff12f	0.10934674
69	0x3d2a77f1	0.04161829
70	0x3e0fd275	0.14045127
71	0x3dbb44a0	0.091439486
72	0xbd4258e4	-0.047448054
73	0xbc8b9d34	-0.017042734
74	0x3d929303	0.071569465
75	0x3d2c16ee	0.042014055
76	0x3d26dacc	0.040736005
77	0x3c705b11	0.014670149
78	0xba79c948	-0.00095285894
79	0xbcbb090c	-0.022831462
80	0x3d377ddf	0.044797774
81	0xbe314403	-0.173111
82	0x3e0a34d1	0.1349671
83	0x3df07284	0.11740592
84	0x3c8e5b65	0.017377565
85	0x3db3fbe3	0.08788278
86	0xbc69ba22	-0.014265569
87	0x3e3f6a76	0.18692955
88	0xbd98d4b4	-0.07462445
89	0x3d97948a	0.074013785
90	0x3de75dbd	0.11297176
91	0x3b1d4b9c	0.0024001366
92	0x3cfacc48	0.030614987
93	0x3bf07461	0.007338092
94	0x3e6c6bca	0.23087993
95	0xbd6c1e12	-0.057645865
96	0x3d2d8413	0.042362284
97	0xbdf79fd8	-0.12091035
98	0x3bbf2d6b	0.0058342717
99	0x3cc6f618	0.024287269
100	0x3d463377	0.048388924
101	0xbc914114	-0.017731227
102	0xbd667c35	-0.056270797
103	0x3d837697	0.064191036
104	0x3e3e7641	0.18599798
105	0x3dcbb26a	0.09946139
106	0xbd2fddef	-0.04293626
107	0x3da99d06	0.08281903
108	0xba312ae6	-0.00067584065
109	0x3dba0aa9	0.090840645
110	0xbd298750	-0.04138881
111	0xbd22e1b2	-0.03976602
112	0x3e707d3b	0.23485272
113	0x3d95e524	0.07319096
114	0x3db03e50	0.08605635
115	0x3d119e13	0.035551142
116	0x3da604d1	0.081063874
117	0xbd33842c	-0.04382722
118	0x3d4ed4b5	0.050495822
119	0xbd56cb70	-0.052440107
120	0xbdabd8ea	-0.083909824
121	0x3dc3488a	0.0953532
122	0x3d735410	0.05940634
123	0x3d812731	0.06306303
124	0x3d3778e1	0.044793013
125	0xbd8ade2d	-0.06780658
126	0x3dbd10cd	0.0923172
127	0x3c6555dc	0.013997521
128	0xbd9ae713	-0.07563605
129	0xbd7ea7d7	-0.062171783
130	0x3ef7c94d	0.48395768
131	0xbc9da53c	-0.019243829
132	0xbe879c29	-0.26486328
133	0x3d990f65	0.074736394
134	0x3d99c179	0.07507605
135	0x3b3e3fec	0.00290298
136	0xbdc354ad	-0.09537635
137	0x3dc1b478	0.0945825
138	0x3de79659	0.113079734
139	0x3e0bb66f	0.13643812
140	0xbceb7aaa	-0.028745014
141	0xbe4361b4	-0.1908024
142	0x3a893e91	0.0010470917
143	0xbdc13998	-0.09434813
144	0xbb4ec7c8	-0.0031552184
145	0xbe9b8e23	-0.3038188
146	0xbde660d8	-0.1124894
147	0xbd231c3a	-0.03982184
148	0x3b9b0b95	0.0047316053
149	0x3d71272d	0.05887525
150	0xbe067f1c	-0.13134426
151	0xbe359a29	-0.17734589
152	0x3dae71f9	0.08517832
153	0x3d93f704	0.07224849
154	0xbd7f9e4a	-0.062406816
155	0x3c936e1c	0.01799684
156	0x3e21bb23	0.15794043
157	0x3d8f62b1	0.07001246
158	0xbe297de1	-0.16551925
159	0xbcccb0f1	-0.024986716
160	0xbe199618	-0.14998662
161	0x3d3cd2a6	0.046099328
162	0x3edf1ce9	0.43576744
163	0xbe81291c	-0.25226676
164	0x3d02e9e3	0.031961333
165	0xbc7eb328	-0.015545644
166	0xbe0eb20b	-0.13935106
167	0xbd7001ad	-0.05859535
168	0xbc1ae816	-0.009454748
169	0xbd7c139c	-0.06154214
170	0xbe2ecf63	-0.17071299
171	0x3cd76b20	0.026296198
172	0x3c9fc22a	0.019501764
173	0xbca8c645	-0.020602355
174	0x3b22565a	0.0024770708
175	0x3cc20f06	0.023688804
176	0xbe380bd0	-0.17973256
177	0x3d911847	0.07084709
178	0x3e26781b	0.16256754
179	0x3d43312b	0.047654312
180	0xbe2f7e69	-0.17138065
181	0xbb63df31	-0.0034770484
182	0xbe1eb4ae	-0.15498611
183	0xbd843e5b	-0.06457206
184	0x3e5b47ea	0.21414152
185	0x3d984725	0.07435445
186	0xbd804c23	-0.06264522
187	0x3ede9810	0.4347539
188	0x3e186c5e	0.14885089
189	0xbe82ad06	-0.2552263
190	0xbd67adad	-0.056562115
191	0xbe070acd	-0.13187714
192	0x3e14c613	0.14528684
193	0xbe6ef440	-0.23335361
194	0xbdc680a7	-0.09692507
195	0x3d64acc0	0.05582881
196	0xbdd50ea2	-0.104031816
197	0x3d2b1464	0.041767493
198	0xbe8f0e92	-0.27940804
199	0xbe539ea0	-0.2066598
200	0x3da0ac64	0.07845381
201	0x3dabb754	0.083845764
202	0xbdd67797	-0.10472029
203	0xbe540b09	-0.20707335
204	0x3ba0ef68	0.004911352
205	0x3c8537a6	0.016261887
206	0xbdd48003	-0.10375979
207	0x3ee7cf44	0.4527532
208	0x3da8a9c6	0.08235507
209	0x3d5f1a08	0.054468185
210	0xbe83da32	-0.25752407
211	0x3d9abdd9	0.07555742
212	0x3e2c317f	0.16815756
213	0xbcd1727e	-0.02556729
214	0x3d64a2cd	0.05581932
215	0xbde6d79e	-0.112715945
216	0xbdf13f1f	-0.117796175
217	0xbda71efb	-0.08160206
218	0xbe45448f	-0.19264434
219	0xbdf841dc	-0.12121937
220	0x3e891a5d	0.26777926
221	0xbbf389fa	-0.0074322196
222	0xbe0a045e	-0.13478228
223	0x3bd74118	0.006569039
224	0xbe9cf921	-0.3065882
225	0x3e2d0b2a	0.1689879
226	0xbe040416	-0.12892184
227	0xbe1227b1	-0.14272954
228	0xba73dcab	-0.00093025964
229	0x3e86c0d4	0.2631899
230	0x3cc9f7d9	0.024654316
231	0xbe80ca90	-0.25154543
232	0xbe8e9578	-0.2784841
233	0x3cca119c	0.0246666
234	0x3ce2782c	0.027645193
235	0xbe929965	-0.28632656
236	0xbd937410	-0.071998715
237	0x3dad6af2	0.08467664
238	0xbd9557e3	-0.07292154
239	0xbc77314a	-0.015087435
240	0xbe10b110	-0.14130044
241	0xbd7e5c94	-0.062100008
242	0xbe9c4542	-0.3052159
243	0xbd96881d	-0.0735018
244	0xbbb3087b	-0.0054636574
245	0x3d193753	0.037406277
246	0xbd888873	-0.066666506
247	0x3d13b5c6	0.036062025
248	0x3d35ff4f	0.044432934
249	0xbd37a9cf	-0.044839676
250	0xbccb559f	-0.0248211
251	0xbd2b2e83	-0.041792404
252	0xbaceef61	-0.0015787893
253	0xbc649984	-0.013952617
254	0xbe6541f7	-0.22388445
255	0xbd217e6c	-0.039427206

lin1.bias f4 [128]
0	0xbdd30973	-0.10304537
1	0x3cf8ea0f	0.030385045
2	0xba10c0cd	-0.00055218936
3	0xbdf1bf58	-0.11804074
4	0xbbd69474	-0.0065484587
5	0xbd4008af	-0.04688328
6	0x3e008bba	0.12553301
7	0xbca67290	-0.0203183
8	0xbd84523c	-0.064609975
9	0xbd3512d1	-0.044207398
10	0xbd6b0c6f	-0.057384904
11	0xbd8c2cdc	-0.06844494
12	0xbd9a01ea	-0.07519896
13	0xbdc679d0	-0.09691203
14	0xbe081d33	-0.13292389
15	0xbcb6f90f	-0.022335557
16	0x3cf05646	0.029338013
17	0x3ce04d86	0.027380716
18	0xbe16a8c8	-0.14712822
19	0xbd8d4158	-0.06897229
20	0x3d854cd2	0.06508793
21	0xbd942465	-0.07233504
22	0x3d8022be	0.062566265
23	0xbdfacdfe	-0.12246321
24	0xbde2058b	-0.110362135
25	0xbdcf11f9	-0.1011085
26	0xbd42b120	-0.0475322
27	0xbdfe9add	-0.124318816
28	0xbdeacb44	-0.11464551
29	0xbd88ce23	-0.066799425
30	0xbd4e18a9	-0.050316487
31	0xbbe47aee	-0.006972662
32	0xbe0ccdf8	-0.13750446
33	0xbd78b58c	-0.06072001
34	0x3d563e3b	0.05230544
35	0xbda39463	-0.07987287
36	0xbd914dba	-0.07094903
37	0xbdc24f5d	-0.094877936
38	0xbdfc49af	-0.123187415
39	0xbdcfe5e8	-0.10151273
40	0xbd07d317	-0.033160295
41	0x3d9d4520	0.076792
42	0xbdba8804	-0.09107974
43	0xbdc97cee	-0.098382816
44	0xbd6322d4	-0.055453137
45	0xbd1c9af0	-0.038233697
46	0xbdc50a1e	-0.0962107
47	0xbd9870e6	-0.07443409
48	0xbd05dcae	-0.03268116
49	0xbb5fb639	-0.0034135713
50	0xbc34b06a	-0.0110283885
51	0x3c77c7cc	0.015123319
52	0xbdd081da	-0.10181017
53	0xbdbaad77	-0.09115117
54	0x3be40f67	0.006959844
55	0x3bd1ca87	0.006402317
56	0x3c39df03	0.011344674
57	0x3c4c4a66	0.01246891
58	0xbd41ca83	-0.04731227
59	0xbdc0d42c	-0.094154686
60	0xbd25dfff	-0.040496822
61	0xbe14c346	-0.14527616
62	0xbd5b9794	-0.053611353
63	0x3ce3dd73	0.027815556
64	0xbdba312f	-0.09091412
65	0xbd4752b1	-0.048662845
66	0xbda544c8	-0.080697596
67	0x3ce8ff9f	0.028442202
68	0x3cf34ad3	0.029698765
69	0xbe01736d	-0.12641688
70	0xbde2b761	-0.11070133
71	0x3dc0551a	0.09391232
72	0x3c8812f7	0.016610606
73	0xbd7041a9	-0.05865637
74	0xbdbf5023	-0.09341457
75	0xbde1ba47	-0.11021858
76	0xbdc9ad6a	-0.09847529
77	0xbd14ac49	-0.036297116
78	0xbdc5b8d6	-0.09654395
79	0xbca3b4ad	-0.019983614
80	0xbdaae51a	-0.08344479
81	0xbdcf9141	-0.10135127
82	0xbda486b5	-0.08033506
83	0xbd57e4f3	-0.052708577
84	0x3cba5c30	0.022749037
85	0xbd8ab940	-0.06773615
86	0xbe2518b8	-0.1612271
87	0xbd23b0a6	-0.039963387
88	0xbd374943	-0.044747602
89	0x3d184fb8	0.0371854
90	0xbdcb438e	-0.099249944
91	0xbd4755a5	-0.04866566
92	0xbe531a9e	-0.20615622
93	0xbcabe2cd	-0.02098217
94	0xbd873456	-0.06601779
95	0xbd3d83d4	-0.0462683
96	0xbb063263	-0.002047681
97	0x3c1788d9	0.009248936
98	0x3d8bcd21	0.068262346
99	0xbdeeb531	-0.11655653
100	0x3cf1dcf1	0.029524298
101	0xbe0a18ec	-0.1348607
102	0x3c9e2041	0.01930249
103	0xbd0b1e98	-0.033964723
104	0x3c901f31	0.017592998
105	0x3c68fdfd	0.014220712
106	0xbd1d8bbd	-0.038463343
107	0xbde8bf22	-0.11364581
108	0x3c9cab8d	0.01912477
109	0xbce3cfe9	-0.0278091
110	0xbd7027ce	-0.05863171
111	0xbdddfc2c	-0.108391136
112	0xbbdb930a	-0.006700878
113	0xbdcd243b	-0.10016676
114	0xbdca28f5	-0.09871093
115	0x3cf76a78	0.030202135
116	0x3c8a3f8f	0.01687601
117	0x3c3c3f92	0.011489766
118	0xbdd36c58	-0.10323399
119	0xbdf1e6ee	-0.118116245
120	0xbcc812c4	-0.02442301
121	0x3c0387ea	0.00802801
122	0xbca48afa	-0.0200858
123	0xbdaf064d	-0.08546124
124	0xbdb05241	-0.08609439
125	0xbe1ea835	-0.15493853
126	0xbde813c4	-0.11331895
127	0xbd59edaf	-0.05320519

lin2.weight f4 [2, 128]
0	0xbd38aa56	-0.04508432
1	0x3e3579f8	0.17722309
2	0xbd6ae29b	-0.057345014
3	0xbe005aef	-0.12534688
4	0xbd0a9efc	-0.033843026
5	0xbc863fac	-0.016387783
6	0x3e41c58c	0.18923014
7	0x3c77282e	0.015085263
8	0xbda552cc	-0.08072433
9	0xbde70535	-0.1128029
10	0xbb9faf8e	-0.0048732227
11	0xbe47c38c	-0.19508189
12	0x3e593f79	0.21215619
13	0xbcdb395e	-0.026760753
14	0xbd40ac5c	-0.047039375
15	0x3e0bff29	0.13671555
16	0xbd780362	-0.0605501
17	0x3d5ac336	0.053408824
18	0xbd80019e	-0.062503085
19	0xbdd45e04	-0.103694946
20	0x3d54075a	0.051764823
21	0xbda6d8bc	-0.081468076
22	0x3e062670	0.131006
23	0x3cd15768	0.025554374
24	0xbd338a76	-0.04383322
25	0x3d50c3e4	0.050968066
26	0xbaa5c049	-0.0012645806
27	0x3e633e9c	0.22191852
28	0x3cda177a	0.026622523
29	0x3ca67b61	0.020322504
30	0x3d45affb	0.04826353
31	0xbd9b807f	-0.07592868
32	0xbc7ceebb	-0.015437777
33	0x3c8da207	0.017289175
34	0x3db73ad2	0.08946766
35	0x3d3093ab	0.043109577
36	0x3cf28044	0.029602177
37	0xbd87830a	-0.066167906
38	0x3c95ab45	0.018270144
39	0x3e88d1ae	0.26722473
40	0x3b7d06f7	0.0038608888
41	0x3e1a7ec5	0.15087421
42	0xbde346c5	-0.110974826
43	0x3d47289c	0.048622712
44	0x3c3f3159	0.01166948
45	0xbd0089cd	-0.031381417
46	0xbdf7e0fd	-0.1210346
47	0xbb2872e8	-0.0025703255
48	0xbd20db4d	-0.03927164
49	0x3cb051ec	0.021523438
50	0xbe16f758	-0.14742792
51	0xbe08c5da	-0.13356724
52	0xbe136c1e	-0.14396712
53	0xbc1b7ce2	-0.009490224
54	0xbbb625b5	-0.0055586942
55	0xbda863c1	-0.082221515
56	0x3d04b780	0.03240156
57	0xbcf6021f	-0.030030308
58	0xbdea36d3	-0.11436238
59	0x3c145d1e	0.009055404
60	0x3c2418b9	0.01001566
61	0xbe47b242	-0.19501594
62	0xbe198bd4	-0.14994746
63	0xbc5f1097	-0.013614795
64	0x3d7d796e	0.061883382
65	0xbd8f064a	-0.069836214
66	0xbdc8dcd2	-0.09807743
67	0xbd759709	-0.05995849
68	0x3c99f838	0.018795118
69	0x3d9c91b7	0.076449804
70	0xbdc23ab4	-0.09483853
71	0x3ce3448d	0.027742648
72	0x3e5b1694	0.21395332
73	0x3d93b26e	0.07211767
74	0xbd49f110	-0.04930216
75	0xbc3c91e9	-0.011509397
76	0x3dc437dc	0.09580967
77	0x3c095299	0.008381509
78	0xbe393ac0	-0.18088818
79	0x3b9aa069	0.0047188294
80	0x3c1db25d	0.009625045
81	0xbe606ea9	-0.21917213
82	0xbc19e734	-0.009393502
83	0x3cdfcf70	0.027320594
84	0xbe1abc4f	-0.15110897
85	0xbe1b4d51	-0.15166213
86	0xbe24c699	-0.16091384
87	0xbc4d8b3e	-0.012545405
88	0x3db18793	0.08668437
89	0xbda1c77e	-0.07899378
90	0xbd34e8f6	-0.04416748
91	0xbb9c7ede	-0.004775866
92	0xbcaef770	-0.021358222
93	0x3d0688a6	0.03284516
94	0xbe3a349a	-0.18184128
95	0xbccd966b	-0.025096139
96	0xbe557db0	-0.20848727
97	0xbd2f87f8	-0.04285428
98	0x3ca070f7	0.019585116
99	0x3ca0422e	0.019562807
100	0x3cb495ac	0.022044025
101	0x3ec3a1f3	0.38209495
102	0x3d72f2b4	0.05931349
103	0x3cbf35db	0.02334111
104	0x3d2c17af	0.042014774
105	0xbd28c89a	-0.041206934
106	0x3e34299b	0.17593996
107	0x3d44f47e	0.04808473
108	0xbd59e064	-0.05319251
109	0x3ce6944b	0.028146883
110	0xbe19a02c	-0.15002507
111	0xbdfbad88	-0.12288958
112	0x3c11579e	0.008870987
113	0xbe1b37c9	-0.15157999
114	0x3c9179da	0.017758299
115	0xbe1b1654	-0.15145236
116	0xbe5f620a	-0.21814743
117	0x3d700915	0.05860241
118	0xbcd19415	-0.025583306
119	0xbe22bf74	-0.15893346
120	0xbb01ae1e	-0.001978762
121	0xbcdca0cc	-0.026932143
122	0xbd858dd5	-0.06521193
123	0x3d432025	0.047638077
124	0x3d9768c1	0.07393027
125	0xba49b80b	-0.0007694966
126	0xbd559420	-0.052143216
127	0xbdad791b	-0.08470365
128	0x3e286837	0.16446005
129	0xbe8cae44	-0.27476704
130	0xbd9bcfa3	-0.07607963
131	0x3d41c139	0.047303412
132	0x3de2346c	0.11045155
133	0x3ca38d71	0.019964905
134	0xbdc8e8c2	-0.0981002
135	0x3d5bef34	0.05369492
136	0x3d579606	0.052633308
137	0x3e509ee5	0.20373113
138	0xbc01d707	-0.007924802
139	0x3da04d88	0.07827288
140	0xbe07194f	-0.13193248
141	0xbd5c89c5	-0.053842325
142	0x3bf787d6	0.0075540347
143	0xbe215961	-0.15756752
144	0xbd8ae61f	-0.06782173
145	0x3d503b25	0.050837655
146	0xbd4d34c0	-0.050099134
147	0x3e1468cd	0.14493103
148	0xbe205d15	-0.15660508
149	0xbdaba2c8	-0.083806574
150	0xbe37ddc7	-0.17955695
151	0x3d5d42e8	0.054018885
152	0x3a6c60d9	0.0009017117
153	0xbdc0d17b	-0.09414955
154	0xbd57a47b	-0.052647095
155	0xbe479050	-0.19488645
156	0x3d0b5e47	0.034025457
157	0xbd7d2d21	-0.061810616
158	0x3c3f00cd	0.011657906
159	0x3cf237db	0.02956765
160	0x3d255f84	0.040374294
161	0x3bd6241e	0.006535067
162	0xbdee3df8	-0.11632913
163	0xbd214a70	-0.03937763
164	0xbc865bbb	-0.016401162
165	0xba424038	-0.0007410082
166	0x3c3a6573	0.011376726
167	0xbe4cec28	-0.20011961
168	0xbd4a5a8c	-0.04940276
169	0xbd6b4c4e	-0.057445817
170	0x3e24687f	0.16055487
171	0x3d16c76f	0.03681129
172	0x3d33a5ae	0.043859176
173	0x3cda357c	0.026636831
174	0x3e4360c5	0.19079883
175	0xbdb1e14e	-0.086855516
176	0x3d7d0ea6	0.061781548
177	0x3cffb186	0.03121258
178	0x3dc61c30	0.09673345
179	0x3e2151c1	0.15753843
180	0x3e103559	0.1408285
181	0x3a762d8b	0.00093909417
182	0xbdb2c5c9	-0.08729131
183	0x3d9c2ce6	0.07625751
184	0xbbcd6996	-0.0062686903
185	0xbc141f68	-0.009040691
186	0xbd63f567	-0.055653956
187	0xbd68af8e	-0.056808047
188	0xbbb2f788	-0.005461637
189	0x3e457318	0.19282186
190	0x3e0a8d3e	0.13530442
191	0xbd2d1bf8	-0.042263
192	0xbe0be404	-0.136612
193	0x3e0d5141	0.13800527
194	0x3e30b5a5	0.17256792
195	0x3d64bba0	0.055842996
196	0xbc369b5f	-0.011145442
197	0xbcccaaad	-0.024983728
198	0x3e0ee592	0.13954762
199	0xbe0ea7e3	-0.13931231
200	0xbd98af18	-0.074552715
201	0xbc8fb6c4	-0.017543204
202	0x3c188a65	0.00931034
203	0xbc3666ae	-0.011132879
204	0xbe723375	-0.23652442
205	0x3d1e8424	0.038700238
206	0x3e3baf53	0.183286
207	0xbdcecd1f	-0.100977175
208	0x3c25652d	0.010094923
209	0x3e15c591	0.14626147
210	0x3cb97392	0.022638116
211	0xbd6c937f	-0.05775785
212	0x3dd92f14	0.106046826
213	0x3e18eded	0.14934511
214	0x3e0e4ef4	0.13897306
215	0xbb4e8cf1	-0.0031517113
216	0x3d8bfc5d	0.06835244
217	0x3de59277	0.112095766
218	0xbcfed5bf	-0.031107781
219	0x3d03db6f	0.03219169
220	0x3c281b70	0.010260448
221	0xbd5a41bb	-0.05328534
222	0x3e0055b2	0.1253269
223	0x3ccef114	0.02526144
224	0x3e3f48c7	0.18680106
225	0x3dfe3a1a	0.12413426
226	0xbe25b733	-0.16183166
227	0xbcb86a42	-0.022511605
228	0x3cab59e5	0.020916888
229	0xbeab6831	-0.3347793
230	0x3d796997	0.060891714
231	0x3cb5fbab	0.022214731
232	0x3d4ca61b	0.049963098
233	0xbd88962b	-0.06669267
234	0xbe307e10	-0.17235589
235	0x3d8ebc08	0.06969458
236	0xbc4ccd66	-0.012500143
237	0xbcdcd1b9	-0.026955472
238	0x3da76cce	0.0817505
239	0x3df31f6e	0.11871229
240	0x3def7e68	0.11694032
241	0x3e1e636d	0.15467615
242	0x3d9231a3	0.07138374
243	0x3e116b92	0.14201191
244	0x3e0d85fe	0.13820645
245	0xbd2b5a5f	-0.04183423
246	0xbbd05348	-0.006357584
247	0x3d93dd7f	0.072199814
248	0x3c819b92	0.015821252
249	0xbcbb85e3	-0.02289099
250	0x3d44cf84	0.048049465
251	0xbcdbd8cd	-0.026836777
252	0x3c695e06	0.014243608
253	0xbd1216df	-0.035666343
254	0x3c4df617	0.012570879
255	0x3d8bbc4d	0.06823025

lin2.bias f4 [2]
0	0x3d79e631	0.061010543
1	0xbda4df11	-0.08050359
