saved_models/gcn_NCI1.model (torch, 63047 bytes, 10 tensors)

conv1.bias f4 [64]
0	0xbe2e5885	-0.17025955
1	0xbd15db5b	-0.036586147
2	0xbd95a577	-0.073069505
3	0xbd7b4616	-0.061346136
4	0x3df6bf3f	0.12048196
5	0xbe6cdcd5	-0.23131116
6	0x3e3231ef	0.1740186
7	0xbdf5b9d3	-0.11998334
8	0xbdf67819	-0.120346256
9	0xbc98a721	-0.01863438
10	0x3dc704bc	0.097177
11	0x3e2af8ee	0.16696522
12	0xbd98db73	-0.074637316
13	0x3e5d7224	0.21625572
14	0x3d539d29	0.05166355
15	0xbbe27409	-0.006910805
16	0xbeaba286	-0.33522433
17	0xbd4f822a	-0.050661243
18	0xbd055db1	-0.032560054
19	0xbc8c442d	-0.017122352
20	0xbe27a413	-0.16371183
21	0xbdd93059	-0.10604925
22	0xbb6daf34	-0.003626776
23	0xbe0552b7	-0.13019834
24	0xbdb0a74b	-0.086256586
25	0xbe7913a6	-0.24323902
26	0xbdf1bc5b	-0.11803504
27	0xbe72fe52	-0.23729828
28	0x3c6756a7	0.014119781
29	0xbdbfb53c	-0.093607396
30	0x3df17dbb	0.11791559
31	0x3e317a4e	0.17331812
32	0x3d7ca4e4	0.06168069
33	0x3e9573b3	0.29189834
34	0xbd7a4186	-0.061097644
35	0xbdba8422	-0.091072336
36	0xbdecf287	-0.11569696
37	0x3c96c5ce	0.018404868
38	0xbe0e0b9d	-0.13871618
39	0x3e94f623	0.29094037
40	0xbe277397	-0.16352688
41	0x3e1dbd4c	0.15404242
42	0xbd891040	-0.066925526
43	0xbe427daa	-0.1899325
44	0xbddcf5c9	-0.10789067
45	0x3d927bbf	0.07152509
46	0xbd7928a8	-0.06082979
47	0xbdfe69f4	-0.12422553
48	0x3e191a11	0.1495135
49	0x3db2665e	0.08710931
50	0xbe7e8684	-0.24856001
51	0xbe03f0d1	-0.12884833
52	0xbe15f801	-0.14645387
53	0xbd8e890b	-0.069597326
54	0xbd2288d4	-0.03968127
55	0xbe69c36c	-0.22828454
56	0x3d39157f	0.045186516
57	0x3ca5f94b	0.020260474
58	0x3dd04e06	0.10171132
59	0x3da57002	0.080780044
60	0x3d74cb7d	0.059764374
61	0xbc9926bc	-0.018695228
62	0x3d97d6fc	0.07414052
63	0x3e6051db	0.21906225

conv1.lin.weight f4 [64, 37]
0	0x3eb23672	0.34807163
1	0xbf075f00	-0.52879333
2	0xbf63d31b	-0.88993996
3	0xbf384b71	-0.71990114
4	0x3ef32ae5	0.47493663
5	0xbd6bfc25	-0.05761351
6	0x3e8d7a1a	0.2763222
7	0x3df83d06	0.12121014
8	0xbb9c26e4	-0.0047653783
9	0x3e81afbd	0.2532939
10	0x3da13d3f	0.0787301
11	0x3e78f6e2	0.24312928
12	0x3c0abf24	0.008468423
13	0x3d22d0ee	0.039750032
14	0x3e21d9ac	0.15805691
15	0xbe24860d	-0.16066761
16	0xbd62a5a3	-0.055333745
17	0x3cd12ad1	0.025533112
18	0xbc5b2112	-0.013374584
19	0x3e065e45	0.13121898
20	0xbc659ee1	-0.01401493
21	0x3e1f8f59	0.15582027
22	0xbe193271	-0.14960648
23	0x3e4940da	0.19653645
24	0xbe30b487	-0.17256366
25	0xbda9a866	-0.082840726
26	0xbe11d0ff	-0.14239882
27	0x3d2f4f0c	0.042799994
28	0xbd8a451a	-0.06751461
29	0xbe767ab8	-0.24070251
30	0x3de13dfe	0.10998152
31	0x3c59bac5	0.013289158
32	0xbe1f4c91	-0.15556552
33	0x3d91b51b	0.07114621
34	0xbe606e5b	-0.21917097
35	0x3e372459	0.1788496
36	0xbca20ea9	-0.019782381
37	0x3e0b6d89	0.13616003
38	0x3e07dad4	0.1326707
39	0xbd469765	-0.048484225
40	0x3d996491	0.07489885
41	0xbe90310e	-0.28162426
42	0x3e8cdc62	0.2751189
43	0xbe54e490	-0.20790315
44	0xbc37a34a	-0.011208365
45	0xbdfb07e8	-0.12257367
46	0x3baaab3e	0.005208402
47	0x3e3fe5c6	0.18739995
48	0xbdf64851	-0.12025512
49	0xbe654c6d	-0.22392435
50	0xbe07b27d	-0.13251682
51	0xbde2a68d	-0.11066923
52	0xbe0ba8eb	-0.13638656
53	0x3f0b8fba	0.54516184
54	0xbd9bafc0	-0.07601881
55	0xbd4d665d	-0.05014645
56	0xbcb62e7f	-0.022238968
57	0x3db44719	0.08802623
58	0x3f0f1923	0.5589773
59	0x3d8c455b	0.06849166
60	0x3e1fcd9b	0.15605776
61	0xbe5980f9	-0.21240605
62	0x3dabeeef	0.08395182
63	0xbd70f6a0	-0.05882895
64	0xbe5fcd1a	-0.21855584
65	0xbe29de49	-0.16588701
66	0xbe6d926e	-0.2320039
67	0xbe64ff36	-0.2236298
68	0xbd814227	-0.06311446
69	0xbde8f0ab	-0.11374029
70	0xbe1f1f0e	-0.1553919
71	0xbe06a376	-0.13148293
72	0x3d070e2f	0.03297251
73	0x3e666dc8	0.22502816
74	0xbe92d889	-0.28680828
75	0x3d769883	0.06020404
76	0x3b6d4f2c	0.003621052
77	0x3d57eee1	0.052718047
78	0xbe5fcbc2	-0.21855071
79	0x3e9b0cf2	0.30283314
80	0xbd2f8ea8	-0.042860657
81	0xbe54c838	-0.20779502
82	0x3d11b0f9	0.035569165
83	0xbe6b5a75	-0.22983725
84	0xbe136eba	-0.14397708
85	0x3e33f4e7	0.17573892
86	0xbe73be3e	-0.2380304
87	0x3f01c77e	0.50695026
88	0x3dea834d	0.11450825
89	0x3de8afa3	0.11361625
90	0x3e5b27ab	0.21401851
91	0x3e69eef9	0.22845067
92	0xbd95924f	-0.07303297
93	0x3db83c08	0.08995825
94	0x3e298331	0.16553952
95	0x3e445967	0.1917473
96	0xbe57a10c	-0.21057528
97	0xbe5ccfe1	-0.21563675
98	0xbe11d0d1	-0.14239813
99	0x3cfe223b	0.031022182
100	0xbe08e1f2	-0.13367441
101	0xbe33504e	-0.17511103
102	0xbe25ef94	-0.16204673
103	0x3e079178	0.13239086
104	0x3dbbe1e2	0.09173943
105	0x3ca86db5	0.020560125
106	0xbd982fcd	-0.07430992
107	0xbe34801c	-0.17626995
108	0x3dc779d6	0.09740035
109	0x3c898371	0.016786309
110	0xbe208988	-0.15677464
111	0x3e7ff1b3	0.24994545
112	0x3c87dc72	0.016584609
113	0xbe604865	-0.21902616
114	0xbe86fb26	-0.26363486
115	0xbe872957	-0.26398727
116	0x3e8026a7	0.2502949
117	0xbdb1ee6e	-0.08688055
118	0xbdc2df21	-0.09515215
119	0x3caf780f	0.021419553
120	0xbc2df946	-0.010618513
121	0x3e238dd3	0.1597207
122	0xbda2a526	-0.07941656
123	0xbe5125f5	-0.20424636
124	0x3dbc6ab4	0.092000395
125	0xbd123b76	-0.035701238
126	0x3e4131af	0.18866609
127	0xbdc729b5	-0.09724752
128	0xbdb4d72b	-0.088301025
129	0x3d25cb0e	0.04047685
130	0xbe77666a	-0.24160162
131	0xbd2001f3	-0.03906436
132	0x3e07d15a	0.13263455
133	0x3e137dfb	0.14403526
134	0x3e020365	0.12696607
135	0x3dd4026b	0.10352024
136	0xbe1aec4e	-0.15129206
137	0xbd8e643a	-0.069527104
138	0x3d93342d	0.07187686
139	0xbd6a6468	-0.05722466
140	0xbe43efda	-0.19134465
141	0xbd2ce8cf	-0.04221421
142	0xbe2e862a	-0.17043367
143	0x3d7ff546	0.06248977
144	0xbdf0f782	-0.11765958
145	0xbdc174ba	-0.09446092
146	0xbcd09e9b	-0.025466254
147	0x3dcd3665	0.100201406
148	0xbe13d2c3	-0.14435868
149	0x3e1e436f	0.15455411
150	0xbeea9595	-0.45817247
151	0x3e36a0b4	0.17834741
152	0x3e236ad5	0.15958722
153	0xbdfce4fb	-0.12348362
154	0x3e9df412	0.30850273
155	0xbdbbc8e6	-0.09169178
156	0x3e7aee31	0.24504925
157	0x3e6bd99f	0.23032235
158	0x3e25dbe1	0.16197158
159	0xbd4c47a4	-0.04987301
160	0xbdd54d84	-0.104151756
161	0xbda0fc83	-0.07860663
162	0x3df80fc4	0.12112382
163	0x3e624266	0.22095641
164	0xbe6b1e25	-0.22960718
165	0x3e489e7e	0.1959171
166	0x3ef0d54c	0.47037733
167	0xbd20a2df	-0.039217826
168	0x3c4bc9e7	0.012438274
169	0xbe9de394	-0.3083769
170	0xbe51e88c	-0.20498866
171	0xbc0de836	-0.00866132
172	0x3d83f6a9	0.06443531
173	0xbe0faf7c	-0.14031786
174	0x3e3f523d	0.18683715
175	0xbd8f9441	-0.07010699
176	0xbdfff8eb	-0.12498649
177	0xbde3a849	-0.11116082
178	0xbe6b6d5e	-0.22990939
179	0x3e2ae0ef	0.16687368
180	0xbe6c728f	-0.23090576
181	0xbe712a86	-0.23551378
182	0xbd67dbed	-0.056606222
183	0x3e1b3d6c	0.1516015
184	0x3df0fa91	0.11766542
185	0x3db00d5b	0.08596297
186	0x3e3822fd	0.17982097
187	0x3deaa2b9	0.11456818
188	0xbdd5319d	-0.104098536
189	0xbea928c9	-0.3303893
190	0x3e8eb9fb	0.27876267
191	0xbe36ed79	-0.17864026
192	0xbdcc24aa	-0.099679306
193	0xbd26d7c0	-0.0407331
194	0x3d21fdc5	0.039548654
195	0xbe169ae2	-0.1470752
196	0x3e747e48	0.23876297
197	0xbdc40efd	-0.09573171
198	0xbe2c51cf	-0.16828083
199	0x3e4d68c7	0.200595
200	0x3e690bd6	0.22758421
201	0xbeaefa58	-0.34175372
202	0xbe2db429	-0.16963257
203	0xbd44ff74	-0.04809518
204	0xbe121e4b	-0.14269368
205	0xbe831ec1	-0.256094
206	0xbe6ed476	-0.23323235
207	0x3db384f5	0.08765594
208	0xbc276d5d	-0.010218945
209	0xbe665b62	-0.22495797
210	0xbe6f4c31	-0.23368908
211	0xbe6c225e	-0.23059985
212	0x3da9dba9	0.0829385
213	0xbdd4ca48	-0.103901446
214	0x3e3383bb	0.1753072
215	0x3d1bd371	0.038043443
216	0xbdd2fd04	-0.10302165
217	0xbd310afa	-0.04322336
218	0xbe26fa60	-0.16306448
219	0xbc0dc78d	-0.008653534
220	0x3e7948c3	0.24344163
221	0x3e2dc098	0.16968
222	0xbe860df3	-0.26182517
223	0xbe744373	-0.23853855
224	0x3cc4d6c5	0.024028191
225	0xbdb0e877	-0.08638089
226	0x3e33ed7e	0.17571065
227	0xbe6f3458	-0.23359811
228	0xbd49cf25	-0.049269814
229	0xbe12664c	-0.14296836
230	0xbe6ecc1a	-0.23320046
231	0x3e5b0b3c	0.21391004
232	0x3cf175f2	0.029475186
233	0x3e2cf04e	0.16888544
234	0x3e5cd81b	0.21566813
235	0xbe739741	-0.23788168
236	0xbe341232	-0.17585066
237	0xbe2d966c	-0.16951913
238	0xbe8d3cbb	-0.27585396
239	0xbdd07e21	-0.10180307
240	0xbe45a73f	-0.1930208
241	0xbe756152	-0.23962906
242	0xbe1cf790	-0.15328813
243	0xbd4c799f	-0.049920674
244	0x3e0b9b33	0.13633423
245	0x3e15b6df	0.14620541
246	0xbe81fedb	-0.25389752
247	0xbe2f4697	-0.17116772
248	0x3e670835	0.22561724
249	0xbe55e5e5	-0.20888479
250	0xbe4012e8	-0.18757212
251	0x3e32de56	0.17467627
252	0xb92383bd	-0.00015593968
253	0xbc811510	-0.015757114
254	0xbd8c1ae7	-0.06841069
255	0xbda89a4c	-0.08232555

convs.0.bias f4 [64]
0	0x3d90d8c1	0.070725925
1	0xbca92f70	-0.020652503
2	0xbde732fe	-0.11289023
3	0xbd687be6	-0.056758784
4	0x3cff799d	0.03118592
5	0x398fffab	0.00027465573
6	0xbe1a2ffa	-0.15057364
7	0x3d18de70	0.037321508
8	0xbeac5039	-0.33654955
9	0xbdc948ae	-0.09828316
10	0xbc923ac4	-0.017850287
11	0xbd865f86	-0.065611884
12	0x3dab0b34	0.08351746
13	0xbcd6577f	-0.026164768
14	0x3cba55ed	0.02274605
15	0xbc76194a	-0.015020678
16	0xbe4225cd	-0.18959732
17	0xbdbb3209	-0.09140403
18	0xbd6ba0f4	-0.057526544
19	0xbe2bf4c7	-0.16792594
20	0xbd84f254	-0.06491533
21	0x3e8a3a02	0.2699738
22	0x3eed2460	0.46316814
23	0xbc26b0e2	-0.010174008
24	0x3ee84007	0.4536135
25	0xbeb5af00	-0.35485077
26	0xbe17dc05	-0.14830025
27	0xbdc09561	-0.09403492
28	0xbe623f82	-0.22094539
29	0x3e0dd177	0.13849436
30	0x3e985a7a	0.29756528
31	0x3c9dc961	0.019261064
32	0xbe4b8d1c	-0.19878048
33	0xbda133e6	-0.07871227
34	0x3e6a6afc	0.22892374
35	0xbe221a04	-0.15830237
36	0x3e0fec0b	0.14054887
37	0xbe7570d3	-0.2396882
38	0xbb23caf8	-0.0024992805
39	0xbd1fa79d	-0.038978208
40	0xbd89be50	-0.06725752
41	0xbc48052b	-0.012208263
42	0x3de0b8fd	0.10972784
43	0xbe5db929	-0.21652664
44	0x3dceec2b	0.10103639
45	0xbe864acf	-0.2622895
46	0xbdc23a5a	-0.09483786
47	0xbe42273b	-0.18960278
48	0xbe427d8a	-0.18993202
49	0x3e4b5f2e	0.19860527
50	0xbe5cff21	-0.21581699
51	0x3d4015bb	0.046895724
52	0xbd5564f3	-0.052098226
53	0xbdc575a2	-0.09641577
54	0xbe28534c	-0.16438025
55	0x3d0ec8e5	0.034859557
56	0xbdc196ca	-0.09452589
57	0x3e06223d	0.13098998
58	0xbe3e43a6	-0.18580493
59	0xbda40ba3	-0.08010032
60	0xbddd8b82	-0.10817625
61	0xbe47c516	-0.19508776
62	0xbe867b1d	-0.26265803
63	0xbdced901	-0.10099984

convs.0.lin.weight f4 [64, 64]
0	0xbde9c309	-0.11414153
1	0x3cc631ce	0.02419367
2	0xbbbb40e1	-0.0057145213
3	0xbd078171	-0.03308243
4	0xbe821787	-0.25408575
5	0x3ddfdf64	0.1093128
6	0x3dec04e6	0.11524372
7	0xbd794de4	-0.060865298
8	0xbc41a605	-0.011819367
9	0xbc1f0da7	-0.009707845
10	0xbe92ed59	-0.28696707
11	0x3e3b211f	0.18274353
12	0x3d39e52e	0.04538458
13	0xbf07da0c	-0.5306709
14	0xbeb57719	-0.35442427
15	0x3e06167e	0.13094518
16	0xbdd7af47	-0.105314784
17	0xbcad411a	-0.021149207
18	0x3d0f909d	0.035050023
19	0xbd761b32	-0.06008453
20	0x3cf20af4	0.029546238
21	0xbe494949	-0.19656862
22	0xbdc957a4	-0.09831169
23	0xbdd65fe2	-0.10467507
24	0x3d661075	0.05616804
25	0x3d5647d3	0.05231459
26	0xbd463bd6	-0.048396908
27	0xbe3e1561	-0.18562843
28	0x3e09c5b2	0.13454321
29	0x3cb35ed8	0.021895811
30	0xbed47e5a	-0.4150265
31	0x3d954dc3	0.072902225
32	0x3da9dd6c	0.08294186
33	0xbd8459fb	-0.06462475
34	0x3d17d2fc	0.037066445
35	0xbeaa3048	-0.3323996
36	0x3dc32a7e	0.09529589
37	0xbecf9bf2	-0.40548664
38	0x3da721a8	0.08160716
39	0xbe953c32	-0.29147488
40	0xbe77c1ca	-0.24195018
41	0x3e779754	0.24178821
42	0xbddc992a	-0.10771401
43	0x3d095ede	0.033537738
44	0xbd81345f	-0.06308817
45	0xbdb7ed05	-0.08980755
46	0xbee29821	-0.4425669
47	0xbdd71727	-0.10502463
48	0xbddd998a	-0.10820301
49	0xbe79867f	-0.24367712
50	0xbe21226f	-0.15735792
51	0xbd341bb4	-0.043971732
52	0x3e378644	0.17922312
53	0xbe1a920f	-0.1509478
54	0x3ca4d826	0.020122599
55	0x3ca31fbf	0.019912599
56	0xbb102fe1	-0.0022001194
57	0x3d65ff79	0.05615184
58	0x3df799ab	0.12089857
59	0x3e407b31	0.18796994
60	0xbe9e4433	-0.30911407
61	0xbe32382a	-0.17404237
62	0xbde0aa4d	-0.10969982
63	0xbf0f8d08	-0.5607457
64	0x3e3dae6c	0.18523568
65	0xbe719586	-0.23592195
66	0xbdaecf7e	-0.0853567
67	0xbe9d9929	-0.30780914
68	0x3e2480a9	0.16064705
69	0xbe143399	-0.14472808
70	0xbe1e8020	-0.15478563
71	0xbb9d212a	-0.004795213
72	0xbeb886a2	-0.36040217
73	0xbe4567d9	-0.19277896
74	0xbcaf60d1	-0.02140847
75	0x3e8edc49	0.2790244
76	0x3e29e8d9	0.1659273
77	0x3dc8bd16	0.0980169
78	0xbe551941	-0.20810415
79	0xbe50a3c2	-0.20374969
80	0xbc679bb1	-0.014136241
81	0xbbc0b53a	-0.005880979
82	0xbe795d6a	-0.24352041
83	0xbdf89970	-0.12138641
84	0x3e41ec02	0.18937686
85	0x3db96741	0.09052897
86	0x3cc09ca0	0.023512185
87	0xbe9d9f78	-0.30785728
88	0x3db443fd	0.0880203
89	0xbdf21e6a	-0.11822207
90	0xbe3e56a9	-0.18587746
91	0xbe4e8d98	-0.20171201
92	0xbe887286	-0.26649874
93	0x3e3fee8e	0.18743345
94	0x3cedcc7d	0.029028172
95	0x3c6cb9bb	0.0144485785
96	0xbdc21721	-0.09477068
97	0x3eb36d31	0.35044244
98	0x3cd81a20	0.026379645
99	0x3c265c98	0.010153912
100	0xbe9ef332	-0.31044918
101	0xbcc9ef65	-0.024650285
102	0xbe5b6d69	-0.21428455
103	0x3e5ec1af	0.21753572
104	0xbe3d7248	-0.18500626
105	0x3e9c4ac9	0.30525807
106	0xbe3f212b	-0.18664996
107	0xbe66bee2	-0.22533754
108	0xbe49f918	-0.19723928
109	0x3e0c4d35	0.13701327
110	0xbe5aa2ba	-0.21351138
111	0xbe24238f	-0.1602919
112	0xbe52e556	-0.20595297
113	0x3dca63ba	0.098823026
114	0x3d0649b0	0.032785118
115	0xbd86d07c	-0.06582734
116	0xbe4505b7	-0.19240461
117	0xbcf24840	-0.029575467
118	0xbe2c8bba	-0.16850176
119	0xbc7783d3	-0.015107113
120	0x3d6a168b	0.057150405
121	0x3da5f426	0.08103208
122	0xbe39c928	-0.18143141
123	0xbc3c993a	-0.011511141
124	0x3e0a69c3	0.13516907
125	0xbe95d692	-0.29265267
126	0x3d5682db	0.052370887
127	0x3dadbd46	0.08483367
128	0x3f15032e	0.58207977
129	0xbdd28059	-0.102783866
130	0xbe229654	-0.15877658
131	0xbd4211b8	-0.04738018
132	0xbec13324	-0.3773433
133	0x3e07538f	0.13215469
134	0xbeaf3742	-0.34221846
135	0xbc31f622	-0.010861905
136	0x3d9a9d84	0.07549575
137	0xbe1c9f93	-0.15295248
138	0xbe3062ab	-0.17225139
139	0xbebe5a00	-0.3717804
140	0xbe3cceba	-0.18438235
141	0x3d5d4d8e	0.05402904
142	0x3e452120	0.19250917
143	0xbd82d077	-0.06387418
144	0x3e9fee30	0.3123641
145	0xbc1ac918	-0.009447359
146	0xbd5236b9	-0.05132172
147	0xbe28f0b5	-0.16498072
148	0x3c1ff54b	0.009763072
149	0x3d1cc193	0.038270544
150	0xbe836ef7	-0.25670597
151	0xbe853f27	-0.26024744
152	0x3e280b12	0.16410473
153	0xbdb083f1	-0.08618916
154	0x3e0ab71b	0.13546412
155	0xbd8c3455	-0.06845919
156	0x3e056f9d	0.13030858
157	0x3d527dcb	0.051389497
158	0xbe29a9b3	-0.16568641
159	0xbe802d7f	-0.2503471
160	0x3bbd4022	0.0057754675
161	0xbee645c1	-0.44975093
162	0xbe9345c8	-0.28764176
163	0xbed6702f	-0.41882464
164	0x3e40783b	0.18795864
165	0xbd691718	-0.05690679
166	0x3f031eb7	0.5121874
167	0xbea604aa	-0.32425433
168	0xbd26e344	-0.04074408
169	0xbf91fbb2	-1.1404936
170	0xbe44c360	-0.19215155
171	0x3dad6540	0.084665775
172	0xbe014b93	-0.12626486
173	0xbdbb402e	-0.09143101
174	0x3ddb8b0e	0.10719882
175	0xbe145a95	-0.1448768
176	0xbe3a51f0	-0.18195319
177	0xbea407b9	-0.32037142
178	0x3e51630b	0.20447938
179	0x3d98a3d8	0.07453126
180	0x3db8f483	0.09031012
181	0x3dd7de2d	0.105404235
182	0x3d4e09ed	0.050302435
183	0x3e99b0d1	0.30017713
184	0xbe8dfc9d	-0.2773179
185	0x3b4abd1d	0.0030935474
186	0xbdd10661	-0.10206295
187	0xbf89e6be	-1.0773542
188	0x3d21ff60	0.039550185
189	0xbee5c6fc	-0.44878376
190	0xbee93cc6	-0.4555418
191	0x3d2e7e88	0.04260114
192	0xbea9c3a6	-0.3315708
193	0x3e269f8e	0.16271803
194	0xbdd28076	-0.10278408
195	0x3e27eaef	0.16398214
196	0xbe63a39f	-0.22230385
197	0x3d5652f3	0.0523252
198	0x3e1c7c99	0.15281905
199	0xbef562b2	-0.4792686
200	0xbd51d932	-0.051232524
201	0xbd84c241	-0.064823635
202	0xbe668595	-0.22511895
203	0xbd938291	-0.07202638
204	0xbcd71184	-0.02625347
205	0xbd4db2c2	-0.050219305
206	0xbe2a201c	-0.16613811
207	0xbe0621b6	-0.13098797
208	0xbd75c457	-0.060001697
209	0xbe448ed5	-0.19195111
210	0x3d656716	0.056006514
211	0xbb6851d1	-0.0035449157
212	0x3e312f3a	0.17303172
213	0x3e8194cb	0.25308833
214	0xbec00490	-0.3750348
215	0x3df7fa84	0.12108329
216	0xbe255d63	-0.16148905
217	0x3dea1817	0.11430376
218	0xbd8eb19d	-0.06967471
219	0xbe9e001e	-0.30859464
220	0xbdc5105d	-0.09622262
221	0x3ce5e3ae	0.028062668
222	0x3ead4dad	0.33848324
223	0xbe07dc89	-0.13267721
224	0xbdd28d72	-0.10280885
225	0x3ecd99da	0.40156442
226	0x3c361940	0.0111144185
227	0x3e8fbb0f	0.28072402
228	0xbdfd9cd9	-0.12383432
229	0x3e33f1af	0.17572664
230	0xbe9d358f	-0.30704924
231	0x3f1b10d2	0.6057254
232	0xbe10104c	-0.14068717
233	0xbe9c4123	-0.30518445
234	0x3e67a0e3	0.22619967
235	0xbea7f655	-0.32805124
236	0xbded5394	-0.11588207
237	0xbe9072d9	-0.28212622
238	0x3e716219	0.23572578
239	0xbe039785	-0.12850769
240	0x3ea40ce8	0.32041097
241	0x3e23f661	0.16011955
242	0x3d4ca269	0.049959574
243	0xbe4ef2f3	-0.20209865
244	0xbe112401	-0.1417389
245	0xbdd30443	-0.10303547
246	0x3b9cb0d9	0.004781824
247	0x3c9f531e	0.019448813
248	0xbeac513a	-0.3365572
249	0x3ec8c4e3	0.39212713
250	0xbd8afd38	-0.06786579
251	0xbdc632b6	-0.09677641
252	0x3d8d3c5b	0.068962775
253	0x3d59ef3f	0.05320668
254	0x3e1f55cd	0.15560074
255	0x3e9591cb	0.29212794

convs.1.bias f4 [64]
0	0xbe1445c3	-0.14479737
1	0xbe05736a	-0.13032308
2	0xbcb6ead8	-0.02232878
3	0x3b3d7013	0.0028905913
4	0x3ccf39e0	0.025296152
5	0xbe268add	-0.1626391
6	0x3e658ac8	0.22416222
7	0x3dc6d351	0.09708274
8	0xbbec2ab0	-0.007207237
9	0xbdbbb44b	-0.091652475
10	0xbbdeda6d	-0.0068009407
11	0x3d45f6c9	0.048331056
12	0xbe2929c7	-0.16519843
13	0x3e17dc0e	0.14830038
14	0xbd8a4edc	-0.067533225
15	0x3df24abc	0.11830661
16	0xbd9684bf	-0.07349538
17	0x3c2dab50	0.010599926
18	0x3dfdabe4	0.12386301
19	0x3cdd5ee2	0.027022783
20	0xbd5d288e	-0.053993754
21	0x3e5b39d0	0.21408772
22	0x3d33c5b3	0.043889713
23	0xbca6db30	-0.020368189
24	0xbbd54e71	-0.006509595
25	0xbd8a8b6e	-0.06764875
26	0x3d8a8663	0.067639135
27	0xbd8c1354	-0.06839624
28	0xbcd031b7	-0.02541433
29	0x3d3a892e	0.04554098
30	0xbd328551	-0.04358417
31	0xbc21eefb	-0.009883638
32	0x3dd6fcc9	0.10497434
33	0xbd0810b5	-0.033219058
34	0xbd2da1ba	-0.042390563
35	0xbd53eb3d	-0.051738013
36	0xbda93014	-0.08261123
37	0x3c9ba454	0.018999256
38	0xbddb2efa	-0.107023194
39	0xbc03c290	-0.008041993
40	0xbcba2b9b	-0.02272587
41	0x3d664da9	0.056226406
42	0xbdc622a2	-0.096745744
43	0x3b9b9eb6	0.0047491444
44	0xbd881bf7	-0.06645959
45	0xb9c0bfbd	-0.0003676395
46	0xbd0133fc	-0.031543717
47	0xbd73903f	-0.059463736
48	0xbcc829b3	-0.024433946
49	0xbd8f1847	-0.069870524
50	0xbbd9563e	-0.0066325953
51	0x3bbc2120	0.0057412535
52	0x3cd02d49	0.025412219
53	0xbe211b78	-0.15733135
54	0xbd3ff023	-0.04685987
55	0xbd62e469	-0.05539361
56	0xbbc148ae	-0.0058985567
57	0x3b4188a3	0.0029530905
58	0xbd1ed619	-0.0387784
59	0xbc795590	-0.015218154
60	0xbcb876e9	-0.022517638
61	0xbd30ad27	-0.04313388
62	0xbc201889	-0.009771475
63	0xbcc629e9	-0.024189906

convs.1.lin.weight f4 [64, 64]
0	0xbd359108	-0.044327766
1	0x3ea4745e	0.3212003
2	0x3ddce12d	0.10785136
3	0xbcc3ef6f	-0.023917882
4	0x3d9eec7c	0.077599496
5	0x3e5c65d7	0.21523224
6	0x3d2170d5	0.039414246
7	0x3e0c35ce	0.136924
8	0x3f901b62	1.1258357
9	0xbe23ebf5	-0.16007979
10	0x3e5988ca	0.21243587
11	0xbcb775aa	-0.022394974
12	0x3d085eae	0.03329342
13	0x3f2d0467	0.6758484
14	0x3ef4e45d	0.47830477
15	0xbe1f0286	-0.15528306
16	0x3f135c3b	0.5756261
17	0xbd4b35be	-0.0496118
18	0x3ed1697c	0.4090079
19	0x3ea6ada2	0.32554346
20	0xbdbbb06e	-0.09164511
21	0xbed2f3fd	-0.41201773
22	0x3ec88c55	0.39169565
23	0xbdcb9ffc	-0.09942624
24	0x3eafaed3	0.34313068
25	0x3eda4367	0.4262955
26	0xbed27a80	-0.41109085
27	0x3ed4c4e1	0.41556457
28	0x3e4c1e4f	0.19933437
29	0x3dfa97de	0.122359976
30	0xbdb8b0c6	-0.09018092
31	0xbf605b8b	-0.87639683
32	0xbf1bee4a	-0.60910475
33	0x3ea1dede	0.31615347
34	0xbe64bca9	-0.22337593
35	0xbfe334ca	-1.7750485
36	0x3e465d53	0.19371538
37	0x3d1050e1	0.035233382
38	0x3eb5dea8	0.35521436
39	0xbe15b4e1	-0.14619781
40	0xbeae003b	-0.3398455
41	0xbd8ce253	-0.068791054
42	0xbe838c46	-0.25692958
43	0x3e32d52d	0.17464133
44	0x3e6f7da7	0.23387776
45	0xbd2038f2	-0.039116807
46	0x3d96d088	0.07363993
47	0x3ec23401	0.379303
48	0xbe5bbd15	-0.21458848
49	0x3f0ba386	0.5454639
50	0x3e63ac57	0.22233711
51	0x3ec0a33e	0.37624544
52	0x3f3c5a07	0.7357487
53	0x3e610e00	0.21977997
54	0xbe7ecc4f	-0.24882625
55	0xbdf8fb81	-0.121573456
56	0xbe2cb78e	-0.16866896
57	0xbf0abe3d	-0.5419653
58	0xbf0ab2eb	-0.5417926
59	0x3e663d40	0.22484303
60	0x3e958467	0.29202577
61	0xbecb798d	-0.39741173
62	0x3e865999	0.26240233
63	0xbf27b59d	-0.65511495
64	0xbe1d0eeb	-0.15337722
65	0x3e92e8b4	0.28693163
66	0x3e60836f	0.21925138
67	0xbed7db06	-0.4215929
68	0x3f263b32	0.64934075
69	0x3d5d40b0	0.05401677
70	0x3c2fe96b	0.0107368035
71	0xbdac8ae2	-0.08424927
72	0xbee0e163	-0.43921956
73	0x3d8455f4	0.06461707
74	0xbda96e5d	-0.08273003
75	0xbeb9e351	-0.3630624
76	0x3f010940	0.5040474
77	0x3f282674	0.65683675
78	0x3ecb145f	0.3966398
79	0x3d7410ca	0.059586324
80	0x3ea52033	0.3225113
81	0x3edd8228	0.43263364
82	0x3eba52e5	0.36391369
83	0x3e8a6b5d	0.27035037
84	0x3f0cfd72	0.55074227
85	0xbeaddfbd	-0.3395976
86	0x3e0c10e2	0.13678315
87	0x3df40049	0.11914117
88	0xbf39e2a1	-0.72611433
89	0x3deb3983	0.11485579
90	0x3e3f4621	0.18679096
91	0x3c9ea4eb	0.019365748
92	0x3f27590a	0.6537024
93	0xbee68969	-0.4502671
94	0x3f36b6eb	0.7137286
95	0xbe23e545	-0.16005428
96	0xbf34e4a5	-0.70661384
97	0x3d8091e2	0.06277825
98	0x3ea0d4fe	0.314125
99	0xbf035821	-0.5130635
100	0xbea326f5	-0.3186566
101	0x3ee6d2f2	0.45082814
102	0x3ea1b4c3	0.31583223
103	0xbedc738b	-0.43056902
104	0xbe34ab5e	-0.17643496
105	0xbd48807d	-0.04895066
106	0x3e674a6f	0.22586988
107	0x3ebc03e7	0.36721727
108	0xbebda452	-0.3703943
109	0xbdfa5569	-0.12223322
110	0xbd8e04b9	-0.069344945
111	0x3ed458fb	0.41474137
112	0xbf10f439	-0.56622654
113	0x3ea101d7	0.31446716
114	0x3e1074d6	0.1410707
115	0xbd59e302	-0.053195007
116	0x3f7573fb	0.958801
117	0x3e3609a6	0.17777118
118	0xbdd7dbe3	-0.10539987
119	0xbe618684	-0.2202397
120	0xbd96a855	-0.073563255
121	0x3e6db9ed	0.23215456
122	0x3eb5ac02	0.35482794
123	0x3e2f71e3	0.17133288
124	0x3eeb2cc5	0.45932594
125	0xbd65f004	-0.0561371
126	0xbdc7b0cc	-0.09750518
127	0xbe74080c	-0.23831195
128	0xbf0bd7ef	-0.54626364
129	0x3e9b45ab	0.3032659
130	0xbe8e9f34	-0.27855837
131	0xbe7739ef	-0.24143194
132	0x3e0cbd54	0.13744098
133	0x3e98a766	0.29815215
134	0xbe71d65c	-0.23616928
135	0x3d34e360	0.044162154
136	0x3eab5ff2	0.33471638
137	0xbddd0e46	-0.10793738
138	0xbf452ec2	-0.7702447
139	0x3df2dbd9	0.11858339
140	0x3ea6a424	0.32547104
141	0xbef35707	-0.47527334
142	0xbef9ca63	-0.4878722
143	0x3ef3834e	0.47561115
144	0xbe278544	-0.1635943
145	0x3d47cd89	0.048779998
146	0x3f121d81	0.5707627
147	0xbf203b12	-0.62590134
148	0x3ed02bbf	0.40658376
149	0x3eb71935	0.3576142
150	0xbdfae9bf	-0.12251615
151	0xbf53e11a	-0.8276535
152	0x3c83ebaf	0.016103594
153	0xbecaad24	-0.3958522
154	0x3f20beb7	0.6279101
155	0xbd7ae262	-0.06125105
156	0x3e7ed0c4	0.24884325
157	0x3cc1f0fc	0.02367448
158	0x3ea4a422	0.32156473
159	0xbe20c53f	-0.15700243
160	0xbe26965e	-0.16268298
161	0xbe65b6c4	-0.22433001
162	0xbf324b10	-0.69645786
163	0x3eace6fd	0.3376998
164	0x3df5a6f7	0.11994737
165	0xbe14595c	-0.14487213
166	0x3e46ffb9	0.19433488
167	0x3e0f97d4	0.14022762
168	0x3c341922	0.01099232
169	0xbcebb8ce	-0.028774645
170	0x3df4b95d	0.11949418
171	0xbe36d23c	-0.17853636
172	0x3e6a4955	0.22879536
173	0xbe6b9ad0	-0.23008275
174	0xbe03e234	-0.12879258
175	0x3dec2cc3	0.11531975
176	0x3e2cde46	0.16881666
177	0x3e57a4a9	0.21058907
178	0x3eafd876	0.34344834
179	0x3e0dacdf	0.13835476
180	0xbf3f9766	-0.7484039
181	0xbe7af5a7	-0.24507771
182	0xbde5ae82	-0.11214925
183	0xbe363f28	-0.1779753
184	0x3eaa432d	0.33254376
185	0x3dea9832	0.1145481
186	0xbee582fc	-0.44826496
187	0xbe0cf675	-0.13765891
188	0xbd06f750	-0.0329507
189	0xbe2a16a6	-0.16610202
190	0x3eb31f74	0.34984934
191	0xbf19c8db	-0.60072106
192	0xbb7077d5	-0.003669252
193	0x3e9bc93f	0.30426976
194	0xbd839ea5	-0.064267434
195	0x3e3afa91	0.18259646
196	0xbdb49932	-0.08818282
197	0xbd982a3e	-0.07429932
198	0xbde76008	-0.112976134
199	0x3d6ff72c	0.05858533
200	0x3e539709	0.20663084
201	0xbe71f5be	-0.236289
202	0xbe5e5143	-0.21710686
203	0x3e43a607	0.19106303
204	0x3e5e47bd	0.21707053
205	0x3e6000d7	0.2187532
206	0xbe8b10e0	-0.27161312
207	0x3f0d268a	0.5513693
208	0x3dcc756d	0.09983335
209	0xbdf70fb0	-0.12063539
210	0x3eacaa6c	0.33723772
211	0xbe65758e	-0.22408125
212	0xbc1f4a0e	-0.009722246
213	0xbec048f5	-0.37555662
214	0xbf61180e	-0.8792733
215	0x3e12302b	0.14276187
216	0xbdcad201	-0.09903336
217	0xbcae4a85	-0.021275768
218	0xbe55e221	-0.20887043
219	0x3e9528d0	0.291327
220	0xbdd5cf06	-0.10439877
221	0xbf020a1a	-0.50796664
222	0x3d91358b	0.07090291
223	0x3c6f6170	0.014610633
224	0x3dd751c1	0.1051364
225	0x3ce4f83f	0.027950404
226	0xbdcc2922	-0.09968783
227	0x3ea7a54a	0.32743293
228	0xbeefed37	-0.46860668
229	0x3d7427f2	0.059608407
230	0xbec4eb6f	-0.38460872
231	0xbd99da1c	-0.07512304
232	0x3db1c708	0.0868054
233	0xbd1d4eb6	-0.038405143
234	0xbd231aa5	-0.039820332
235	0xbe108794	-0.14114219
236	0xbe5b2650	-0.21401334
237	0xbe00ff1b	-0.12597315
238	0xbfc91c13	-1.5711693
239	0x3e5d56ec	0.2161519
240	0x3de0243a	0.1094441
241	0xbedaae47	-0.42711088
242	0x3f43f575	0.7654641
243	0xbdbc11f2	-0.0918311
244	0xbf137ad3	-0.5760929
245	0x3e1321b9	0.14368333
246	0x3e0eb8fd	0.13937755
247	0xbf34cc3f	-0.70624155
248	0xbe9bccd8	-0.3042972
249	0x3c60d994	0.01372375
250	0x3e0ef01f	0.13958786
251	0xbe292b39	-0.16520394
252	0xbbc62771	-0.0060471823
253	0x3e579e3a	0.21056452
254	0x3db30137	0.08740466
255	0xbe718639	-0.23586358

lin1.weight f4 [64, 64]
0	0xbfa87227	-1.3159837
1	0xbea5711e	-0.32312864
2	0x3efd2234	0.49440157
3	0x3d3ad36e	0.04561179
4	0xbc79c209	-0.0152440155
5	0x3e14c8e2	0.14529756
6	0xbf0a0805	-0.53918487
7	0xbede74cc	-0.43448484
8	0x3f1d80c5	0.6152461
9	0x3f3d847b	0.74030274
10	0x3e37f6a2	0.17965177
11	0x3ea56ac2	0.32308012
12	0x3f36b7ec	0.7137439
13	0xbf5f3c26	-0.87201154
14	0xbc6fdcc2	-0.014640035
15	0xbec0885f	-0.37604043
16	0xbf48fa7f	-0.78507227
17	0x3ea39656	0.31950635
18	0xbe62661f	-0.22109269
19	0x3e102d8c	0.14079875
20	0xbe0d5d71	-0.13805176
21	0xbf011f6b	-0.50438565
22	0x3ec155f4	0.3776089
23	0x3e5da942	0.21646598
24	0x3dbea7ae	0.09309326
25	0xbd619ec2	-0.055083044
26	0xbca41fb2	-0.020034645
27	0x3d2b4432	0.041813083
28	0x3cec537e	0.028848406
29	0xbc33a149	-0.010963746
30	0x3e8634fe	0.26212305
31	0x3e3c6037	0.18396078
32	0x3f8d1d93	1.102465
33	0x3cf78d3c	0.030218713
34	0x3ee2f251	0.44325498
35	0x3ead1b75	0.3381001
36	0x3e8e7c39	0.2782915
37	0xbe70e05e	-0.2352309
38	0x3e804a52	0.25056702
39	0xbf073882	-0.528206
40	0x3e87031c	0.2636956
41	0xbd2c4c5a	-0.042065002
42	0x3ec34715	0.3814017
43	0xbe177db0	-0.1479404
44	0x3e1f73aa	0.15571466
45	0x3e556e9d	0.20842977
46	0x3d5c1062	0.05372656
47	0xbeb0caa2	-0.34529597
48	0xbea5dd8a	-0.32395583
49	0x3e8a7db3	0.27049026
50	0x3e35960b	0.17733018
51	0x3e37ce16	0.1794971
52	0x3c96bc6c	0.018400393
53	0x3e2666cd	0.16250153
54	0xbe9c392b	-0.30512366
55	0x3e487761	0.1957679
56	0x3e428bc9	0.18998636
57	0x3d293216	0.04130753
58	0xbcbd7daf	-0.02313122
59	0xbdc7ec04	-0.09761813
60	0x3f3c39df	0.73525804
61	0xbdc87ac0	-0.09789038
62	0xbddc9beb	-0.107719265
63	0xbe90319c	-0.2816285
64	0xbf69a443	-0.9126627
65	0xbe6483e1	-0.22315933
66	0x3f418914	0.7559979
67	0x3e01af3d	0.12664504
68	0x3e4bb784	0.19894224
69	0x3e7ea1e0	0.24866438
70	0xbeef251d	-0.46708003
71	0xbe71468c	-0.23562068
72	0x3f000e5b	0.50021905
73	0x3f16cb5a	0.5890404
74	0x3da6034a	0.08106096
75	0x3dd484be	0.10376881
76	0x3ef93156	0.48670453
77	0xbf3e444c	-0.7432296
78	0x3c2be78a	0.010492215
79	0xbeb26ea5	-0.3485004
80	0xbef7d7f1	-0.48406938
81	0x3d3a952f	0.04555243
82	0xbe6cc9f5	-0.23123915
83	0x3e121d03	0.1426888
84	0x3dc32f88	0.0953055
85	0xbf0890c1	-0.53345877
86	0x3f0251a9	0.50905854
87	0x3edb020f	0.42775008
88	0x3ee5ed9f	0.44907853
89	0x3e2c8b71	0.16850068
90	0x3e831f55	0.25609842
91	0x3c8fdf8c	0.01756265
92	0x3d134e98	0.035963625
93	0x3e7b0104	0.24512106
94	0x3e7f56df	0.24935482
95	0x3da9dcab	0.08294042
96	0x3f32588f	0.6966638
97	0x3eb712db	0.35756573
98	0x3e8f3d3c	0.27976406
99	0x3ddf1718	0.10893077
100	0x3e7eef23	0.24895911
101	0xbe9fa946	-0.31183833
102	0x3e8ff8fb	0.28119645
103	0xbea00a6e	-0.31257957
104	0x3e35bbdf	0.17747448
105	0xbdb94fff	-0.09048461
106	0x3ea3e5b9	0.32011202
107	0xbed7fc38	-0.42184615
108	0x3ede38ab	0.4340261
109	0x3f169a03	0.58828753
110	0x3e7a2b0e	0.24430487
111	0xbe460ea6	-0.19341525
112	0xbe9e88a3	-0.3096362
113	0x3e412908	0.18863308
114	0x3e2b6fe5	0.16741903
115	0xbd321d8d	-0.043485213
116	0xbe734ece	-0.2376053
117	0x3d514efd	0.05110072
118	0xbdd72a06	-0.10506062
119	0x3f0f03db	0.5586526
120	0x3e9f628e	0.3112988
121	0x3cfd0479	0.030885922
122	0x3c1a79fe	0.009428499
123	0xbe2c8e43	-0.16851144
124	0x3f31e75a	0.6949364
125	0xbe4dec22	-0.20109609
126	0xbe0e49a2	-0.13895276
127	0xbed327f6	-0.41241425
128	0xbf1b360a	-0.6062933
129	0xbd9d665d	-0.0768554
130	0x3f4a4952	0.7901813
131	0xbca702b9	-0.02038704
132	0x3e23c532	0.15993193
133	0x3eebbed3	0.46044025
134	0xbf42b23d	-0.7605322
135	0xbddb3cd7	-0.10704964
136	0x3ec4368b	0.38322863
137	0x3ed1d222	0.4098063
138	0xbdef1b1d	-0.11675093
139	0x3dd947b7	0.10609382
140	0x3ef41714	0.47673857
141	0xbf135944	-0.57558084
142	0xbd8ad9f5	-0.06779853
143	0xbe76aed1	-0.24090125
144	0xbe30140c	-0.17195147
145	0xbe52d4f1	-0.20589043
146	0x3bb3792f	0.0054770927
147	0x3de41788	0.11137301
148	0x3e0e17a9	0.13876213
149	0xbf06d13c	-0.52663016
150	0x3f1a3213	0.6023266
151	0x3ed9708f	0.42468688
152	0x3eba91cc	0.3643936
153	0x3e628a6d	0.22123118
154	0x3ef2a475	0.47391096
155	0xbdecd1de	-0.115634665
156	0x3d886343	0.06659558
157	0x3de0f7ab	0.10984739
158	0x3e763f3f	0.24047564
159	0x3d707b5d	0.0587114
160	0x3efad86d	0.48993245
161	0x3ef414db	0.4767216
162	0x3e80235e	0.25026983
163	0x3e2c5c64	0.16832119
164	0x3e8c4bf7	0.27401707
165	0xbe3882c0	-0.18018627
166	0x3ec2df4d	0.3806099
167	0xbed5aa72	-0.41731602
168	0x3dd4b23d	0.10385559
169	0x3e866090	0.26245546
170	0x3ee9b57c	0.45646274
171	0xbe5573dd	-0.2084498
172	0x3e8be8f6	0.27326173
173	0x3ed31abc	0.41231334
174	0x3e8adeb6	0.2712304
175	0xbe71549e	-0.23567435
176	0xbefb6697	-0.49101707
177	0x3d18fd79	0.037351105
178	0x3e057712	0.13033703
179	0xbb663efe	-0.003513276
180	0xbe21ede5	-0.15813406
181	0x3e45d83c	0.19320768
182	0xbec2d8f7	-0.38056156
183	0x3efd55af	0.49479434
184	0x3e945484	0.2897073
185	0xbcf9640e	-0.030443218
186	0xbdbc1101	-0.09182931
187	0xbe0cd9ee	-0.13755009
188	0x3c3e752a	0.011624614
189	0xbec1d902	-0.37860876
190	0xbea7cd78	-0.32773948
191	0xbeaf38cf	-0.3422303
192	0x3d6933a2	0.056934007
193	0xbc027f39	-0.007964903
194	0x3da830dc	0.08212444
195	0xbdbccc67	-0.09218674
196	0xbbe69020	-0.007036224
197	0x3d59975e	0.05312287
198	0x3d37526e	0.044756345
199	0xbdbaaf49	-0.09115464
200	0xbe117db2	-0.14208105
201	0x3d2a7bd8	0.041622013
202	0xbd9c4a54	-0.076313645
203	0x3c01b1dd	0.007915941
204	0x3cca6189	0.024704712
205	0xbd7d2cec	-0.06181042
206	0xbc0cbd52	-0.008590059
207	0xbcbcb39e	-0.023034867
208	0xbdc177f6	-0.09446709
209	0x3d3cb3f1	0.046070043
210	0xbdc6c5c0	-0.097056866
211	0xbd39dcaf	-0.045376476
212	0xbcba9e3c	-0.02278053
213	0xbd8f89d1	-0.07008708
214	0xbe15a8a7	-0.14615117
215	0xbdf2ea54	-0.11861101
216	0x3bc54e57	0.0060213017
217	0xbdb175f5	-0.08665077
218	0xbd7eb154	-0.062180832
219	0xbdc7f061	-0.097626455
220	0xbe30f470	-0.17280746
221	0xbd38c109	-0.045105968
222	0xbe129212	-0.14313534
223	0x3d555e29	0.05209175
224	0x3dc5b303	0.096532844
225	0xbd9176d1	-0.071027406
226	0x3d04454d	0.032292653
227	0x3d5e9c70	0.05434841
228	0xbe224392	-0.15846089
229	0xbd7eacc6	-0.06217649
230	0x3a4d1a4c	0.0007824048
231	0x3d94faab	0.072743736
232	0x3d821bd0	0.06352961
233	0xbdd4fd83	-0.10399916
234	0xbd1e6fba	-0.03868077
235	0xbdf15999	-0.117846675
236	0x3d8f1f3c	0.06988379
237	0x3d3128a7	0.04325166
238	0x3d8c6c24	0.06856564
239	0x3dac8fb8	0.0842585
240	0x3d671b22	0.05642236
241	0x3ccfe41a	0.025377322
242	0x3ddd3d68	0.10802728
243	0x3d636c81	0.0555234
244	0xbdc1a76d	-0.09455762
245	0x3d15b639	0.036550734
246	0xbcd4a6c7	-0.025958432
247	0xbcf7b186	-0.030236017
248	0xbde43803	-0.11143496
249	0xbd86463b	-0.06556364
250	0xbe04b959	-0.1296133
251	0xbc527173	-0.012844431
252	0x3d33c68e	0.04389053
253	0x3c480aea	0.012209633
254	0xbd54e246	-0.051973604
255	0xbb6b76e9	-0.003592903

lin1.bias f4 [64]
0	0x3d78472f	0.06061476
1	0xbd35f5ec	-0.044423983
2	0xbd0c76fd	-0.034293164
3	0xbdb9010d	-0.090334035
4	0xbd866526	-0.06562261
5	0x3d10be08	0.035337478
6	0xbdc25c6a	-0.09490283
7	0x3d502283	0.050814163
8	0xbc95e728	-0.0182987
9	0xbe12a4de	-0.14320704
10	0xbd5d7472	-0.05406613
11	0xbd7b599b	-0.06136475
12	0x3c528518	0.012849115
13	0x3d3bea39	0.04587767
14	0xbdb35487	-0.08756357
15	0xbda8c720	-0.08241105
16	0xbb07820d	-0.0020676882
17	0x3b9b8d62	0.0047470788
18	0xbc95824b	-0.018250605
19	0xbc62b7d4	-0.013837773
20	0xbd815d5e	-0.063166365
21	0x3d03eca4	0.0322081
22	0x3d39d344	0.045367494
23	0x3dc06ba3	0.0939553
24	0xbdc1d7b4	-0.0946497
25	0x3d931229	0.07181198
26	0x3c8e1799	0.017345237
27	0x3caee7d5	0.02135078
28	0x3dbcb500	0.092142105
29	0xbd636f12	-0.055525847
30	0x3db9d0a7	0.090730004
31	0x3c7d8c22	0.015475305
32	0xbd413ae4	-0.047175303
33	0x3d98fd57	0.07470196
34	0x3c962640	0.018328786
35	0xbc9c1739	-0.019054042
36	0xbcef5d6b	-0.02921935
37	0x3dbb08a5	0.09132508
38	0xbd72efdd	-0.059310783
39	0xbdd1a67e	-0.10236834
40	0xbdaa7871	-0.083237536
41	0xbdd8447c	-0.10559937
42	0xbde1e782	-0.11030485
43	0xbd487e37	-0.048948493
44	0x3cf7da21	0.03025538
45	0xbd8e273a	-0.069410756
46	0x3dbe32fd	0.09287069
47	0x3dbc8b27	0.09206229
48	0xbe22ad7b	-0.1588649
49	0x3d298d0d	0.041394282
50	0x3db736b9	0.089459844
51	0xbda5fff6	-0.08105461
52	0x3da21ff0	0.07916248
53	0xbdb8ea5c	-0.090290755
54	0x3d5224ed	0.051304746
55	0xbde45a6f	-0.11150061
56	0xbc76f726	-0.015073573
57	0xbd9abdeb	-0.07555755
58	0xbdeaed00	-0.114709854
59	0xbd444911	-0.047921244
60	0x3d18d741	0.037314657
61	0x3cf0469b	0.029330542
62	0x3d33594f	0.043786343
63	0x3d088c62	0.033337004

lin2.weight f4 [2, 64]
0	0x401447ea	2.3168893
1	0x3fe9c54f	1.8263339
2	0x3fc74557	1.5568036
3	0xbd4d1f03	-0.050078403
4	0xbf9b32fa	-1.2124932
5	0x40151adb	2.3297641
6	0x3fa6eeb8	1.3041601
7	0x3f999862	1.1999629
8	0x400dcd4a	2.2156549
9	0xbfa0025f	-1.2500724
10	0xbf9bd9d8	-1.2175856
11	0xbda18bf8	-0.07888025
12	0x3ff38c8c	1.9027267
13	0xbf818dc6	-1.0121391
14	0x3d16bb7c	0.036799893
15	0x3f9ec28a	1.2403119
16	0xbfad2a0d	-1.3528458
17	0x3fff4154	1.9941812
18	0xbf9ccc99	-1.2249938
19	0x4006b757	2.1049402
20	0x3f6c02d1	0.921918
21	0xbf9b1f41	-1.2118913
22	0xbf887387	-1.0660256
23	0x40086ccf	2.1316411
24	0x3f88dfb8	1.0693274
25	0xbf889fc2	-1.0673754
26	0x3fd7b97c	1.685348
27	0xbfacbb51	-1.3494664
28	0x4008e366	2.1388793
29	0xbf8fcd62	-1.1234553
30	0xbf95e33a	-1.1709969
31	0xbfa1cb49	-1.2640163
32	0xbf9aafae	-1.2084863
33	0x3ff66e56	1.9252422
34	0xbfb13c9a	-1.3846619
35	0x400d9dc0	2.2127533
36	0xbf8ade66	-1.0849121
37	0x4007ed97	2.1238763
38	0x3fb5cced	1.4203163
39	0xbd36ec8e	-0.04465919
40	0xbda0ddb1	-0.07854784
41	0xbce9971d	-0.02851444
42	0x3f9f3f32	1.2441161
43	0xbf9f5fda	-1.2451127
44	0xbf9ddeca	-1.2333615
45	0xbdd7f0fc	-0.10544011
46	0x3ff7fc3f	1.9373854
47	0x3ffdd3aa	1.983022
48	0x3f9ddba0	1.2332649
49	0x40060737	2.0941904
50	0x4000ef6e	2.0146136
51	0xbdd40db5	-0.10354177
52	0x3ff52e9b	1.9154848
53	0xbf9655da	-1.174495
54	0xbf822cf4	-1.0169969
55	0x3fa51d25	1.2899519
56	0xbd9919a3	-0.07475593
57	0xbf95b142	-1.169472
58	0x3fd0c15a	1.6309006
59	0xbc215161	-0.009846062
60	0xbf2fef21	-0.68724257
61	0x4003408b	2.0508144
62	0xbfcee596	-1.6163814
63	0xbf65df1c	-0.8979356
64	0xc0146450	-2.3186226
65	0xc003e347	-2.060747
66	0xbfcf3b93	-1.6190056
67	0x3d5ffa11	0.05468184
68	0x3f8c46ee	1.0959146
69	0xc014f68e	-2.3275485
70	0xbf9afa6a	-1.210767
71	0xbf9e4d67	-1.2367371
72	0xc011992b	-2.2749736
73	0x3f9accd7	1.2093762
74	0x3fb42243	1.4072956
75	0xbdc95552	-0.09830727
76	0xc0003a8e	-2.003574
77	0x3f9093df	1.1295127
78	0x3d462276	0.04837271
79	0xbfa57a65	-1.2927977
80	0x3fb59acf	1.4187869
81	0xc0048e80	-2.0711975
82	0x3f8ed117	1.1157559
83	0xc00608e9	-2.0942938
84	0xbf869b17	-1.051608
85	0x3faff13a	1.3745492
86	0x3f879f4d	1.059549
87	0xc00e82f8	-2.2267437
88	0xbf85c953	-1.0452064
89	0x3f931fe2	1.1494105
90	0xbfe33108	-1.7749338
91	0x3f9415ce	1.1569154
92	0xc00601a2	-2.0938497
93	0x3f85144c	1.0396819
94	0x3f989f13	1.1923546
95	0x3fa7fb23	1.3123516
96	0x3f9ffe20	1.2499428
97	0xbfefbbf8	-1.8729239
98	0x3fa48d5d	1.2855641
99	0xc00fd3e7	-2.2473085
100	0x3fa118ad	1.2585655
101	0xc0013d92	-2.019383
102	0xbf995913	-1.1980308
103	0x3da2f500	0.07956886
104	0xbd5b722a	-0.053575672
105	0x3aef9a73	0.0018280282
106	0xbf959e31	-1.1688901
107	0x3f8ddfea	1.1083958
108	0x3f8a931a	1.0826142
109	0x3cf334f1	0.02968833
110	0xbfff41d8	-1.9941969
111	0xc00c40a9	-2.1914465
112	0xbf86e2e3	-1.053799
113	0xc00c6e29	-2.1942236
114	0xbfe9260c	-1.8214736
115	0x3d409f63	0.047027003
116	0xc001e90e	-2.0298495
117	0x3f939435	1.1529604
118	0x3f8e404e	1.1113374
119	0xbfa9dd57	-1.3270673
120	0x3d181c47	0.037136342
121	0x3f8b8c90	1.0902271
122	0xbfcb31bb	-1.5874552
123	0xbb5f11f0	-0.0034037791
124	0x3f56324f	0.83670515
125	0xc00e60fa	-2.224669
126	0x3fcc0c31	1.594122
127	0x3f88fdb9	1.070243

lin2.bias f4 [2]
0	0xbeb88bb3	-0.36044082
1	0x3eba01a6	0.36329383
