saved_models/gcn_Mutagenicity.model (torch, 57159 bytes, 10 tensors)

conv1.bias f4 [64]
0.8222455 -0.4053764 -0.43741313 -0.079164006 0.04737877 -0.2820898 -0.08763206 -0.6004967
0.6884944 0.1809047 -0.47771186 -0.40522254 -0.23897812 -0.5001529 0.25885856 -0.2335157
-0.56780213 -0.29463097 -0.052385684 0.6224304 -0.46314305 0.9290538 1.0446295 0.3553842
-0.70796597 -0.6146628 -0.4065314 -0.01976501 -0.23353039 -0.3489096 0.29325706 -0.4435512
-0.49058533 0.4054264 -0.25144598 -0.15320137 -0.094872124 -0.76360476 -0.36206198 -0.15875159
-0.42406216 -0.27700087 0.056276172 -0.6851759 0.18304062 -0.36008054 -0.72683144 -0.06465785
-0.6124258 -0.25880465 -0.051927667 -0.6479753 0.6014481 -0.1960736 0.294847 -0.261682
-0.63724625 -0.8749926 0.31902936 0.72436154 -0.34939635 -0.3609164 0.07061806 -0.73096853
00000000: ae7e 523f 7f8d cfbe 9df4 dfbe bd20 a2bd
00000010: 3e10 423d 136e 90be 7078 b3bd 27ba 19bf
00000020: 2b41 303f 153f 393e a696 f4be 5479 cfbe
00000030: aeb6 74be 050a 00bf 1c89 843e bd1e 6fbe
00000040: 7b5b 11bf dfd9 96be 5f92 56bd 9957 1f3f
00000050: 1621 edbe 78d6 6d3f 6bb6 853f ebf4 b53e
00000060: 423d 35bf 8b5a 1dbf e224 d0be 3bea a1bc
00000070: 9722 6fbe 47a4 b2be ca25 963e 2519 e3be
00000080: 002e fbbe 0d94 cf3e 87bd 80be d2e0 1cbe
00000090: 514c c2bd 9a7b 43bf 3060 b9be c78f 22be
000000a0: ad1e d9be 0fd3 8dbe d881 663d b067 2fbf
000000b0: 006f 3b3e 7a5c b8be a011 3abf 566b 84bd
000000c0: f0c7 1cbf 0b82 84be 1bb2 54bd b6e1 25bf
000000d0: 81f8 193f 85c7 48be 30f6 963e 2ffb 85be
000000e0: 9222 23bf 84ff 5fbf d157 a33e c26f 393f
000000f0: 14e4 b2be 09ca b8be 34a0 903d c120 3bbf

conv1.lin.weight f4 [64, 14]
-1.347855 -0.12222253 0.16821812 -1.126738 -0.02059294 -0.17500821 -0.41273665 -0.711223
-0.42551512 1.1222765 -0.09542261 0.035443455 0.20134555 -0.112758614 -0.34784704 -0.31147376
0.43307734 -0.27586567 0.66212904 0.74047756 -0.5745344 -0.019783989 0.56050426 -0.060641665
0.22263607 0.237738 -0.090965 -0.121336736 -0.44874611 -0.45671695 -0.42387536 -0.56738335
0.40528312 0.848922 -0.10604152 -2.228847 -0.11212563 1.5194107 -0.19818786 0.047538225
0.015844047 0.21652903 -0.046019744 -0.27530092 -0.04014385 0.024191674 -0.699646 -0.32698676
-0.29512376 -0.2876273 0.0020396344 -0.38487425 -0.046742998 -0.111807495 0.084159404 0.21388656
0.13277592 -0.76093346 -0.81200373 -0.7117864 0.3128445 -0.49778605 0.116549 -0.42127973
0.26392603 -0.5318173 0.095260106 0.006198729 0.2033046 0.015809067 -1.436345 0.6114227
-0.9279471 -0.903684 0.15484004 -0.1288752 -0.2759359 -1.5024347 1.0335478 -0.10601057
0.15517737 -0.08501341 -0.10529272 -0.21094027 -0.107757874 -0.63339734 0.2402431 0.12463036
-0.94632775 0.03586949 -0.570527 0.54745835 -0.66173834 -0.4659077 0.19421844 -0.1557772
0.07982036 0.15326817 -0.029257901 -0.9835099 0.5024483 -0.7782661 0.26544863 1.1856282
-0.8257879 -0.4625128 -0.23157656 -0.23422244 0.12766163 -0.08350652 0.054782957 0.1905192
-0.8006127 -0.97506136 -0.89729476 -1.3603904 -0.070159115 -0.019776618 0.088983595 0.85091835
-0.10937956 -0.6804128 0.09154958 -0.035317022 0.19022672 -0.022227729 -1.5411233 0.21102114
-0.33852828 0.10463076 -0.51232046 1.3831861 -0.9631882 1.2728626 -0.40550798 0.24006507
-0.19102179 -0.111439675 -0.17199089 0.14397441 -0.09667351 0.48986387 0.6017773 -0.48737437
0.4199344 0.057777703 -0.09958468 -0.7034594 -0.1659609 -0.22529446 0.023239678 0.060274012
-0.07131927 -0.27257556 -0.13719083 0.5976142 0.171303 -0.03344218 -0.10681571 -0.08681621
-0.12609851 -0.01999579 0.49185744 -0.20705752 0.13990574 -0.15509458 -0.19415851 -0.0471338
0.07723829 -1.3939326 -0.45660955 0.73506373 -0.20568681 -0.07707603 -0.23937096 0.23589398
0.6085036 -1.3158684 0.26306015 0.19690248 0.096334614 -0.26073164 -0.752295 0.42133084
0.44275904 0.7542102 -0.25007227 0.48166823 -1.4948565 0.33997115 -0.5341084 -0.40796337
0.19229151 -0.20834905 0.037943292 -0.014916935 0.030311443 -0.35463205 -0.7842742 -0.13834387
-0.63236433 -0.5806769 -0.44825682 0.016516076 0.33658943 -0.61832756 0.2714914 0.26936606
-0.23865622 0.24322397 0.026055787 -0.81365395 0.8144435 0.02553234 -0.26235214 -1.6814371
-0.13278136 0.07418075 -0.16702601 -0.35143912 0.048449863 0.14126106 0.04351565 0.140747
0.5392531 -0.5164015 0.022615425 -0.32278797 -0.5164656 -0.61994374 0.1365894 -0.6691306
0.34069157 -0.5152735 -0.03256128 0.04044475 -0.14000179 -0.07487189 0.060100347 -0.09834998
-0.2972793 -0.48323148 0.63640606 -0.39426568 -0.20619696 -0.4017157 0.13683265 -0.16893381
0.24382795 0.13907227 0.14934574 0.25796884 -0.46264288 -0.5669959 0.008612173 0.4514336
00000000: 8386 acbf ce4f fabd 5f41 2c3e f338 90bf
00000010: 86b2 a8bc 5a35 33be 3852 d3be b612 36bf
00000020: 1edd d9be c2a6 8f3f ee6c c3bd 282d 113d
00000030: 872d 4e3e fded e6bd 0219 b2be 7d79 9fbe
00000040: 50bc dd3e 443e 8dbe 4a81 293f f08f 3d3f
00000050: b014 13bf 0812 a2bc 357d 0f3f 6563 78bd
00000060: b6fa 633e 9771 733e dc4b babd 657f f8bd
00000070: 0dc2 e5be ced6 e9be 3106 d9be 0940 11bf
00000080: 4581 cf3e f452 593f 4c2c d9bd 6ea5 0ec0
00000090: 1fa2 e5bd 0d7c c23f c2f1 4abe 71b7 423d
000000a0: 60cb 813c c9b9 5d3e 337f 3cbd 3ef4 8cbe
000000b0: e16d 24bd 9e2d c63c 001c 33bf cf6a a7be
000000c0: 761a 97be e343 93be 63ab 053b 3d0e c5be
000000d0: 9675 3fbd 54fb e4bd c45b ac3d 1405 5b3e
000000e0: 69f6 073e 89cc 42bf 7adf 4fbf a237 36bf
000000f0: 282d a03e d0dd febe 3eb1 ee3d fab1 d7be
00000100: 5021 873e 2e25 08bf bb17 c33d b51e cb3b
00000110: 152f 503e 0482 813c 27da b7bf 3386 1c3f
00000120: f18d 6dbf d657 67bf 638e 1e3e dcf7 03be
00000130: 7847 8dbe c84f c0bf 4b4b 843f 121c d9bd
00000140: d1e6 1e3e 831b aebd b6a3 d7bd ba00 58be
00000150: 29b0 dcbd 5426 22bf 4a02 763e 343e ff3d
00000160: 8942 72bf e3eb 123d 0f0e 12bf 3b26 0c3f
00000170: af67 29bf 748b eebe 33e1 463e 0f84 1fbe
00000180: db78 a33d 55f2 1c3e 44ae efbc 4ec7 7bbf
00000190: 74a0 003f 723c 47bf e2e8 873e aac2 973f
000001a0: d666 53bf 7ace ecbe 6822 6dbe 02d8 6fbe
000001b0: bbb9 023e 7705 abbd 1864 603d 7717 433e
000001c0: f4f4 4cbf 9f9d 79bf 1cb5 65bf 4621 aebf
000001d0: 95af 8fbd 9302 a2bc 083d b63d c9d5 593f
000001e0: 6402 e0bd 892f 2ebf 597e bb3d 95a8 10bd
000001f0: cbca 423e ed16 b6bc 8743 c5bf ed15 583e
00000200: 9453 adbe a748 d63d 6f27 03bf 3e0c b13f
00000210: 8093 76bf 29ed a23f be9e cfbe 9ed3 753e
00000220: 379b 43be 7c3a e4bd 611e 30be 076e 133e
00000230: c3fc c5bd 70cf fa3e 140e 1a3f 2289 f9be
00000240: a401 d73e 50a8 6c3d 0df3 cbbd ea15 34bf
00000250: a7f1 29be 97b3 66be 2361 be3c e2e1 763d
00000260: d60f 92bd 068f 8bbe c17b 0cbe 3ffd 183f
00000270: 0e6a 2f3e abfa 08bd 32c2 dabd b2cc b1bd
00000280: f81f 01be 36ce a3bc bdd4 fb3e e306 54be
00000290: 7343 0f3e 1dd1 1ebe 7dd1 46be 5f0f 41bd
000002a0: 1c2f 9e3d 626c b2bf bac8 e9be 232d 3c3f
000002b0: 909f 52be 0ada 9dbd a91d 75be 318e 713e
000002c0: e4c6 1b3f 606e a8bf d2af 863e cea0 493e
000002d0: 154b c53d 9e7e 85be 6896 40bf adb8 d73e
000002e0: 50b1 e23e eb13 413f 7909 80be 389d f63e
000002f0: 7557 bfbf b310 ae3e 54bb 08bf 93e0 d0be
00000300: 11e8 443e 7459 55be 6d6a 1b3d 2966 74bc
00000310: b44f f83c 5592 b5be 32c6 48bf 04aa 0dbe
00000320: a1e2 21bf 3ea7 14bf eb81 e5be b94c 873c
00000330: 7355 ac3e b74a 1ebf ec00 8b3e 59ea 893e
00000340: 4c62 74be b40f 793e f272 d53c a04b 50bf
00000350: 5f7f 503f 3329 d13c 0553 86be 5539 d7bf
00000360: d6f7 07be 14ec 973d de08 2bbe d4ef b3be
00000370: 5d73 463d bda6 103e 773d 323d fb1f 103e
00000380: 7e0c 0a3f e432 04bf fc43 b93c 7744 a5be
00000390: 1737 04bf a2b4 1ebf 17de 0b3e 254c 2bbf
000003a0: 206f ae3e f7e8 03bf fa5e 05bd 65a9 253d
000003b0: a15c 0fbe 6f56 99bd c82b 763d b76b c9bd
000003c0: fe34 98be 1e6a f7be 82eb 223f 31dd c9be
000003d0: 4c25 53be aead cdbe dc1d 0c3e fcfc 2cbe
000003e0: 09ae 793e f668 0e3e 17ee 183e 7e14 843e
000003f0: 87df ecbe a526 11bf 121a 0d3c 4e22 e73e

convs.0.bias f4 [64]
-0.26113978 -0.104449406 -0.5315215 -0.4787898 -0.3041133 -0.27495953 -0.2776437 -0.3892549
0.035008725 -0.29706097 -0.8637659 -0.71568584 0.40332076 -0.14268495 -0.38510448 -0.11740423
-0.24078718 0.4647517 0.24917677 0.6713834 -0.15178984 -0.4752698 0.9106239 -0.11069618
0.32558972 -0.4388135 -0.30206195 -0.07996052 -0.051339407 -0.24271142 0.078724265 -0.32848766
-0.45623472 -0.15630285 -0.38792294 -0.06619364 0.3788904 0.1544624 0.5723213 -0.6194354
-0.11045944 0.08789207 -0.14100806 -0.31299096 -0.26103944 -0.6409871 -0.41921073 -0.16920793
-0.24078594 -0.08759626 -0.13774979 -0.12894396 -0.1652147 -0.13729596 -0.3103324 -0.15283224
-0.07433752 -0.41102195 -0.2966002 -0.23583044 -0.10102331 -0.6023483 -0.24947095 0.17371465
00000000: 1db4 85be 92e9 d5bd cb11 08bf f023 f5be
00000010: bdb4 9bbe 7fc7 8cbe 5127 8ebe 6b4c c7be
00000020: 4f65 0f3d 6018 98be c31f 5dbf 3037 37bf
00000030: 0f80 ce3e 011c 12be 6a2c c5be a171 f0bd
00000040: ea90 76be eff3 ed3e 3228 7f3e c8df 2b3f
00000050: cc6e 1bbe 9056 f3be a61e 693f aeb4 e2bd
00000060: b2b3 a63e 2aac e0be dda7 9abe 57c2 a3bd
00000070: 4549 52bd 5889 78be 303a a13d 892f a8be
00000080: 9997 e9be db0d 20be d69d c6be 8890 87bd
00000090: ecfd c13e 642b 1e3e a683 123f 5293 1ebf
000000a0: 8f38 e2bd c200 b43d 6b64 10be 5a40 a0be
000000b0: f6a6 85be bb17 24bf caa2 d6be d844 2dbe
000000c0: 9790 76be ab65 b3bd 480e 0dbe e309 04be
000000d0: 0b2e 29be 5097 0cbe e3e3 9ebe 0e80 1cbe
000000e0: 453e 98bd 7871 d2be fbdb 97be 897d 71be
000000f0: 4fe5 cebd 8033 1abf 5075 7fbe 41e2 313e

convs.0.lin.weight f4 [64, 64]
0.17199494 -0.19363521 -0.12263161 -0.12807323 -0.42791915 0.10394403 -0.040679675 -0.058994196
0.061207294 -0.100505605 -0.2267871 -0.20776738 -0.22051895 -0.17707552 -0.27701342 -0.13975793
-0.07622699 -0.2645858 -0.01565007 0.13363476 -0.1776828 0.038574662 -0.14507316 0.016707463
0.10421103 -0.14925523 -0.25618267 -0.04239761 -0.23585339 -0.19202474 0.14005694 -0.07247314
-0.12322595 -0.16060938 0.060141686 -0.069986075 -0.12823524 0.09168754 -0.20290121 -0.1848175
-0.17168996 -0.115051724 -0.050761037 -0.1278285 0.07818706 -0.14672211 -0.047233265 -0.055502042
-0.07659075 -0.17842278 -0.07319302 -0.1086032 -0.043747928 0.032872923 -0.07409943 -0.12653899
0.11421677 0.13100691 0.07418093 -0.16069534 0.030817227 0.07059428 -0.20193319 -0.16376607
-0.09781334 0.011367125 0.095760345 -0.19926235 -0.05859285 -0.25447157 -0.3097758 0.11918954
-0.26046222 0.06454404 0.051904317 0.030703777 -0.057595093 -0.34155777 -0.006704173 -0.26352835
0.08151801 -0.101934284 -0.023231559 -0.22208895 -0.2660942 -0.002055593 -0.2504003 -0.021494625
0.031285364 -0.25647002 -0.030912776 -0.09793389 0.08689322 -0.26854882 0.02882733 -0.28139755
-0.30303282 -0.11018276 -0.04120286 -0.13991937 0.16749275 -0.090097636 -0.19139017 -0.0066863773
-0.15883754 -0.2512519 -0.14925395 0.0030583846 -0.16252163 -0.045684867 -0.18644439 -0.09003495
0.0036959322 -0.28024143 -0.06418574 -0.22749 -0.089467 -0.1563325 -0.23989253 0.07683206
0.116924234 -0.28048182 -0.15772137 -0.020761019 -0.2947845 0.024760233 -0.14031814 -0.08671512
0.33971906 -0.121361166 -0.89732385 0.018930122 0.18028045 -0.37578303 0.30218133 0.35428497
-1.2391204 -2.1343505 0.4162754 0.7394148 -0.36604887 -0.18089257 0.23908041 -0.16026278
-0.22863173 -0.33240953 0.9085679 -1.7652165 0.27383605 0.598764 -1.8946573 0.21327062
-0.02483594 -0.35439655 -1.0344366 0.26529172 0.42003495 0.30456576 0.96978796 0.09006711
-0.49637556 -0.14026664 -0.85536164 -0.024583248 0.33767354 -0.9032146 -0.58325887 0.56920624
-0.28473002 -0.42219248 0.21941553 -0.19962214 0.33631712 -0.20918077 0.114773035 0.13198918
-0.063676804 0.018981932 0.31039 -0.5679503 0.36785278 -0.18935126 0.34409788 -1.2948613
-0.7602897 -0.6333097 0.8598479 -0.8146025 -0.2014425 0.54247516 0.048979383 -0.50730807
0.24257399 0.7581541 1.5048426 -0.073969804 -1.0637403 0.6913417 -0.3000877 0.398205
-0.7319899 0.9899583 0.29552177 0.09198709 -0.0036086317 -1.0650496 -0.068252124 0.24942131
-0.7672015 -0.3304391 -0.40172562 1.1760976 -1.338443 -0.39112505 -0.25918838 0.928643
-0.6828102 0.32742992 0.83422077 -0.29097128 0.43983847 -0.2764144 -1.0721576 -1.0194868
0.26237836 -0.25677028 0.014479395 -0.75150424 -0.8791716 0.48371753 0.38956103 -1.3054718
0.3262512 -0.45776996 0.0018695298 0.70028585 0.24427278 -0.08741254 0.35613692 0.24469219
-0.90379953 0.5973645 -0.50118256 0.034377813 0.37634856 -1.6322376 0.46028286 0.095180005
0.9208542 0.81370044 -0.24386714 -0.07445808 -0.2894497 0.25595102 0.13104118 -0.013989826
00000000: 711f 303e 4f48 46be 4826 fbbd a125 03be
00000010: 3818 dbbe 9ce0 d43d bb9f 26bd e6a3 71bd
00000020: 80b4 7a3d e2d5 cdbd e13a 68be f9c0 54be
00000030: b8cf 61be 4953 35be b4d4 8dbe b41c 0fbe
00000040: e51c 9cbd ca77 87be 9334 80bc 8dd7 083e
00000050: 7bf2 35be 7700 1e3d 0f8e 14be 17de 883c
00000060: 986c d53d 5dd6 18be 602a 83be 1ea9 2dbd
00000070: 8d83 71be 22a2 44be 166b 0f3e cc6c 94bd
00000080: e35d fcbd c976 24be 2157 763d dc54 8fbd
00000090: 1950 03be adc6 bb3d 56c5 4fbe cc40 3dbe
000000a0: 7ecf 2fbe 3da0 ebbd ceea 4fbd 79e5 02be
000000b0: 8a20 a03d 523e 16be ab77 41bd 1c56 63bd
000000c0: 9cdb 9cbd 76b4 36be 39e6 95bd 5b6b debd
000000d0: 0731 33bd c2a5 063d 71c1 97bd 7093 01be
000000e0: 7bea e93d ad26 063e 2cec 973d 528d 24be
000000f0: 6974 fc3c bc93 903d 93c7 4ebe 4bb2 27be
00000100: 5c52 c8bd 2e3d 3a3c 001e c43d 6e0b 4cbe
00000110: 0eff 6fbd 194a 82be ef9a 9ebe a519 f43d
00000120: 4e5b 85be aa2f 843d 9f99 543d 7d86 fb3c
00000130: d5e8 6bbd a9e0 aebe aeae dbbb 30ed 86be
00000140: eaf2 a63d ecc2 d0bd 1c50 bebc 496b 63be
00000150: 803d 88be 21b7 06bb 7834 80be 7f15 b0bc
00000160: 1525 003d 0a50 83be ca3c fdbc 9091 c8bd
00000170: 13f5 b13d 3b7f 89be 4b27 ec3c 5713 90be
00000180: 1e27 9bbe 80a7 e1bd 55c4 28bd 0647 0fbe
00000190: 3883 2b3e 1c85 b8bd c9fb 43be 6619 dbbb
000001a0: 4fa6 22be 17a4 80be 07d6 18be 2e6f 483b
000001b0: 126c 26be 0e20 3bbd 47eb 3ebe 3e64 b8bd
000001c0: 7437 723b ce7b 8fbe d073 83bd 23f3 68be
000001d0: 793a b7bd a015 20be 63a6 75be 215a 9d3d
000001e0: f975 ef3d 509b 8fbe b681 21be 0313 aabc
000001f0: feed 96be f9d5 ca3c 8faf 0fbe b297 b1bd
00000200: a8ef ad3e 348c f8bd 04b7 65bf 5813 9b3c
00000210: 709b 383e a266 c0be 83b7 9a3e d764 b53e
00000220: 7f9b 9ebf 3399 08c0 0d22 d53e 4a4a 3d3f
00000230: c26a bbbe e73b 39be 7fd1 743e ed1b 24be
00000240: 701e 6abe 9531 aabe e897 683f 9df2 e1bf
00000250: 3d34 8c3e 9948 193f 2184 f2bf 9d63 5a3e
00000260: be74 cbbc 7773 b5be 6b68 84bf 51d4 873e
00000270: d20e d73e 0bf0 9b3e 0644 783f 1b75 b83d
00000280: f024 febe 0fa2 0fbe fbf8 5abf cf62 c9bc
00000290: 8ce3 ac3e 1239 67bf 7450 15bf 80b7 113f
000002a0: 22c8 91be 9d29 d8be 77ae 603e bf69 4cbe
000002b0: c231 ac3e 7c33 56be 200e eb3d 2c28 073e
000002c0: fc68 82bd ff7f 9b3c 70eb 9e3e 3165 11bf
000002d0: 3357 bc3e 4ce5 41be 992d b03e 04be a5bf
000002e0: 59a2 42bf 9620 22bf fe1e 5c3f ca89 50bf
000002f0: f146 4ebe a7df 0a3f 9b9e 483d f1de 01bf
00000300: 5165 783e 6316 423f af9e c03f 7b7d 97bd
00000310: a428 88bf c5fb 303f 18a5 99be 87e1 cb3e
00000320: b163 3bbf e86d 7d3f a14e 973e ba63 bc3d
00000330: cb7e 6cbb 8c53 88bf c5c7 8bbd 4d68 7f3e
00000340: 5167 44bf 502f a9be fbae cdbe 5e8a 963f
00000350: 1a52 abbf 8b41 c8be 57b4 84be 8cbb 6d3f
00000360: a6cc 2ebf e5a4 a73e 7e8f 553f 30fa 94be
00000370: 8232 e13e 3086 8dbe 763c 89bf 8b7e 82bf
00000380: 7556 863e 6577 83be fc3a 6d3c 9562 40bf
00000390: 6411 61bf d3a9 f73e 8b74 c73e b319 a7bf
000003a0: 660a a73e d360 eabe 030b f53a ef45 333f
000003b0: a522 7a3e 5905 b3bd 9457 b63e 9790 7a3e
000003c0: 685f 67bf e1ec 183f 804d 00bf c0cf 0c3d
000003d0: c2b0 c03e 29ed d0bf 32aa eb3e bced c23d
000003e0: 1abd 6b3f ac4e 503f 4fb8 79be 7a7d 98bd
000003f0: c032 94be 030c 833e a92f 063e 9535 65bc

convs.1.bias f4 [64]
-0.18213545 -0.2509434 0.33630067 -0.48855713 -0.6075298 -0.1966477 -0.6982488 -0.33778268
0.24613933 -0.012900881 -0.6208653 -0.94458336 -0.018291786 0.16774197 -0.24568418 -0.48788917
-0.6534145 -0.2186755 -0.39655346 -0.5896614 -0.44101882 -0.079186365 -0.15393668 0.05868844
-0.16751911 -0.18767633 -0.42954746 -0.03344188 -0.08495002 -0.63909864 -0.3189388 -0.23827733
-0.69580185 -0.25109637 -0.5153886 -0.56815153 0.12339616 -0.25836635 -0.23151146 -0.49434358
-0.43612045 -0.3896907 -0.27694327 -0.041746892 -0.28089455 -0.37219238 -0.084822744 -0.28385118
-0.3758118 -0.60716337 -0.61732453 -0.44795045 -0.36778885 -0.32336298 -0.19189373 0.08297634
-0.18387066 -0.47323734 -0.4285435 -0.5144307 -0.54100734 -0.27570587 -0.28088376 -0.33040515
00000000: b781 3abe a77b 80be 9a2f ac3e 2924 fabe
00000010: 1387 1bbf 045e 49be 6fc0 32bf daf1 acbe
00000020: f30b 7c3e 375e 53bc 07f1 1ebf 37d0 71bf
00000030: a8d8 95bc 8dc4 2b3e a294 7bbe 9ccc f9be
00000040: 2c46 27bf 78ec 5fbe 0e09 cbbe 0df4 16bf
00000050: 38cd e1be 762c a2bd 94a1 1dbe 4a63 703d
00000060: 218a 2bbe 392e 40be a5ed dbbe 5afa 08bd
00000070: 47fa adbd f89b 23bf f24b a3be f9fe 73be
00000080: 1220 32bf b48f 80be 82f0 03bf 6172 11bf
00000090: 20b7 fc3d 9848 84be 5711 6dbe 9a1a fdbe
000000a0: 2e4b dfbe 8a85 c7be 82cb 8dbe cafe 2abd
000000b0: 69d1 8fbe 0090 bebe 8cb7 adbd f154 91be
000000c0: 676a c0be 0f6f 1bbf fb08 1ebf c359 e5be
000000d0: d24e bcbe d58f a5be ca7f 44be 80ef a93d
000000e0: 9748 3cbe 2a4c f2be 0e6a dbbe bbb1 03bf
000000f0: 757f 0abf 5229 8dbe ffcf 8fbe dd2a a9be

convs.1.lin.weight f4 [64, 64]
-0.00804843 -0.104340084 0.012458046 -0.33419842 -0.037715703 -0.37125242 -0.09980361 -0.17534861
-0.23682286 -0.04924712 -0.050469264 -0.17489739 -0.06512669 0.07645291 -0.009053881 -0.29743892
-0.19684193 0.026837487 -0.07937252 -0.15478705 -0.12281565 -0.12163855 -0.16123699 -0.13747256
-0.011495157 -0.16580725 0.050735705 0.10573368 -0.0631269 0.13730317 -0.112680726 -0.23802102
-0.19173366 0.0212121 0.0225145 -0.19593824 -0.039797034 0.005608606 0.033641487 -0.2930423
0.092864275 0.002164602 -0.344694 -0.06602225 0.03703073 -0.113622166 0.124388345 -0.20532443
-0.11472048 -0.0085081225 -0.19980344 -0.002033299 -0.18851729 0.1968505 0.0021131807 -0.2119757
-0.013488488 -0.02025241 -0.04483897 0.14961348 0.066441916 -0.016638065 -0.24111907 0.038515206
-0.14144695 -0.09874496 0.7482385 0.6467521 -0.020948615 0.26350275 0.676168 -1.1206545
-0.27756777 0.4320045 -0.75672317 0.19444485 -0.18173976 -1.0929867 -4.2230315 0.4945279
0.09150158 -0.8716159 -0.5568652 0.55889004 0.10587617 0.6309682 -0.4887818 0.07258467
-0.28263924 0.3957489 0.75255734 0.026215468 -2.0171402 -0.1448753 -0.61812764 0.90381354
0.10568942 0.37404463 -0.1963664 0.4544953 -0.37707695 -0.45101172 -2.7395406 0.717238
0.054230295 0.1803299 0.91134804 0.51817864 -1.155981 0.69102716 -0.3479721 0.12377452
1.0383297 -0.6857341 -1.6189945 0.4002718 -0.11149711 0.1428811 1.0474669 -0.42064187
-0.15095976 -0.56662685 -0.2927 0.09391225 -0.17744687 0.9064643 0.33240876 0.099123284
0.22224626 0.26494235 0.0663369 0.54708177 -0.011312475 -0.262354 -0.17633346 -0.20714849
0.33677915 0.5959677 -0.5110045 -0.47359133 -0.114919335 0.21196692 -0.5954435 -0.961762
0.5082861 -1.1874353 -1.467135 -0.17869256 -0.2391692 0.8428373 1.3481739 0.102392316
-0.8158256 0.01954512 0.17977057 -0.087194435 -1.6396286 0.09235987 -0.9134511 -0.161637
-1.6950188 0.14813918 -0.14107315 0.25352028 0.047862064 -0.15219101 -0.048726723 1.2278007
0.0075535015 -0.52634835 0.66505337 1.0504609 1.0608755 -2.3232598 -1.1297367 0.014980953
-0.2153483 -0.9888297 0.20434332 0.19211467 0.09826574 -0.20631492 0.31499383 -0.64360934
-0.13257687 -0.8170818 0.3356667 0.21431208 -0.08916178 1.0805601 -0.34060454 -1.3346608
-0.17745544 -0.18114315 0.10228526 0.68851495 -0.1325542 0.36497867 0.16972958 0.3060966
-0.15927313 0.30692342 0.82160914 -0.1210478 0.023703137 0.06799933 -0.3055938 -0.23546726
0.16718496 -0.6063711 -0.055569172 -1.169705 0.10469282 -0.38557982 1.2159797 0.066286065
-0.66020536 0.09671945 -0.63455534 0.09362952 -1.7534782 0.14884825 0.14095676 -1.4015082
-1.3423947 0.6699488 0.62064713 -2.1351347 -0.41304722 0.26050192 -1.4154865 -2.4598107
0.06686749 0.47611582 0.49611005 -0.5020057 0.28487435 -0.9977931 0.044483148 0.15311985
0.0232712 -0.99301356 0.36654836 1.2856549 -0.10041241 0.22254573 -1.2125797 -1.6383243
0.18442 -0.58111584 0.043885805 -0.15107082 -0.116349 -2.3973277 0.3172386 -0.8448008
00000000: 90dd 03bc 41b0 d5bd d51c 4c3c 0e1c abbe
00000010: c87b 1abd cc14 bebe d665 ccbd 968e 33be
00000020: b181 72be 59b7 49bd dcb8 4ebd 4d18 33be
00000030: 2461 85bd 5893 9c3d bb56 14bc ea49 98be
00000040: ee90 49be 4ada db3c 0f8e a2bd 7f80 1ebe
00000050: c686 fbbd a21d f9bd 4f1b 25be 9bc5 0cbe
00000060: 2f56 3cbc 60c9 29be 3ed0 4f3d e68a d83d
00000070: ad48 81bd 3499 0c3e 27c5 e6bd c8bb 73be
00000080: d455 44be ffc4 ad3c 5470 b83c 09a4 48be
00000090: 3702 23bd 66c8 b73b a8cb 093d a409 96be
000000a0: a02f be3d ffdb 0d3b bb7b b0be ac36 87bd
000000b0: 89ad 173d bdb2 e8bd 51bf fe3d 9140 52be
000000c0: 92f2 eabd a765 0bbc 4699 4cbe 1941 05bb
000000d0: ad0a 41be 2d93 493e 4a7d 0a3b 2810 59be
000000e0: d2fe 5cbc 62e8 a5bc 11a9 37bd 4734 193e
000000f0: b312 883d 8d4c 88bc ebe7 76be 1fc2 1d3d
00000100: 78d7 10be cc3a cabd 8f8c 3f3f 8c91 253f
00000110: 6e9c abbc d5e9 863e 5919 2d3f 9b71 8fbf
00000120: 5d1d 8ebe b22f dd3e 9cb8 41bf 8d1c 473e
00000130: fd19 3abe fde6 8bbf 1323 87c0 c332 fd3e
00000140: 2e65 bb3d 3822 5fbf b88e 0ebf 6b13 0f3f
00000150: 9bd5 d83d 2287 213f 9c41 fabe 45a7 943d
00000160: 17b6 90be 9a9f ca3e 99a7 403f d2c1 d63c
00000170: d318 01c0 315a 14be 9d3d 1ebf 5360 673f
00000180: b273 d83d c782 bf3e 4614 49be 9cb3 e83e
00000190: 3b10 c1be 02eb e6be a254 2fc0 e99c 373f
000001a0: 9620 5e3d 67a8 383e 1b4e 693f 5ba7 043f
000001b0: 2ff7 93bf 28e7 303f 6629 b2be 7f7d fd3d
000001c0: fde7 843f 458c 2fbf 363b cfbf 6df0 cc3e
000001d0: 9958 e4bd 6c4f 123e 6513 863f 5f5e d7be
000001e0: 3295 1abe 750e 11bf c6dc 95be 1155 c03d
000001f0: a2b4 35be 0b0e 683f 7b31 aa3e 2601 cb3d
00000200: 8694 633e 86a6 873e a4db 873d 8d0d 0c3f
00000210: f657 39bc 4353 86be c290 34be bc1e 54be
00000220: 516e ac3e 5791 183f 31d1 02bf 907a f2be
00000230: d45a ebbd db0d 593e fc6e 18bf 0936 76bf
00000240: 0a1f 023f e1fd 97bf 14cb bbbf 2ffb 36be
00000250: c5e8 74be 2fc4 573f f690 ac3f 10b3 d13d
00000260: f2d9 50bf 161d a03c c715 383e ff92 b2bd
00000270: 5adf d1bf 2c27 bd3d eed7 69bf 2b84 25be
00000280: 60f6 d8bf ccb1 173e 7b75 10be 69cd 813e
00000290: 030b 443d f6d7 1bbe ac95 47bd 9328 9d3f
000002a0: 5d83 f73b c4be 06bf f040 2a3f 8175 863f
000002b0: c5ca 873f 4ab0 14c0 369b 90bf ac72 753c
000002c0: 4484 5cbe f123 7dbf 603f 513e b5b9 443e
000002d0: 8c3f c93d 3844 53be df46 a13e 95c3 24bf
000002e0: 3bc2 07be 462c 51bf 81dc ab3e a074 5b3e
000002f0: 749a b6bd cb4f 8a3f b863 aebe 2ad6 aabf
00000300: e1b6 35be 977d 39be ef7a d13d 8442 303f
00000310: 4abc 07be 7cde ba3e 97cd 2d3e b2b8 9c3e
00000320: 7f18 23be 1125 9d3e fa54 523f e9e7 f7bd
00000330: 152d c23c 3c43 8b3d ca76 9cbe 541e 71be
00000340: 8932 2b3e 233b 1bbf 809c 63bd e5b8 95bf
00000350: 3069 d63d b86a c5be 39a5 9b3f fdc0 873d
00000360: 3803 29bf d914 c63d 3872 22bf d5c0 bf3d
00000370: f971 e0bf ad6b 183e f856 103e 9f64 b3bf
00000380: 97d3 abbf c481 2b3f bbe2 1e3f 0ca6 08c0
00000390: ed7a d3be 8260 853e a92e b5bf 8a6d 1dc0
000003a0: d3f1 883d 74c5 f33e 2302 fe3e 7283 00bf
000003b0: 0ddb 913e 5e6f 7fbf f633 363d 73cb 1c3e
000003c0: 3ea3 be3c 2336 7ebf 3aac bb3e 5790 a43f
000003d0: 06a5 cdbd 07e3 633e d035 9bbf 9cb4 d1bf
000003e0: 99d8 3c3e 02c4 14bf 9ac1 333d 4fb2 1abe
000003f0: 6248 eebd d16d 19c0 196d a23e dd44 58bf

lin1.weight f4 [64, 64]
-0.046625756 0.13133618 -0.6807211 0.9059957 0.7123835 -0.57369924 0.67444456 0.43728444
-1.1546739 -0.581611 0.056827366 -0.14977705 -1.0228821 -1.1857173 0.5225256 -0.9778655
0.70354754 -1.048286 -0.19588348 0.1243229 0.28181624 -0.5398174 0.38881585 -0.60074776
0.04697887 1.07393 0.48760998 -0.6753244 1.1919029 -0.29392618 0.4722741 -0.042051766
-0.40396792 -0.121806234 0.47749057 0.001392101 1.6894337 0.21692216 0.02649886 0.22134893
0.19589841 0.72133905 -1.1630094 -0.4296629 -0.4146427 0.31642196 -1.2405905 0.34799632
-0.6531536 -0.68654895 -0.01877934 1.3495791 0.13159315 0.21786335 -0.77663124 0.7354969
-0.3890425 0.2539672 0.26449963 0.57831967 0.5606459 -0.604574 0.45126605 0.02130795
0.041263916 -1.5919714 0.59115124 1.0752158 0.02170606 0.34427306 -1.2604368 -0.17458443
-0.44793087 1.2717482 1.2274489 2.3035023 -2.3308015 0.42794448 -0.65048736 0.5643443
-1.6778277 -0.029967617 -0.80895925 -1.2013888 0.14638834 -0.7419038 0.37553555 0.8557397
-1.4541135 0.6885917 0.32507846 -0.5068242 0.14423376 -1.2210451 0.8213665 -0.15470111
-1.793822 -0.2834908 -0.5139028 -0.34187263 -0.54880214 -0.030812223 -0.02708314 0.77462375
-0.36277622 0.56507635 0.031325243 1.7895331 -0.69319975 0.23506583 0.32903516 0.3389148
0.6052898 0.038156305 -0.5870255 -1.3561909 0.028657163 0.1759332 -0.57983285 0.7611817
-0.0390351 -0.17904678 0.16605052 -1.124831 -1.087003 -0.06704992 -0.16912064 -0.51641345
0.001817469 -0.21721752 -1.3217574 -0.102230825 0.24837382 -0.28365275 0.27344775 0.43923825
-1.1162381 -0.30905223 0.58765537 -0.61131805 -1.2859944 -0.60037273 0.3001259 -1.0963389
0.68382484 -0.17796919 -0.21322435 0.093623064 0.16667326 -0.3792491 0.558776 -1.2824596
0.2297473 0.26052582 0.08500154 -0.7332183 1.6765872 -0.81268156 0.09620648 -0.19339833
-0.7455202 -0.35223547 0.23381148 -0.17749314 1.6978424 0.061075192 -0.08081534 0.5292262
0.15498136 0.75659996 -0.53088915 -1.0346165 -0.4558872 0.07104693 -0.5065816 -0.0906701
-0.77167475 -0.5664245 -0.0550022 1.080416 0.14232019 0.041119624 -0.94092435 1.1771473
-0.33697975 0.3062287 0.080752335 1.1090803 0.4948367 -0.7437483 0.034455497 0.0010201663
-0.039286796 0.27406654 -1.1274877 0.6514141 0.566249 -0.7518835 0.75448805 0.39128923
-0.6468327 -0.07888247 0.5156088 -0.4680178 -1.202049 -0.18321542 0.5870261 -0.87166613
1.2071118 -0.43396646 -0.40093312 0.24241649 0.3114548 -0.7183054 0.6822071 -0.68836254
-0.22196661 0.6091555 0.8864049 -1.0569545 1.4942734 -0.74812764 0.78554547 -0.0027892229
-0.7074146 -0.15734306 0.112645864 0.12353493 0.9178963 -0.0051652715 -0.45226598 0.39950415
0.22623287 0.22175163 -0.86894476 -1.0119388 -0.015114153 0.61412776 -1.0683264 0.026105223
-0.9456222 -0.9553999 0.25394836 0.9551122 0.18899699 0.08541378 -0.11706831 1.1825442
-0.56403184 0.4507258 0.19833875 0.20961365 0.5077379 -0.7805431 0.7078422 -0.22204702
00000000: a6fa 3ebd fe7c 063e bd43 2ebf 56ef 673f
00000010: c45e 363f f4dd 12bf 66a8 2c3f bfe3 df3e
00000020: 5bcc 93bf 75e4 14bf d0c3 683d 285f 19be
00000030: cded 82bf 96c5 97bf 3dc4 053f 6555 7abf
00000040: b11b 343f 3c2e 86bf ae95 48be 019d fe3d
00000050: 384a 903e 7931 0abf df12 c73e 9bca 19bf
00000060: ea6c 403d 8a76 893f 04a8 f93e 0fe2 2cbf
00000070: 4690 983f 7e7d 96be e9cd f13e 793e 2cbd
00000080: e2d4 cebe 8c75 f9bd a579 f43e 2977 b63a
00000090: 5d3f d83f d820 5e3e 2314 d93c 4ba9 623e
000000a0: 9899 483e ada9 383f 7edd 94bf c7fc dbbe
000000b0: 0c4c d4be 0f02 a23e abcb 9ebf 932c b23e
000000c0: 1335 27bf acc1 2fbf 21d7 99bc 02bf ac3f
000000d0: 5bc0 063e 9217 5f3e 4ed1 46bf 8649 3c3f
000000e0: 9430 c7be fd07 823e 7f6c 873e c20c 143f
000000f0: 7d86 0f3f 5dc5 1abf 580c e73e 038e ae3c
00000100: 5a04 293d b8c5 cbbf b055 173f aca0 893f
00000110: e8d0 b13c 8f44 b03e fe55 a1bf 43c6 32be
00000120: 3257 e5be a5c8 a23f 0c1d 9d3f 956c 1340
00000130: da2b 15c0 8a1b db3e 5786 26bf de78 103f
00000140: 0fc3 d6bf a67e f5bc f417 4fbf 1cc7 99bf
00000150: d3e6 153e 68ed 3dbf 3246 c03e c211 5b3f
00000160: 6420 babf 8c47 303f af70 a63e 3bbf 01bf
00000170: 04b2 133e 354b 9cbf 1345 523f f869 1ebe
00000180: f69b e5bf b525 91be 228f 03bf ee09 afbe
00000190: 4c7e 0cbf ea69 fcbc 76dd ddbc be4d 463f
000001a0: cebd b9be d8a8 103f e64e 003d 6c0f e53f
000001b0: 8a75 31bf 19b5 703e 4c77 a83e 3e86 ad3e
000001c0: 46f4 1a3f c949 1c3d 4e47 16bf aa97 adbf
000001d0: 6dc2 ea3c d527 343e ed6f 14bf cedc 423f
000001e0: 45e3 1fbd 0a58 37be 2609 2a3e 76fa 8fbf
000001f0: ea22 8bbf 7851 89bd f62d 2dbe ac33 04bf
00000200: 2438 ee3a 456e 5ebe 592f a9bf 655e d1bd
00000210: b555 7e3e ef3a 91be 5801 8c3e d6e3 e03e
00000220: e4e0 8ebf 183c 9ebe 9570 163f 577f 1cbf
00000230: 779b a4bf 07b2 19bf 1aaa 993e d554 8cbf
00000240: 250f 2f3f 8e3d 36be 7c57 5abe 73bd bf3d
00000250: 65ac 2a3e f02c c2be f20b 0f3f a327 a4bf
00000260: e042 6b3e a463 853e 4a15 ae3d 32b4 3bbf
00000270: 699a d63f e60b 50bf e707 c53d 360a 46be
00000280: 69da 3ebf 3558 b4be 476c 6f3e c3c0 35be
00000290: e652 d93f fb29 7a3d 8382 a5bd 5e7b 073f
000002a0: 6fb3 1e3e 89b0 413f 5ae8 07bf 506e 84bf
000002b0: 0c6a e9be 0e81 913d 55af 01bf 3fb1 b9bd
000002c0: 7a8c 45bf 3201 11bf fd49 61bd 124b 8a3f
000002d0: 62bc 113e 0d6d 283d 6be0 70bf c3ac 963f
000002e0: 9c88 acbe 02ca 9c3e 7b61 a53d 58f6 8d3f
000002f0: 3c5b fd3e 4a66 3ebf 3521 0d3d 1ab7 853a
00000300: 31eb 20bd 7352 8c3e 8451 90bf 13c3 263f
00000310: b2f5 103f 707b 40bf 2126 413f 1057 c83e
00000320: d496 25bf 228d a1bd f0fe 033f 07a0 efbe
00000330: bedc 99bf d39c 3bbe 5847 163f 8325 5fbf
00000340: a482 9a3f da30 debe 1b47 cdbe 073c 783e
00000350: 0177 9f3e dde2 37bf 20a5 2e3f 8738 30bf
00000360: 374b 63be 9df1 1b3f 6eeb 623f 494a 87bf
00000370: 5a44 bf3f 4b85 3fbf 8219 493f 65cb 36bb
00000380: 2019 35bf 8a1e 21be e0b2 e63d e2ff fc3d
00000390: 40fb 6a3f 7041 a9bb 688f e7be cf8b cc3e
000003a0: 97a9 673e dc12 633e 2a73 5ebf 3687 81bf
000003b0: 5aa1 77bc 7a37 1d3f ebbe 88bf 9fda d53c
000003c0: 4c14 72bf 1695 74bf 8505 823e 3c82 743f
000003d0: 6d88 413e 6bed ae3d 83c1 efbd 9c5d 973f
000003e0: 6464 10bf 88c5 e63e 5019 4b3e f6a4 563e
000003f0: 1cfb 013f acd1 47bf 2535 353f 4b60 63be

lin1.bias f4 [64]
0.00722865 0.22320586 0.08613979 0.018964682 0.09401504 -0.023483897 -0.1664749 -0.14734297
-0.20152709 0.09560261 0.043253686 -0.20877929 0.2373844 0.0717556 0.17048022 -0.23451467
0.047851752 -0.028742174 -0.08577729 0.097583525 0.033170734 0.014457504 0.11119588 0.13119632
0.043317422 0.13670628 0.10482168 -0.18709925 0.11823974 -0.1535639 0.0814583 -0.042299677
-0.2549504 0.15815492 -0.095653206 0.17225549 -0.009813948 0.106802545 -0.012093554 -0.13298349
-0.24642973 -0.20810948 -0.2596079 -0.5309722 -0.009175517 -0.3787541 -0.12372512 0.11289985
0.15059362 0.032852143 0.22665876 0.17918856 -0.19923794 -0.2973365 -0.16606873 -0.1502202
0.107573465 -0.15435542 -0.053667706 -0.14975777 -0.12604378 0.013909649 0.04899049 0.24192858
00000000: 50de ec3b 1490 643e 0f6a b03d d25b 9b3c
00000010: f58a c03d 4d61 c0bc 6578 2abe 13e1 16be
00000020: 1e5d 4ebe 4dcb c33d c72a 313d 3dca 55be
00000030: e514 733e 9af4 923d 5e92 2e3e 9d24 70be
00000040: 3300 443d b574 ebbc 01ac afbd dfd9 c73d
00000050: 09de 073d 2bdf 6c3c aaba e33d 5458 063e
00000060: 9c6d 313d bbfc 0b3e c0ac d63d f296 3fbe
00000070: ad27 f23d db3f 1dbe 9cd3 a63d 6d42 2dbd
00000080: dc88 82be 5df3 213e d4e5 c3bd be63 303e
00000090: aeca 20bc 4bbb da3d 0b24 46bc d32c 08be
000000a0: 1358 7cbe a71a 55be 54eb 84be cbed 07bf
000000b0: e854 16bc 0fec c1be 9963 fdbd 0938 e73d
000000c0: 3735 1a3e f88f 063d 3c19 683e 357d 373e
000000d0: 0805 4cbe 7d3c 98be ec0d 2abe 53d3 19be
000000e0: 7a4f dc3d 590f 1ebe abd2 5bbd 1a5a 19be
000000f0: 9f11 01be 4ce5 633c 41aa 483d 20bc 773e

lin2.weight f4 [2, 64]
0.81236404 -2.4651072 0.90147257 1.2745069 0.9853137 -0.07127874 0.06305815 0.080677785
-0.012160515 -1.6220927 -1.3005959 0.02415859 -1.9714193 1.0059936 -2.7130363 0.014776547
-2.24153 -1.448681 -0.15338664 0.9849201 -2.489485 0.90923387 -1.9834402 0.8418751
0.86508125 -2.365229 0.9233495 0.09878975 -1.9238268 -0.0483119 -1.784163 -0.030326707
-0.019642005 -1.9549226 0.13008912 -2.4040637 -0.10193659 0.8935666 0.054846346 0.0317394
-0.11307651 -0.07602535 0.049458344 -2.0109856 0.046768527 -2.1271427 0.5759922 0.79584295
-1.7101734 0.7380315 -1.7219145 -2.2531428 0.05684597 -0.017193358 0.011860131 -0.007097589
-2.3473284 -0.07432976 1.1201874 -0.05017996 0.013876277 0.5192196 -1.3253103 -2.2689993
-0.72606343 2.4017556 -0.7888539 -1.1437119 -1.1219722 -0.063032195 0.051207576 -0.069881804
0.06308292 1.6380671 1.3164566 -0.10804073 1.9426228 -1.0130563 2.7005138 0.0019689759
2.3002748 1.6088917 0.084290236 -1.006625 2.3371263 -0.77536124 2.013283 -0.959772
-0.7359291 2.138189 -0.9404437 -0.08045931 1.8333609 0.0090390965 1.8282714 0.09616102
0.088733464 1.932093 0.0007656095 2.435472 0.12448401 -0.9635791 0.044229884 0.04544215
0.1838896 -0.11402948 0.012780363 1.9492937 -0.041670814 2.2373857 -0.68113786 -0.8271537
1.7486095 -0.569582 1.8632292 2.165089 -0.12973946 -0.13130362 0.041747376 -0.060355913
2.3315682 0.15162718 -1.145284 0.012230011 -0.07793519 -0.5407996 1.4801886 2.1852453
00000000: 17f7 4f3f 51c4 1dc0 e8c6 663f 0b23 a33f
00000010: 853d 7c3f 97fa 91bd a224 813d 653a a53d
00000020: e63c 47bc bca0 cfbf ed79 a6bf 3ce8 c53c
00000030: 7857 fcbf 66c4 803f 63a2 2dc0 5519 723c
00000040: 3a75 0fc0 616e b9bf 6311 1dbe b923 7c3f
00000050: b953 1fc0 8dc3 683f 5ee1 fdbf 2085 573f
00000060: f775 5d3f e95f 17c0 a260 6c3f 4852 ca3d
00000070: f53f f6bf b3e2 45bd 745f e4bf b76f f8bc
00000080: 45e8 a0bc e73a fabf 1536 053e 2edc 19c0
00000090: 22c4 d0bd c8c0 643f 90a6 603d 2c01 023d
000000a0: a894 e7bd 2eb3 9bbd d594 4a3d fdb3 00c0
000000b0: 5b90 3f3d 1b23 08c0 3a74 133f 5dbc 4b3f
000000c0: f6e6 dabf a2ef 3c3f b267 dcbf 7e33 10c0
000000d0: 52d7 683d 16d9 8cbc ff50 423c e492 e8bb
000000e0: a13a 16c0 343a 98bd 4d62 8f3f 8089 4dbd
000000f0: 5359 633c 93eb 043f c5a3 a9bf 4937 11c0
00000100: 4bdf 39bf 5db6 1940 54f2 49bf 2765 92bf
00000110: c99c 8fbf 0617 81bd 09bf 513d 311e 8fbd
00000120: 9e31 813d 2fac d13f a681 a83f 7544 ddbd
00000130: dda7 f83f d4ab 81bf 38d5 2c40 ef09 013b
00000140: b437 1340 2af0 cd3f 5ca0 ac3d 17d9 80bf
00000150: 7a93 1540 137e 46bf a1d9 0040 9eb3 75bf
00000160: d965 3cbf 17d8 0840 ebc0 70bf dac7 a4bd
00000170: 92ab ea3f b818 143c cc04 ea3f 12f0 c43d
00000180: e4b9 b53d d34e f73f 2fb3 483a c6de 1b40
00000190: 79f1 fe3d 1fad 76bf 652a 353d 8c21 3a3d
000001a0: 8e4d 3c3e 4a88 e9bd ba64 513c 7582 f93f
000001b0: 04af 2abd 5431 0f40 0d5f 2ebf 58c0 53bf
000001c0: 70d2 df3f 20d0 11bf 4b7e ee3f d190 0a40
000001d0: 6cda 04be 7574 06be 4cff 2a3d c337 77bd
000001e0: 6a38 1540 2844 1b3e ab98 92bf 6260 483c
000001f0: 7c9c 9fbd d871 0abf d276 bd3f 0fdb 0b40

lin2.bias f4 [2]
0.59104633 -0.56133616
00000000: d04e 173f bab3 0fbf
