saved_models/gin_MUTAG.model (torch, 418111 bytes, 28 tensors)

conv1.nn.0.weight f4 [128, 7]
000000 ce 56 54 be ac 08 6a bc 7d 04 82 bd b0 60 c0 3e
       -0.20736238 -0.014284294 -0.06348512 0.37573767
000010 07 b9 96 be d4 df 88 3e 48 47 77 bd 9e dc 7f 3e
       -0.2943804 0.26733267 -0.060370713 0.24986503
000020 c9 f0 97 3e aa d6 c6 3e 1b 9f f9 3e db 28 e4 bd
       0.29675892 0.3883565 0.487542 -0.11140605
000030 c4 15 4b 3d 41 48 ec 3e 3c 9f cd 3e 46 f1 4a 3d
       0.049581304 0.46148875 0.4016055 0.049546503
000040 76 7e d6 3e 05 d8 c6 3e 38 df 8b be d2 9c d3 be
       0.41893357 0.38836685 -0.2731874 -0.41330582
000050 ab cf 8a 3d 72 92 4d 3e 4d f8 dc 3e 35 62 11 bd
       0.06777891 0.20075396 0.43158188 -0.03549405
000060 6b 09 36 3c 27 88 fb 3d 6c 2f 2a 3e b7 2a a7 3d
       0.011110644 0.122818284 0.16619653 0.08162444
000070 cb d9 2a 3e 6e 4c d3 bd ba dc cc be 5e cf 62 bb
       0.16684644 -0.10317312 -0.4001215 -0.0034608464
000080 1f 46 a8 bc 3e 3d ff 3d 0c e6 78 3e 90 f6 67 3e
       -0.020541249 0.12462853 0.24306506 0.2265265
000090 d3 89 98 be 66 98 41 bd 09 a6 90 3d cb 1b 5b be
       -0.29792652 -0.04726448 0.07062919 -0.21397321
0000a0 b8 88 8f be 51 35 0c 3e f4 ec d9 3e 6f d2 68 3e
       -0.28033996 0.13692214 0.42563593 0.22736524
0000b0 69 25 f9 3e 93 d6 1a 3f 96 0b 5a be 0c 72 8e 3e
       0.48661354 0.60483664 -0.21293482 0.27821386
0000c0 ad 5f 05 3e 01 f8 52 be 1b 67 6f be a2 f9 a5 3b
       0.13024779 -0.20602418 -0.23379175 0.005065159
0000d0 a1 4b 5f bd 62 46 99 bd 9d 9e 18 be ba d5 45 3d
       -0.054515485 -0.074841276 -0.14904256 0.04829953
0000e0 09 db 04 be 9a a5 68 3e eb 53 27 3e 53 20 bd 3e
       -0.1297418 0.22719422 0.16340606 0.36938724
0000f0 dc fc 75 be 97 1a 57 bc fc 0d 81 3e 94 e2 f9 3d
       -0.2402224 -0.013128898 0.25205982 0.122014195
000100 74 8f b8 be 12 f6 cd bd 87 03 b0 be f7 b3 8a 3d
       -0.36046946 -0.100567 -0.3437769 0.06772607
000110 f9 9c 90 3e f9 8a 68 bb 26 05 a9 3e fb 6e 13 3e
       0.2824476 -0.0035483225 0.3301174 0.14397804
000120 fe 40 b3 3d e1 27 2b bd d4 0d b3 3e 00 13 c4 3e
       0.08752631 -0.04178608 0.34971488 0.38295746
000130 f2 28 7b bc a4 b0 b0 3e 05 85 ec bc 0a 7e 94 3e
       -0.015329586 0.34509766 -0.028872022 0.2900241
000140 67 09 ba 3e 2e b3 7a 3e e4 29 07 bf 05 7b 8f be
       0.36335298 0.24482414 -0.52798295 -0.28023544
000150 f4 f1 df bd c7 f0 5a be de 36 ee bd e3 bd 12 be
       -0.10934821 -0.21380912 -0.11631559 -0.14330249
000160 9a 89 9c 3e a9 68 60 be f3 bc bd 3e 21 5a 94 be
       0.30573732 -0.21914925 0.3705822 -0.28975013
000170 bb 13 b0 be ab 79 18 be 8c 3a 9a be 35 bc be be
       -0.34390053 -0.14890163 -0.30122793 -0.37252966
000180 4b 12 80 bd 50 0d e9 3c 2a a2 ce be 9f aa aa bd
       -0.06253489 0.02844873 -0.40358096 -0.08333325
000190 f7 95 9f 3d 73 27 27 3d 76 5a bf be 9f f7 59 3e
       0.077922754 0.040809106 -0.37373704 0.21285866
0001a0 be a7 35 be da 13 6c bd 37 84 b8 be 22 0a a8 3d
       -0.1773977 -0.05763612 -0.36038372 0.08205058
0001b0 1f 0a a9 bd b9 21 8c be 3e 7c 11 be c3 a5 1c 3e
       -0.082538836 -0.27369478 -0.14207551 0.15297608
0001c0 35 38 50 bd d7 04 3e 3d cc be 95 be ed d1 a9 be
       -0.050834853 0.046391334 -0.2924713 -0.33167973
0001d0 4b 7a a5 be ab c7 8d be 53 23 a2 3e e4 67 f4 bd
       -0.32319865 -0.27691397 0.31667575 -0.11933878
0001e0 b9 81 27 3e 0d 2c 97 be 8f 00 fc bd 33 6a 60 be
       0.16358079 -0.29525796 -0.12304794 -0.21915512
0001f0 e8 84 af be eb 14 ca 3e 7c 68 d4 bd 8d 81 92 bd
       -0.34281087 0.39469084 -0.10371491 -0.07153616
000200 2d 6d 91 3e 1c 1b 8a 3e 96 d8 50 3d 4e 74 c5 bc
       0.28403607 0.26973808 0.050987802 -0.02410331
000210 1b e1 a9 be e1 4c 45 bd f5 88 80 3c 11 1e 20 be
       -0.33179554 -0.04816902 0.015690306 -0.1563647
000220 a8 38 1f 3d 85 e6 0f be 72 7a c6 3c 38 70 ba bd
       0.03887239 -0.1405278 0.024228308 -0.09103435
000230 f3 b8 ad be 82 50 18 3d da 6f 34 3e 58 cc 93 3e
       -0.33930168 0.037186153 0.17620793 0.2886684
000240 fc 4e f0 3d b4 63 e6 3d 55 d4 a2 3e 37 fc c6 3d
       0.11733815 0.112494856 0.3180262 0.09716075
000250 04 c0 9a 3e 78 1a 26 3d 29 58 94 bd 8a f1 19 3e
       0.3022462 0.040552586 -0.07243378 0.15033546
000260 05 63 83 3e 2b 1e a0 3e 19 af b7 bc d3 ec 25 3e
       0.25661483 0.31273016 -0.02242236 0.16203623
000270 1c cd bf 3d f8 b6 c0 be 52 04 b7 be ed b0 a7 be
       0.093652934 -0.37639594 -0.35745484 -0.3275217
000280 04 09 81 be b8 5b 4a 3e 7e f5 cf bc cc 09 53 3e
       -0.2520219 0.1976155 -0.025385614 0.20609206
000290 b8 a8 72 bd 24 bf 0c be c5 59 eb be fa cd da 3c
       -0.059242934 -0.1374479 -0.45966926 0.026709545
0002a0 8a 11 48 bd 16 0c 87 be 00 56 c8 bb 01 1f 4b be
       -0.04884485 -0.26376408 -0.0061137676 -0.19836046
0002b0 3a cd a4 3e 77 5a e7 bc f2 54 87 be 69 73 8e 3d
       0.32187825 -0.02824138 -0.26431996 0.069556065
0002c0 f4 55 83 3e 38 8c 9c 3d 7d dd 89 3d fd 5f 95 bd
       0.25651515 0.07643932 0.06731699 -0.07293699
0002d0 13 a3 70 3d 86 9e 9c 3e 68 67 a1 bd 92 31 3e bc
       0.05874927 0.30589694 -0.07881051 -0.011608498
0002e0 0b a1 0b 3e b7 36 af be e4 a8 2d bd cc 6f 8f be
       0.13635652 -0.34221432 -0.042397395 -0.28014982
0002f0 f8 4b 1e be 55 e7 30 3e 59 36 7d be 49 a3 ba be
       -0.15458667 0.17275746 -0.24727763 -0.36452702
000300 c9 59 8b 3e 93 ac 25 bd 1d 47 f7 bd 08 c8 0a be
       0.27216938 -0.040447783 -0.12074111 -0.13552868
000310 77 a7 05 bf 9b 09 b3 3e 3c 8a 2d be 0e cd 86 3e
       -0.52208656 0.34968266 -0.16947263 0.2632832
000320 28 3f 89 3e b2 a4 35 be fb 4f bf be 99 0b 4b be
       0.26805997 -0.17738608 -0.37365708 -0.19828643
000330 ee c9 72 be 63 54 0a 3e ca 91 ca bd b3 02 8c 3e
       -0.23709843 0.13508753 -0.09891088 0.2734581
000340 4d 44 15 3d 47 1d 91 bc fc 90 bb bd 26 b0 47 3e
       0.03644209 -0.017714156 -0.09158513 0.19500789
000350 a7 b4 44 3e af 56 24 3e 67 65 ef 3d bb c4 59 be
       0.19209538 0.16048692 0.11689263 -0.21266453
000360 01 03 d9 3e 12 7d 1e 3e 70 8a aa be 66 45 a2 bd
       0.42385104 0.15477398 -0.33308744 -0.07923393
000370 7a e5 3b 3e 62 38 8f be 6e 69 c4 be bd 19 8c 3e
       0.18349257 -0.27972704 -0.38361686 0.27363387
000380 6e c1 07 be 2d 80 a1 be 81 f0 bb be bc f7 90 be
       -0.13257381 -0.31543103 -0.36706927 -0.28314006
000390 52 34 8b be 8e 18 d1 3c 98 8f db 3d fd ca 45 be
       -0.27188355 0.025524404 0.10720748 -0.19315715
0003a0 15 45 11 bd 8a 7e b8 bd 67 8f e4 bd 73 ce c4 bd
       -0.035466272 -0.090085104 -0.11160164 -0.096096896
0003b0 5b 5f 6a be af 49 81 3d 84 64 31 bf 2e 25 b9 3d
       -0.22887938 0.06312882 -0.69294 0.090402946
0003c0 1f 5d 02 be 21 33 11 3e 5e 48 9a 3d 02 45 82 bd
       -0.12730835 0.1417966 0.07533334 -0.063608184
0003d0 52 1f 9e be 3f b2 8d be a0 e2 bf 3d 7f 0a 05 be
       -0.3088327 -0.27675053 0.09369397 -0.12992285
0003e0 84 71 19 be fd 97 47 be 0a fa 94 be 5a 97 39 be
       -0.14984709 -0.19491573 -0.29097015 -0.18124142
0003f0 4b 2c bd be a5 a1 1b 3e ee e5 0a be 85 d4 17 3e
       -0.36947855 0.15198381 -0.13564274 0.14827164

conv1.nn.0.bias f4 [128]
000000 6b fc e3 3d 88 ff b6 be fc b8 18 3e de 42 10 bd
       0.11132129 -0.3574183 0.14914316 -0.03522002
000010 90 eb 2f be 28 72 7d 3e cf 32 5b be 11 d5 76 be
       -0.17179704 0.24750578 -0.214061 -0.24104716
000020 87 e4 d6 bd c8 7e a0 be 54 bd df bd 2f c9 ea bd
       -0.10492807 -0.31346726 -0.10924783 -0.11464154
000030 62 c7 14 be 00 b5 ab be 5e 70 e7 3d e2 be 91 3c
       -0.14529184 -0.3353653 0.11300729 0.017791215
000040 5c f6 9a be 92 76 1d 3e fb f9 85 be 6e 3d 85 bd
       -0.30266082 0.15377262 -0.26167282 -0.065058574
000050 fd 98 06 be b1 a5 7b 3e ef be 63 3d db b5 8b bd
       -0.13144298 0.24574925 0.05560201 -0.068217956
000060 d5 81 99 be 9f f7 32 3e c2 9f ae be a3 e7 dd be
       -0.29981866 0.17477272 -0.3410626 -0.43340787
000070 79 93 f9 bd 1e 63 96 be 47 6c 82 3d 5c db c4 3e
       -0.12186331 -0.29372495 0.063683085 0.38448608
000080 2d 24 9d be 00 c1 c2 3c 1e bd 8f 3e c5 8f 97 be
       -0.30691662 0.02377367 0.28073972 -0.29601875
000090 ff 85 bd be 7e 2b 9a bc d9 63 0e 3e f3 51 78 3e
       -0.37016293 -0.018819567 0.13905276 0.24250011
0000a0 54 db db 3c 08 31 5e 3e 8b 44 fd be 5e 97 60 be
       0.026837982 0.21698391 -0.49466357 -0.21932742
0000b0 33 b1 eb 3d ba 9c 7a be 3f 4c 54 bd 9e cf a1 be
       0.115084074 -0.24473849 -0.051830526 -0.31603712
0000c0 98 d2 c7 be bc 55 43 be 8a 31 62 be 86 c0 c4 3e
       -0.39027858 -0.19075674 -0.2208921 0.38428134
0000d0 3a e1 64 be f2 40 e6 3e 38 b7 8b be bc 41 04 3f
       -0.22351542 0.44971424 -0.27288222 0.516628
0000e0 5e b6 35 3e 65 d3 07 3e c2 34 ba 3d 35 69 49 bc
       0.17745349 0.13264234 0.09092094 -0.01229315
0000f0 7c cc 0b be 13 ce f4 be 9d 54 17 bc 20 69 23 3e
       -0.13652223 -0.47813472 -0.009236482 0.15958071
000100 6d b6 23 be 9e 36 57 3d ba b8 2e bd 31 0e d4 bd
       -0.15987559 0.05254232 -0.042656638 -0.10354269
000110 12 6b 5a be 8f 93 b5 bb 7a c7 bc bd 67 b6 b0 be
       -0.21329907 -0.005541272 -0.09217735 -0.34514162
000120 4a 92 25 3e 86 cd 23 3e 2f e8 8a be 88 cb cd bd
       0.16169086 0.1599637 -0.27130267 -0.10048586
000130 51 61 32 3e 8e 49 87 be e5 98 af be eb ae 14 3e
       0.17419936 -0.26423305 -0.34296337 0.14519851
000140 8a da 5e 3e 52 04 bd be a3 03 86 be 47 16 c7 be
       0.21763054 -0.3691736 -0.2617465 -0.38884184
000150 0e 0e e9 be 38 fe c7 be 84 2f 82 be 76 c9 0e be
       -0.45518535 -0.3906114 -0.25426877 -0.13944039
000160 52 e3 18 be 13 61 b5 bd 5a 77 ca bc 85 bc 98 3c
       -0.14930466 -0.08856406 -0.024715114 0.01864458
000170 79 ba d1 bc a1 f3 32 be 4b 6d ca 3d c9 f0 84 be
       -0.025601612 -0.1747575 0.09884127 -0.25964954
000180 2d 6e 57 3e 53 ff 81 3c 4f ba 4f 3d 89 f7 d1 3d
       0.21038122 0.015868818 0.050714787 0.10252292
000190 81 be 1e 3e e6 22 52 be 56 00 ff be 44 2b b8 3d
       0.15502359 -0.20521125 -0.49804944 0.08992627
0001a0 83 1f b2 3e 9a 95 5d 3c 55 e2 0b bd 0a c3 5b 3c
       0.34789667 0.013524437 -0.034151394 0.0134132
0001b0 cd 58 7d bd df 58 c4 be 0c 45 04 be 34 1b 88 3e
       -0.061852265 -0.38349053 -0.12916964 0.26583254
0001c0 6a 76 9c bd 7e c4 76 3e 18 0d 89 3e 57 f5 35 be
       -0.07639773 0.24098393 0.26767802 -0.17769371
0001d0 01 8c 78 3e 9c 9b e2 3d 1b 83 5a 3e e7 b5 5f 3e
       0.24272157 0.110648364 0.21339075 0.21846734
0001e0 c4 28 08 3d ba ca 88 3d d3 7a 0a 3e e0 25 a0 be
       0.033242002 0.06679292 0.13523416 -0.31278896
0001f0 bf b5 2e 3e 9f 34 90 3e 6a bd 33 3e 8d 7a 80 be
       0.17061518 0.28165147 0.17552724 -0.250935

conv1.nn.2.weight f4 [128, 128]
000000 59 ba e2 bc 50 59 21 3e 6d 07 57 3e 31 89 87 3d
       -0.027676748 0.15756726 0.20998926 0.06617964
000010 73 88 da bd 88 47 8e bd fb b9 70 3e 7c 69 19 bd
       -0.10670557 -0.06947237 0.23508446 -0.037454113
000020 b1 f7 d7 bd 56 3a 29 bd 80 09 35 3e 57 04 6b 3e
       -0.1054529 -0.0413154 0.17679405 0.22950874
000030 9e 1d 3e 3e 4e db 13 3d 80 7a c8 bc 24 14 92 3c
       0.18565986 0.036097817 -0.024472475 0.01783187
000040 72 13 70 3e dd 08 20 be c0 26 22 bc 8a 81 4c bc
       0.23444918 -0.15628381 -0.009896934 -0.012482056
000050 9f 49 34 bd 46 13 9f 3a 03 84 ad bd a7 71 92 3d
       -0.044015523 0.0012136481 -0.08472445 0.07150584
000060 02 39 a6 bd 1b 67 c1 bd 53 84 0e 3d 95 72 2a be
       -0.08116342 -0.09443494 0.034794163 -0.16645272
000070 ba 8d 93 be 9f 7e 43 3d 45 90 21 be 2a 95 60 bd
       -0.28819066 0.047728177 -0.1577769 -0.054829754
000080 c6 5c dd bb 19 fe 5c be 4c 6f e0 bd 07 05 a8 bd
       -0.006755444 -0.21581306 -0.10958728 -0.08204084
000090 45 3c 90 3d 9b 21 c2 bc 1f 49 fb 3d e4 66 03 3e
       0.070427455 -0.023697665 0.12269806 0.12832218
0000a0 1d 38 3d bd e5 27 b3 3c 46 92 3d 3d 11 b3 59 bd
       -0.046196092 0.02186961 0.046282075 -0.053149287
0000b0 9c 1b 96 bd 4c a2 87 3d 1a 26 e5 be e8 a2 a7 3c
       -0.07329485 0.066227525 -0.44755632 0.020463422
0000c0 30 dc 70 3d 4e e1 9a 3d 62 9b 1b be 80 11 05 be
       0.058803737 0.07562505 -0.15195993 -0.12994957
0000d0 86 a6 60 be e3 9e 52 be 78 da 80 be fb 88 97 be
       -0.21938524 -0.20568423 -0.25166678 -0.29596695
0000e0 1b 03 cb bc 9f 97 87 be a2 73 15 be 85 be 8a 3c
       -0.024781754 -0.26482865 -0.14594892 0.01693655
0000f0 f8 8e 4a 3d 45 4a bb ba 87 ce 42 bc 77 6d 71 3c
       0.049452752 -0.0014289102 -0.01189006 0.014735571
000100 5c 0d a3 bd 1d db 53 bc b7 fe 06 bd 81 fd 35 bd
       -0.079615325 -0.012930659 -0.03295776 -0.044431213
000110 de 3b a7 3c a8 fb de 3d be 11 62 be 80 b5 09 3e
       0.02041429 0.10887843 -0.2207708 0.13448143
000120 03 b0 80 3c bb 96 70 bd 8f 9d 95 3d 1e da 44 bd
       0.015708929 -0.058737498 0.073054425 -0.048059575
000130 77 68 62 be 0a ba fa 3d e3 a0 9e 3e 2d b4 ad 3d
       -0.22110163 0.122425154 0.30982122 0.084816314
000140 b2 3c 98 bd 92 d1 62 3d b7 e1 4d 3e 05 45 23 be
       -0.07433452 0.055375643 0.20105635 -0.15944298
000150 8d da c8 bd 68 70 db 3c 61 52 2b 3e 84 86 18 3e
       -0.0980731 0.026786998 0.16730644 0.14895064
000160 a3 32 82 3e 8a 9e a0 3c a7 d6 1d 3b f6 66 44 bc
       0.25429258 0.019606847 0.0024084242 -0.011987438
000170 c1 af ce bd e5 0a 89 3d 5e 98 09 3d 74 6f f0 3d
       -0.10092116 0.06691531 0.033592574 0.11740008
000180 03 bb aa 3d 3d 03 0f 3e 6d 6d 91 bd 5f 8b 98 3d
       0.08336451 0.13966079 -0.071009494 0.07448458
000190 a5 2e 34 3d ac 02 87 bd bb 7c a0 bc 1d a4 c6 3b
       0.043989796 -0.065923065 -0.019590726 0.0060620443
0001a0 23 bc 96 bc 65 38 04 3e c5 fc 3b be e4 fd 32 3e
       -0.018400257 0.12912138 -0.18358143 0.17479664
0001b0 8c ff be bd e5 61 2d 3e ab 3c 08 3e 34 03 8b 3d
       -0.093260854 0.16931875 0.13304393 0.0678772
0001c0 2c 97 6f 3d 0b fd d1 3d 2c c6 88 3d fc 12 31 bd
       0.058493778 0.10253342 0.06678423 -0.043230996
0001d0 6e d8 2e be 75 00 ea be b7 f1 55 3d d2 c1 01 3e
       -0.17074749 -0.45703474 0.05223247 0.12671593
0001e0 7e 86 89 bc f0 89 20 3e e5 de 27 be 2a 18 8d 3d
       -0.016787764 0.15677619 -0.16393621 0.068893746
0001f0 10 9a 2e 3b 06 ad 21 be 28 d3 1c 3e 46 c5 13 3d
       0.0026642121 -0.1578866 0.15314925 0.036076806
000200 d7 6a 01 bd 5b 53 49 bd 3d 8e cf bd 6f 68 2b 3d
       -0.03159603 -0.04915176 -0.10134552 0.041847643
000210 f0 11 a9 bc ed b7 4c bc 09 05 ce bb 12 eb a2 3d
       -0.020638436 -0.012495023 -0.0062872213 0.07954992
000220 1c 9b 61 bd e3 82 66 bc 17 9f 01 bb a2 86 b0 bd
       -0.055079564 -0.014069292 -0.0019778663 -0.08619429
000230 46 a6 2e 3d 30 8b 94 3c 56 55 4d 3d 72 8e a3 bd
       0.04263904 0.018132776 0.05013021 -0.07986154
000240 9b 99 d9 3c 0d 4c d6 bd 22 61 4f 3d 11 ee c5 bc
       0.026562503 -0.10463724 0.050629742 -0.02416137
000250 bd b5 04 bd 27 18 c9 bd b5 6b 47 3d 1d dd 40 3c
       -0.03239988 -0.0981906 0.0486867 0.0117714675
000260 da 80 c9 b8 19 89 cf bd 2a 06 46 bd 16 b0 49 bd
       -9.608427e-05 -0.10133571 -0.048345722 -0.049240194
000270 11 67 e3 bd 86 f2 a5 bd f1 5f a8 3b bf b2 8a 3d
       -0.11103643 -0.08102898 0.00513839 0.06772374
000280 c7 91 08 bd 27 99 7e bd fd 9e b2 3d 01 bc 9b bb
       -0.03334215 -0.062157776 0.08721731 -0.0047526364
000290 8c 75 78 bd 5f 10 a7 3c 00 c6 b2 bd d9 e4 11 bd
       -0.060658976 0.020393549 -0.08729172 -0.035618637
0002a0 d3 79 9b 3d 95 6c 57 bd dc d7 a1 3c 82 fb 0b 3d
       0.075915955 -0.052593786 0.01975625 0.034175403
0002b0 9a 62 8a bd a4 58 1a 3c 3a 6e ba bd 83 31 b0 3d
       -0.06757088 0.009420548 -0.09103055 0.086031936
0002c0 33 46 80 bd 2e 41 1d bb 3a ba ae bc 99 e1 34 3c
       -0.062633894 -0.002399515 -0.021329034 0.011040115
0002d0 bf e9 49 3d 6d 11 99 bd 00 19 92 bb 90 29 b6 bd
       0.049295183 -0.07474027 -0.0044585466 -0.08894646
0002e0 fd 83 97 3a 08 58 e5 bd 20 bd 06 3d 76 fe 91 3d
       0.0011559721 -0.11198431 0.032895207 0.07128613
0002f0 7d 17 88 3d 6f 8e 21 3d 5a 26 4e 3d 00 31 a0 bd
       0.06645105 0.039442476 0.050329544 -0.07821846
000300 7d 6e 02 bd 6d 13 12 bc ec 62 04 ba cf 60 83 3d
       -0.03184365 -0.008915764 -0.0005050141 0.06414949
000310 b4 66 10 bd ec 8f 83 bd 19 47 a1 3c 90 10 a8 bd
       -0.035254195 -0.06423935 0.019687222 -0.08206284
000320 d0 60 eb bd 15 53 9e bd 6c b1 a3 bd b5 92 2f bd
       -0.11493075 -0.077306904 -0.07992825 -0.04286452
000330 84 dd 86 3d 70 74 c4 3c a7 fd 9e bd c8 ae 35 3d
       0.065852195 0.023981303 -0.07763224 0.044356138
000340 ed 65 b9 bd b5 42 07 3d 29 3e b4 3c 54 25 80 3d
       -0.09052644 0.0330226 0.022002297 0.0625712
000350 85 01 3e bc f5 cd 2a 3d 1a 02 bc 3c 83 fb a1 bd
       -0.011597042 0.041700322 0.02295022 -0.079093
000360 de 7f e6 bd 2d 7c 33 bd e4 46 52 3c d2 ba 15 3d
       -0.112548575 -0.043819595 0.012834284 0.03655512
000370 29 a0 b5 ba 14 1c ae bc 20 55 e6 3c 01 f8 18 bd
       -0.0013856936 -0.021253623 0.028116763 -0.03734589
000380 63 d5 0c bd 5f c9 24 bd e0 f7 93 3a 8a 45 46 3d
       -0.03438319 -0.040231105 0.0011289082 0.04840616
000390 32 7a d7 3b a9 7e 70 3d 51 cf 13 3d 76 9f 92 3c
       0.006575846 0.058714543 0.036086384 0.017898303
0003a0 a9 c1 c3 bc 11 72 65 bd 2d 14 25 bd 77 64 28 3d
       -0.023896055 -0.056016985 -0.040302444 0.041111436
0003b0 8d c9 9f bd e7 74 c5 3c 2c bd 70 bc 3e ee c7 bb
       -0.07802115 0.024103595 -0.01469354 -0.0061013987
0003c0 80 77 13 3d 98 da 9e bc 27 57 86 bd 58 4c 8b bd
       0.036002636 -0.019391343 -0.06559592 -0.06801671
0003d0 37 81 6b 3d 6e f5 e3 3c f6 78 b9 bc fc 49 ab bd
       0.057496276 0.027826991 -0.022640686 -0.08363721
0003e0 86 98 09 3c d5 48 cc bd 52 16 2a bd b2 fc 4d 3d
       0.008398181 -0.09974829 -0.041525193 0.050289817
0003f0 d3 8b 10 bc dd 11 01 bc ba db 8c 3c ff a2 86 3d
       -0.008822399 -0.007877794 0.017194618 0.06574058

conv1.nn.2.bias f4 [128]
000000 66 e1 13 be e0 ea c8 bd 2d 83 02 ba 97 dc d0 bc
       -0.14441451 -0.09810424 -0.0004978653 -0.02549581
000010 06 a0 75 3d f3 02 45 bd b6 a8 8e 3d 67 46 53 3c
       0.059967063 -0.048098516 0.06965773 0.012895203
000020 ee 25 86 3d 77 96 22 3e 08 bf da 3d 23 11 81 3a
       0.06550203 0.1587771 0.106809676 0.0009847026
000030 b2 ef 95 3d ba c6 6d 3d f8 ad 79 3d d3 cc 6a bd
       0.07321109 0.05805085 0.060956925 -0.05732424
000040 b1 e3 e3 3d c1 5e ce 3c 19 90 cd bd 32 d1 d2 3d
       0.11127413 0.025191667 -0.1003725 0.10293807
000050 21 e1 a1 bd f0 0b 99 bd ca 79 34 3d 17 90 53 3c
       -0.07904268 -0.0747298 0.04406146 0.012912772
000060 d5 50 75 3c d4 5d 91 bd c9 0d 33 3d 49 f5 f9 3d
       0.014972885 -0.070979744 0.04371432 0.122049876
000070 a2 35 51 bd a3 f9 59 3c 2d 34 b4 bc b8 ee 27 bd
       -0.05107654 0.013304147 -0.021997536 -0.040999144
000080 19 40 89 bd a8 7b ae bd 13 93 a1 bd 60 4e d3 3c
       -0.06701679 -0.08519679 -0.0788938 0.025794208
000090 ba 37 51 3d ba 85 46 3d 7c a3 b4 3d 89 79 6c 3d
       0.051078536 0.048467375 0.08820245 0.057733092
0000a0 5a 58 00 3e 56 86 a1 3c 42 ab 68 3d f8 02 c8 bd
       0.12533703 0.019717377 0.05680395 -0.09766191
0000b0 b2 af 5d 3d c2 6f df bd 2b 22 a5 bd 8d cc e7 3a
       0.054122634 -0.10909988 -0.08063158 0.0017684862
0000c0 da af d6 3c 06 d7 20 3e de 34 8c bd c9 1d e8 3d
       0.0262069 0.15707025 -0.06846021 0.11333806
0000d0 6e a5 0b 3e eb 07 b4 be 5e 20 95 3c ef 55 7d bd
       0.13637325 -0.3516229 0.01820391 -0.06184953
0000e0 3d 3a 94 3d fd bb 19 bc 8b ff 76 3c 5c c1 af 3c
       0.072376706 -0.009383199 0.015075575 0.021454506
0000f0 8e 73 9c 3c 12 3d b2 bd 28 b5 cf bc e6 be 27 bc
       0.01909807 -0.087030545 -0.025354937 -0.010238385
000100 34 67 89 bd 16 62 01 bd 41 59 9d bd ce 99 82 bd
       -0.067091376 -0.031587683 -0.076830395 -0.06376992
000110 a7 f1 f5 3c 6e 04 11 bd 9b fe f9 3c d5 8a 2b bd
       0.030022455 -0.035404615 0.030516913 -0.041880447
000120 e1 6a a3 bd fc c7 0e bd c4 57 ea bd 3e f4 56 bd
       -0.0797937 -0.03485869 -0.11442521 -0.05247902
000130 e3 e7 1e 3d 29 d3 a7 be 93 23 9d bd 0b 46 92 bd
       0.038795363 -0.3277829 -0.07672801 -0.07142266
000140 e3 6f be 3c 77 e7 b1 bd 3f 52 c5 3d cb 3c c8 bc
       0.023246711 -0.086867265 0.09634828 -0.02444305
000150 3d 49 2d bc e5 47 f6 bd f3 e9 e4 3b 0b ae 7d 3d
       -0.010576543 -0.120254315 0.0069858967 0.06193356
000160 2d a7 08 3e 58 8c 0c 3d 3c b4 8e 3d 50 10 97 bc
       0.13345022 0.03431353 0.06967971 -0.018440396
000170 9f 2b fb bd f9 55 9c bd 38 be 85 3c b1 6e 3c bc
       -0.122641794 -0.076335855 0.016326055 -0.011501
000180 6c da bb 3c 15 bd 1a bd 51 c3 07 be 00 fb 06 3c
       0.0229313 -0.03777798 -0.13258101 0.008238554
000190 f4 ea 39 be a6 f3 90 3d ca 53 91 bd 44 0a 09 3e
       -0.18156034 0.07077722 -0.070960596 0.13382822
0001a0 ee 72 9f 3d 99 c9 80 3d 23 1e c7 bd 88 68 98 3d
       0.07785593 0.06288452 -0.09722545 0.07441813
0001b0 40 cf 9b 3c bd 8f 58 3d 37 a4 c4 3d c1 2b ed bd
       0.019019723 0.052871455 0.09601634 -0.11580611
0001c0 a2 d7 a1 bb 2b 60 9c bc 44 90 9c bd 13 b3 0d 3e
       -0.0049390355 -0.019088825 -0.07644704 0.13837843
0001d0 91 a3 ad bc 17 fe 93 3d fd ac 4a bd f7 74 66 bd
       -0.021196159 0.07226198 -0.04948138 -0.05626389
0001e0 10 c5 93 bd 7b d6 b3 bd 23 7b 13 bd ac 3c 6c bd
       -0.07215321 -0.08781143 -0.036006104 -0.05767505
0001f0 0a d4 f2 bc 50 f9 7e bc 9b e4 c8 bd dc 48 2f bc
       -0.029642124 -0.01556237 -0.09809228 -0.010698523

conv1.nn.4.weight f4 [128]
000000 52 3a 7f 3f 18 e3 78 3f 72 74 79 3f 0f 0c 73 3f
       0.99698365 0.9722152 0.97443306 0.94940275
000010 59 2d 83 3f ef c3 81 3f 00 00 80 3f 68 a5 81 3f
       1.0248214 1.0137919 1.0 1.0128603
000020 24 7b 7c 3f 18 56 93 3f 11 17 70 3f e2 97 7e 3f
       0.986254 1.1510649 0.93785197 0.99450505
000030 96 ee 8a 3f 34 39 78 3f 0c fd 95 3f f1 b6 84 3f
       1.0854061 0.96962285 1.1717849 1.0368329
000040 b1 68 88 3f ef 5c 77 3f 22 50 78 3f c1 e5 8d 3f
       1.0656949 0.9662618 0.9699727 1.108574
000050 0b 30 66 3f bd fb 6f 3f 70 60 8e 3f 47 1b 98 3f
       0.8991706 0.937435 1.112318 1.1883324
000060 03 5c 8b 3f 60 7e 80 3f 73 d2 8b 3f 07 1b 8e 3f
       1.0887455 1.0038567 1.0923599 1.1101998
000070 3c bd 75 3f 70 eb 92 3f c8 97 86 3f cf eb 6f 3f
       0.95991874 1.14781 1.051507 0.9371919
000080 00 00 80 3f 6d 77 70 3f ec d7 83 3f 14 b6 9a 3f
       1.0 0.9393223 1.0300269 1.2086816
000090 00 00 80 3f 75 c7 7d 3f fe 87 8f 3f 59 e3 8a 3f
       1.0 0.9913247 1.1213377 1.0850631
0000a0 10 8d 60 3f ac 55 7e 3f 5f ce 70 3f 23 50 78 3f
       0.87715244 0.99349475 0.940649 0.9699728
0000b0 59 27 76 3f 98 bc 83 3f 02 51 78 3f 9e bc 79 3f
       0.9615379 1.0291929 0.9699861 0.9755343
0000c0 00 00 80 3f 0e f8 52 3f 00 00 80 3f b9 30 87 3f
       1.0 0.8240975 1.0 1.0561744
0000d0 a2 89 a2 3f 36 8b 8c 3f 0a 68 96 3f 00 00 80 3f
       1.2698252 1.0979984 1.17505 1.0
0000e0 17 b8 5b 3f 39 d2 7c 3f 41 49 86 3f 01 36 88 3f
       0.85827774 0.98758274 1.0491105 1.0641481
0000f0 10 f5 78 3f 3e d0 7a 3f 44 2f 6b 3f 0a c2 81 3f
       0.97248936 0.97974 0.91868997 1.0137341
000100 cd 7b 7d 3f 0c e3 7e 3f d2 78 74 3f 00 00 80 3f
       0.9901703 0.99565196 0.9549686 1.0
000110 92 f1 8e 3f 79 42 80 3f a7 1e 67 3f 33 d2 8c 3f
       1.1167471 1.0020286 0.90281147 1.1001648
000120 1c ad 85 3f 37 6b 82 3f f5 42 79 3f 00 00 80 3f
       1.0443454 1.0188969 0.97367793 1.0
000130 79 2f 7c 3f b9 c4 6e 3f 56 a8 70 3f d5 5a 87 3f
       0.9850994 0.93268925 0.9400686 1.0574595
000140 e3 dc 80 3f 00 00 80 3f 2b 18 84 3f ab ab 55 3f
       1.0067409 1.0 1.0319875 0.8346507
000150 c6 34 5a 3f ca 78 5c 3f 58 e0 78 3f 85 be 8a 3f
       0.85236776 0.8612181 0.9721732 1.0839392
000160 0b ee 66 3f 2f be 86 3f d9 d8 80 3f 92 2f 6e 3f
       0.90206975 1.052679 1.0066177 0.93041337
000170 d6 4b 78 3f 00 00 80 3f 40 1e 71 3f 00 00 80 3f
       0.96990716 1.0 0.9418678 1.0
000180 1a 00 6b 3f 3f df 73 3f cb d8 78 3f f5 21 87 3f
       0.9179703 0.9526252 0.972058 1.0557238
000190 81 46 80 3f da df 81 3f a8 c6 8a 3f ec a0 88 3f
       1.0021516 1.0146439 1.0841875 1.067411
0001a0 6f 8e 6d 3f ca 68 7e 3f 5f 31 7b 3f 00 00 80 3f
       0.9279546 0.99378645 0.9812221 1.0
0001b0 06 f7 93 3f bf 3e 75 3f 5d 36 85 3f b2 0f 78 3f
       1.155976 0.9579887 1.0407215 0.9689895
0001c0 e9 27 78 3f 61 50 78 3f 00 00 80 3f 0f c5 82 3f
       0.969359 0.9699765 1.0 1.0216388
0001d0 54 28 88 3f 0f 61 83 3f 00 00 80 3f 67 e2 8e 3f
       1.0637307 1.0263995 1.0 1.1162843
0001e0 42 94 89 3f 8f d9 80 3f 67 85 82 3f 81 ef 84 3f
       1.074837 1.0066394 1.0196961 1.0385591
0001f0 80 96 6e 3f fb 43 7e 3f 4b 97 81 3f 6f d2 83 3f
       0.93198395 0.9932248 1.0124296 1.0298594

conv1.nn.4.bias f4 [128]
000000 13 77 0d bd df af 34 bc 05 2d d4 bd 9d 22 1b bd
       -0.034537386 -0.011028259 -0.10360149 -0.037874807
000010 3a e8 56 bd 2a 0a 87 3d 2f 3e 9c bc c2 f4 64 3c
       -0.052467562 0.065937355 -0.01907262 0.01397437
000020 1e ee d9 bd 00 81 83 3d 51 89 91 bd 26 96 04 bd
       -0.106411204 0.06421089 -0.07106269 -0.032369755
000030 b5 2b 9e bd 1f 18 08 bd 59 55 ce bd 40 ad 4e bb
       -0.0772318 -0.03322613 -0.100748725 -0.003153637
000040 de 95 96 bc 74 d5 19 bc 7f 49 b1 bc 6e 9e 65 3d
       -0.01838201 -0.00938927 -0.021641491 0.056059293
000050 1d 54 a7 3d 64 28 e0 3c ea 27 45 bd 85 d9 8f ba
       0.0817034 0.02736301 -0.04813377 -0.001097486
000060 6a d2 3b bd 76 d8 3e bd c9 39 2c bd a2 bf 9b bc
       -0.045854963 -0.046593152 -0.042047296 -0.019012276
000070 0c b0 1a bd da 1a ca bc d2 c1 cc 3d fc 8d 6d bc
       -0.037765548 -0.024671007 0.09997906 -0.014499184
000080 54 8c 31 3c 31 76 3b be 2d 73 27 bd 7a 68 3d bd
       0.0108366795 -0.18306805 -0.040881325 -0.046242215
000090 a9 3a e5 3b b1 b5 8c bd 1a 59 a6 bd 72 be 52 3c
       0.006995518 -0.068705924 -0.081224635 0.0128627885
0000a0 fc 24 87 bd 05 65 b9 3c 19 fb 52 bb 1f aa a4 3c
       -0.06598851 0.022631178 -0.0032193123 0.020100651
0000b0 1a 8a 47 3c 7f 1e 03 bd 77 a8 d5 bc fc fd a2 3b
       0.012178922 -0.032011505 -0.026081307 0.004974125
0000c0 d8 44 bf bc f0 da e8 bc 84 55 bf 3b e5 10 e4 bd
       -0.023348257 -0.02842471 0.0058390517 -0.11136035
0000d0 7b bb 44 bd b6 11 bc bc a9 50 46 39 55 64 99 bc
       -0.048030358 -0.022957664 0.000189128 -0.0187246
0000e0 4b e4 70 bb cb 25 94 bc 97 30 10 bc df fc 86 bd
       -0.0036757167 -0.018084427 -0.008800647 -0.065912
0000f0 19 01 82 3d 7a 23 0d bd ca ea d9 bc be 31 c9 bc
       0.063478656 -0.03445766 -0.026601214 -0.024559852
000100 74 74 ef 3a 60 40 9e bd f9 1d 58 3d 4e 4a 8c 3b
       0.0018268959 -0.07727122 0.05276296 0.0042813187
000110 e8 cd 9b bb 66 fd 8a bd 17 f0 ae 3d d2 1b 5c 3e
       -0.0047547705 -0.06786613 0.08541887 0.21494988
000120 7e bf d5 b9 46 e3 a1 bd 59 68 6d bc db 24 ed 3c
       -0.000407692 -0.07904677 -0.01449021 0.028948238
000130 e4 f6 09 3d 05 73 ba bc 52 cf 31 3b fa 7f a5 bd
       0.03368272 -0.022759924 0.002713163 -0.0808105
000140 b8 5e 8b 3c a4 1a aa 3c 35 95 eb 3c a2 68 09 bd
       0.017012939 0.020764656 0.02875767 -0.03354705
000150 8f 8a 17 be bf 3a 98 bb 31 fe c9 bd c5 18 9c bd
       -0.1479895 -0.004645675 -0.09862936 -0.07621912
000160 74 57 ab bd 83 61 cc bd a2 74 5d 3d 69 84 cf 3c
       -0.0836629 -0.099795364 0.054066308 0.025331693
000170 87 1d 16 3d e1 90 f8 3a f3 08 0b 3d 46 1b 0f 3c
       0.036649253 0.0018964076 0.03394408 0.00873453
000180 15 62 65 3d fc 41 3c be 47 ab 6c bd 1c 66 74 3d
       0.05600174 -0.18384546 -0.05778053 0.05966769
000190 6e 31 15 3c 4f fe 77 3c dc 6f a5 bb 7a f6 04 bd
       0.009106023 0.0151363155 -0.005048735 -0.03246162
0001a0 24 23 d1 bd a5 fe bd 3c ef 96 54 bd 94 b9 04 3a
       -0.10211781 0.023192713 -0.051901754 0.00050630537
0001b0 68 5c e7 3b 7e 0e 3b be 76 86 d6 bd 9c fe 09 3c
       0.007060576 -0.18267247 -0.10474865 0.00842252
0001c0 b4 56 12 3c ab 30 93 bc fc 80 a1 bc 48 9f c8 bc
       0.008931804 -0.017967543 -0.019714825 -0.024490014
0001d0 56 64 92 bd c2 75 68 bb af ea 9f bc 65 de f8 3c
       -0.07148044 -0.003547058 -0.019521086 0.030379483
0001e0 0e d5 9d bd 2f 83 81 bc fe b4 70 3d ee d2 e9 bc
       -0.077066526 -0.015809624 0.058766358 -0.028542962
0001f0 24 98 15 be e8 fd d7 3d f4 ab 31 bd cf 2c 1b bd
       -0.14608818 0.10546476 -0.043376878 -0.03788453

conv1.nn.4.running_mean f4 [128]
000000 56 e3 24 40 73 19 58 02 92 5e 4c 40 59 45 9a 0b
       2.5763755 1.5876477e-37 3.193272 5.9422985e-32
000010 68 52 70 40 34 89 48 0d 00 00 00 00 f3 60 0a 09
       3.7550297 6.179491e-31 0.0 1.6656731e-33
000020 62 b0 1b 40 64 f3 61 3e 58 6b 54 40 23 db df 08
       2.4326406 0.22065502 3.3190517 1.3472843e-33
000030 2c ce 24 40 e3 10 00 40 fc 20 67 40 38 24 f5 0c
       2.5750837 2.0010307 3.6113882 3.7770025e-31
000040 8e 6a 55 40 5d b7 00 0a 6e a8 2e 05 ef b2 1c 40
       3.3346286 6.1974626e-33 8.212376e-36 2.4484212
000050 c1 d0 8f 15 bd e6 be 09 ef e0 48 40 87 b5 17 40
       5.8086596e-26 4.595782e-33 3.1387289 2.3704545
000060 9f 9c 36 40 4f 89 24 10 95 a6 43 40 13 b7 13 40
       2.8533094 3.2449076e-29 3.0570424 2.308049
000070 ac f6 95 0a 8b f2 4a 40 3b 46 01 40 33 39 83 1b
       1.4440966e-32 3.1710536 2.0199115 2.1709096e-22
000080 00 00 00 00 c6 48 db 3f b9 99 3d 07 bc 07 59 40
       0.0 1.7131584 1.4263955e-34 3.391097
000090 00 00 00 00 a0 93 36 40 0b 9a 69 40 1c d6 f9 3f
       0.0 2.8527603 3.650027 1.9518466
0000a0 3f 25 39 40 08 76 43 40 2d 03 45 40 8b 36 04 07
       2.8928983 3.054079 3.0783188 9.946605e-35
0000b0 e6 12 b2 06 6c ca ae 09 e2 5f 06 02 c1 89 52 40
       6.6983927e-35 4.2079333e-33 9.872282e-38 3.2896578
0000c0 00 00 00 00 24 25 12 40 00 00 00 00 02 89 cf 3f
       0.0 2.283517 0.0 1.6213686
0000d0 f7 65 32 40 67 27 05 40 7e 80 4d 40 00 00 00 00
       2.7874734 2.08053 3.2109675 0.0
0000e0 cf ed 03 40 26 9d cc 07 a2 da 50 40 0a bb 85 3f
       2.0613897 3.0786872e-34 3.2633443 1.0447705
0000f0 ba f2 30 29 6a a0 7b 07 ed ac 48 40 c5 c1 8d 0b
       3.9290382e-14 1.8930283e-34 3.1355546 5.4602776e-32
000100 b5 c4 77 09 31 06 4b 40 38 d6 58 08 00 00 00 00
       2.9824035e-33 3.172253 6.525195e-34 0.0
000110 03 41 50 40 a0 79 3f 40 f4 40 11 17 64 17 f1 26
       3.253968 2.9917984 4.693401e-25 1.6729074e-15
000120 d7 ba 34 40 ad f4 1c 40 e5 95 c1 04 00 00 00 00
       2.8239038 2.4524338 4.551174e-36 0.0
000130 9a d3 a3 0a d8 09 1c 40 1a d0 85 09 ea d9 52 40
       1.5775925e-32 2.4381008 3.2214283e-33 3.2945504
000140 c4 ee 65 0c 00 00 00 00 dc 66 0f 40 9b 57 45 40
       1.7713369e-31 0.0 2.240653 3.083472
000150 d0 3f e8 3f a8 6f 3c 15 f9 7e 4c 40 3d 91 3d 40
       1.8144474 3.805438e-26 3.1952498 2.9619896
000160 8e 21 38 40 53 43 76 3f a1 a7 f5 3f cc 2f 30 3e
       2.877048 0.9619648 1.9191781 0.17205733
000170 bb 43 00 06 00 00 00 00 f6 22 ac 11 00 00 00 00
       2.4123885e-35 0.0 2.7158361e-28 0.0
000180 63 9a d0 3f 55 42 26 40 88 5f d2 13 0a c5 1b 3d
       1.6297115 2.5977986 5.3105654e-27 0.038029708
000190 48 10 32 16 5e 55 db 3f 6a 88 2a 40 97 a9 23 40
       1.4383863e-25 1.7135427 2.664576 2.557226
0001a0 cf 27 19 40 d9 25 08 3e d3 57 ef 3f 00 00 00 00
       2.3930547 0.13295688 1.8698677 0.0
0001b0 66 ed 56 40 44 e9 2b 40 d8 ea 68 40 79 f0 2e 07
       3.3582397 2.6861124 3.6393337 1.3160974e-34
0001c0 aa 14 5e 0a 12 3e 7c 03 00 00 00 00 97 93 90 3f
       1.0692798e-32 7.4127397e-37 0.0 1.1295041
0001d0 bc 42 80 3f 03 13 a9 3f 00 00 00 00 c5 1b 82 3f
       1.0020366 1.3208927 0.0 1.0164725
0001e0 09 1a 65 11 6f ab 95 13 b3 57 4f 0a fe d6 3f 40
       1.8072937e-28 3.7781935e-27 9.983182e-33 2.997497
0001f0 15 25 05 40 f7 9a 92 36 75 46 72 1c 22 67 13 40
       2.0803883 4.3691794e-06 8.0162147e-22 2.3031697

conv1.nn.4.running_var f4 [128]
000000 5d 4a c6 3f e0 c8 17 0c c2 a4 6a 3f 82 bc 29 0c
       1.5491444 1.1693065e-31 0.9165765 1.3076013e-31
000010 23 8b a4 3f 0d 63 ac 0c e0 c8 17 0c 9c e1 17 0c
       1.2854961 2.656041e-31 1.1693065e-31 1.1700509e-31
000020 3e 25 be 3e 7b 64 06 3e 0a 68 b1 3f 7f da 17 0c
       0.3713779 0.13124268 1.3859875 1.1698368e-31
000030 0d 59 24 3f 56 01 33 3f 69 68 87 3f 9b 78 4b 0c
       0.6419838 0.69923913 1.0578738 1.5674845e-31
000040 00 0c b6 3f 02 8c 18 0c 03 c9 17 0c 86 d9 35 3f
       1.4222412 1.1751786e-31 1.1693107e-31 0.7103504
000050 2d b4 42 14 e5 34 18 0c 43 92 60 3f 47 59 22 3f
       9.8300304e-27 1.1725571e-31 0.8772318 0.63417476
000060 29 8e 36 3f b7 12 f3 0e cf f4 66 3f 47 c1 85 3f
       0.7131067 5.9922147e-30 0.902173 1.0449609
000070 88 b6 18 0c a0 2a 9a 3f d1 53 94 3f a6 6d 2c 1a
       1.1764583e-31 1.2044258 1.1588079 3.565734e-23
000080 e0 c8 17 0c 41 b7 69 3f a7 cb 17 0c df 9f 87 3f
       1.1693065e-31 0.9129525 1.1693901e-31 1.0595664
000090 e0 c8 17 0c d3 63 68 3f 90 a5 6a 3f 5a 7c a5 3e
       1.1693065e-31 0.9077732 0.9165888 0.32321435
0000a0 50 bd 88 3f 5f 4f a0 3f e0 41 99 3f 0f ca 17 0c
       1.0682774 1.2524222 1.1973228 1.1693422e-31
0000b0 90 c9 17 0c 4d 26 18 0c e0 c8 17 0c c6 cd 8b 3f
       1.1693272e-31 1.172118e-31 1.1693065e-31 1.0922172
0000c0 e0 c8 17 0c 74 a8 ad 3e e0 c8 17 0c 21 f8 54 3e
       1.1693065e-31 0.33917582 1.1693065e-31 0.20797779
0000d0 09 70 3c 3f 65 fb 64 3f 9e 9d a1 3f e0 c8 17 0c
       0.7360845 0.894461 1.2626226 1.1693065e-31
0000e0 81 79 0e 3f c3 ca 17 0c d2 82 b9 3f 0a 3c b6 3e
       0.5565415 1.1693633e-31 1.4493048 0.3559268
0000f0 e4 98 dd 27 cd ce 17 0c 1e 8f b6 3f bf 68 1d 0c
       6.1505586e-15 1.1694849e-31 1.4262426 1.2126361e-31
000100 f4 1f 18 0c d0 10 bd 3f 1a da 17 0c e0 c8 17 0c
       1.171927e-31 1.4770756 1.169825e-31 1.1693065e-31
000110 7b f7 96 3f cd 8f 42 3f aa 7c 06 16 22 f9 bd 25
       1.1794275 0.7600067 1.0863771e-25 3.2955093e-16
000120 7e fa ce 3f e0 f1 c1 3f e0 c8 17 0c e0 c8 17 0c
       1.6170194 1.5151939 1.1693065e-31 1.1693065e-31
000130 e4 44 1a 0c bb 41 9a 3f 98 27 18 0c 01 6d 6f 3f
       1.188446e-31 1.2051309 1.1721569e-31 0.935257
000140 96 24 2e 0c e0 c8 17 0c 25 aa 06 3f a0 a8 83 3f
       1.3415482e-31 1.1693065e-31 0.5260337 1.0285835
000150 fb ec bf 3e ad 54 da 13 50 39 83 3f 72 79 0b 3f
       0.3748549 5.5114434e-27 1.0251865 0.54482186
000160 f1 7a bf 3f dc 4b a7 3e 8c 14 cc 3e 69 96 03 3e
       1.4959394 0.32675064 0.39859426 0.12850346
000170 0a c9 17 0c e0 c8 17 0c ca b4 a4 0f e0 c8 17 0c
       1.1693115e-31 1.1693065e-31 1.6241286e-29 1.1693065e-31
000180 c0 33 78 3f d4 3b 25 3f f7 5a 31 12 77 d6 f1 3b
       0.96953964 0.64544415 5.5963475e-28 0.0073803025
000190 7e 7b a4 14 b0 86 c1 3e 32 de 51 3f 8f af 60 3f
       1.6608477e-26 0.3779807 0.8197967 0.8776788
0001a0 d3 4d d2 3e 2c 1f b0 3d bb 3c 72 3f e0 c8 17 0c
       0.41075 0.085996956 0.9462392 1.1693065e-31
0001b0 7b 79 d8 3f 06 b2 0b 3f 87 2d b1 3f e8 c9 17 0c
       1.6912073 0.5456852 1.3842019 1.1693376e-31
0001c0 09 e1 18 0c e0 c8 17 0c e0 c8 17 0c b4 34 a2 3e
       1.1777373e-31 1.1693065e-31 1.1693065e-31 0.31680834
0001d0 41 dc 9f 3e 0b 78 8e 3e e0 c8 17 0c 9f ee 7b 3e
       0.31222728 0.2782596 1.1693065e-31 0.24602745
0001e0 a2 41 85 10 1f 9f d0 11 12 73 18 0c c2 26 a3 3f
       5.2560374e-29 3.291468e-28 1.1744282e-31 1.2746203
0001f0 bc 09 db 3e 2d f1 8d 35 be a0 a3 1b 57 bb cb 3e
       0.42780864 1.057551e-06 2.7069965e-22 0.39791366

convs.0.nn.0.weight f4 [128, 128]
000000 df 94 ac 3d 5b 83 c8 3d 62 3d 12 3e 61 bc 5d 3d
       0.084268324 0.09790679 0.14281228 0.05413473
000010 7e c9 22 3e eb e3 81 3c 75 ec fa bd 29 79 4f 3d
       0.15897176 0.01585575 -0.12252132 0.050652657
000020 ae fb 19 bb 77 33 0c be 06 06 0d 3d d1 76 5d 3c
       -0.002349596 -0.13691507 0.034429573 0.013517098
000030 27 3b 3a 3e 09 b8 c8 3b e7 af bd 3d fd b5 11 bd
       0.18186627 0.0061254543 0.09262066 -0.03557395
000040 23 8b 23 3d 4b f3 7a 3d d5 ab 98 bc 94 0a 41 3e
       0.039927613 0.06126718 -0.018636623 0.18851691
000050 ce df b6 bc f9 75 51 3d 80 67 00 3e 09 65 53 3e
       -0.022323515 0.051137898 0.12539482 0.2064401
000060 bb e6 65 3e d4 24 b0 bb 83 91 1f 3e 82 b9 f7 3d
       0.22451298 -0.005375484 0.15582852 0.1209593
000070 50 19 67 bd 5a cf 5c 3e 8f bc cf 3d 9c f9 5c 3c
       -0.056420624 0.21563473 0.101433866 0.013487246
000080 68 5d 75 bc 59 af 34 bd db 8d 60 bc e3 ee 03 3e
       -0.014975883 -0.044112537 -0.013705696 0.12884097
000090 65 58 88 bc ca 04 0c 3d f6 eb 1a 3e 1e 7f 3b 3e
       -0.016643712 0.034184255 0.15129074 0.1831021
0000a0 4e f1 d1 3d d2 2f d7 3d 00 70 ce 3d 44 f1 c4 3c
       0.10251103 0.10507168 0.10079956 0.024040826
0000b0 2d 4a 28 3c f8 14 2e bd ec 0c 4d 3c 29 a4 5f 3e
       0.010271591 -0.042500466 0.012515288 0.21839966
0000c0 53 3b 0d 3e 4a 52 f7 3d 44 ce a6 3c c0 5a 52 bd
       0.13792162 0.12076242 0.020362027 -0.051356077
0000d0 5c bd 5b 3e 89 80 30 3d 2e 55 49 3e bf 55 44 3d
       0.21458954 0.04309133 0.196614 0.047933336
0000e0 60 2c 16 3d 62 69 95 3d 1e e9 97 3d 10 6a 01 3d
       0.036663413 0.07295491 0.074175104 0.03159529
0000f0 1b b4 48 bd c4 37 d7 3d 97 dc 9d 3d a7 26 83 bc
       -0.048999887 0.10508683 0.0770809 -0.016009642
000100 d5 1a 96 3d c6 85 2e 3d 76 18 ca 3d ab 5e cb 3d
       0.073293366 0.042608045 0.09867947 0.09930166
000110 3a 56 93 3d 1a 43 5b 3e 5f 47 89 bc 9e 6b 3c 3e
       0.07194181 0.21412316 -0.016757665 0.18400428
000120 be 71 d6 3d 8f fb 06 3e 29 be a0 bd 70 86 00 3d
       0.10470913 0.131819 -0.0784877 0.03137821
000130 cf 2a ea 3d a1 93 85 3c 80 e1 9f bd 3f 84 81 3d
       0.11433946 0.016305747 -0.078066826 0.06324052
000140 39 bc e6 bd 83 d1 ab 3d 3b 5f 03 3e 6b 77 8e bc
       -0.112663694 0.083895706 0.12829296 -0.017390927
000150 f5 8e 25 3c 4d 22 95 bc 30 b6 93 bc b9 ef 1d 3d
       0.010104884 -0.018204832 -0.01803121 0.038558695
000160 bd 2f 11 3d 0c ee cd 3c 33 89 d2 3d 03 e4 1a be
       0.035445917 0.025137924 0.10280075 -0.15126042
000170 13 c8 43 bd 93 c1 9f 3c 20 ff fb bd 9b 8c b9 bd
       -0.047798228 0.019501483 -0.123045206 -0.090600215
000180 c8 02 52 3d 11 4d b7 bc 84 60 cf bd 49 24 93 bb
       0.051272184 -0.022375615 -0.10125831 -0.0044904095
000190 1f e5 31 bc a6 02 13 3d d4 68 44 3e fe 27 1a 3d
       -0.010857849 0.035891198 0.19180614 0.037635796
0001a0 38 e5 98 3d ea f4 22 be c6 42 10 3e b6 7d 8f 3d
       0.07465595 -0.1591374 0.14087972 0.07006399
0001b0 3b 90 a3 3d 59 23 6a 3d 8e bb 9c 3d 68 42 46 ba
       0.07986494 0.057162616 0.07652961 -0.0007562996
0001c0 68 ac 5c 3c 4c f3 d9 bb f6 30 b5 3d f0 11 fd 3d
       0.013468839 -0.0066513177 0.08847229 0.12356937
0001d0 63 51 24 bd 0b f5 ea 3d d0 64 43 3d 9b c2 20 3e
       -0.04011668 0.114725195 0.047703564 0.15699236
0001e0 39 34 b7 bd 5b 5b b3 bd 27 20 af 3d 0e 4b 08 3e
       -0.089455076 -0.08757659 0.085510544 0.13309881
0001f0 21 ef 8f 3d 3b 1e 0f 3b 76 9f 7a bd 2f 30 76 3d
       0.07028032 0.0021838087 -0.06118723 0.060104545
000200 d6 bb 79 bd e9 cc b9 3d 28 76 e1 bd 92 8e 1b 3c
       -0.06097015 0.09072287 -0.11008865 0.009494441
000210 8a 1a bd bc 61 c0 2a bd 9b 2f b4 bd 0a eb e4 3d
       -0.023083944 -0.041687373 -0.087981425 0.11177643
000220 bb e7 c5 3c 74 ea bd 3d b5 c9 a0 bd 79 d5 be 3d
       0.02415835 0.09273234 -0.078509726 0.093180604
000230 af bc 52 3d 95 4d c4 bd f1 b6 f9 bd 01 8e 85 3d
       0.051449474 -0.0958511 -0.121930964 0.06521226
000240 ad 5c 9d 3b 12 0a c7 3d 1a fa 7f bd 67 b4 86 3e
       0.0048023076 0.09718718 -0.062494375 0.2630951
000250 91 41 fd bc 00 d9 c2 3d 43 09 a3 3d ed 71 47 3d
       -0.030915054 0.09514046 0.07960751 0.048692632
000260 69 9b 5f 3d cc 75 29 bd 16 3c 3d be ac dc 0e 3d
       0.05459157 -0.041372105 -0.18479952 0.034878418
000270 ae 2d 37 bd 3d 4a b0 bd 6f b6 bb 3d ed 4b ce 3c
       -0.044721298 -0.0860791 0.09165656 0.025182689
000280 28 3e 26 3d b2 db 15 be 78 88 c2 3c 6c a0 26 bd
       0.04058662 -0.14634588 0.023746714 -0.040680334
000290 ef 02 e4 bd cb 99 c1 bd 9c da 37 be 95 75 59 3e
       -0.11133372 -0.09453162 -0.17954487 0.2123626
0002a0 4a d5 50 bd 74 3e 4b bd 66 b7 2e 3d 2d 5a 75 bd
       -0.05098466 -0.049620107 0.04265537 -0.05990045
0002b0 5c 24 86 3d 07 37 25 be a0 fe 0a be 49 bf 33 bd
       0.06549904 -0.16134273 -0.13573694 -0.043883596
0002c0 7b b6 76 3d 2a ac b2 3d 94 99 4f 3d bc 02 84 be
       0.06023262 0.08724244 0.050683573 -0.25783336
0002d0 3a 18 b8 3c 93 75 12 3d 3c 45 d0 3d 7b ff 90 bd
       0.02247249 0.03575666 0.101694554 -0.07079979
0002e0 46 50 1a be 02 ee c1 b9 d2 6c 36 bd d7 46 95 bc
       -0.15069684 -0.00036989158 -0.044537373 -0.018222256
0002f0 2b fd 9b bd 53 79 09 3d 71 c8 a1 3c 9b 58 80 bd
       -0.07616647 0.03356297 0.019748898 -0.062669
000300 70 27 6e 3d 10 cc 27 be 4e f9 f2 3d e1 70 dc bd
       0.05814308 -0.16386437 0.11863957 -0.107637174
000310 a6 7c 68 3d fc 64 b6 bd 42 38 03 3d 94 59 96 3e
       0.0567595 -0.0890598 0.032036074 0.29365218
000320 e6 e9 aa bc ba 3d 4b bd 7a 21 ae 3d 04 fb 10 bd
       -0.020863485 -0.049619414 0.08502479 -0.035395637
000330 e5 49 c3 3d 3b 9c 25 bd ad 34 a9 3b d3 5b 97 3c
       0.09535579 -0.040432196 0.00516375 0.018476402
000340 16 2f ac 3c bf e7 49 bd c7 21 13 3e 9e 9e 88 3c
       0.021018546 -0.049293276 0.14368354 0.016677197
000350 6a d7 d7 bd 04 89 50 3d a2 f8 80 be 47 eb ea bc
       -0.10539134 0.05091192 -0.25189692 -0.028676642
000360 0c e8 3c be 60 a4 ec bd 17 09 6c 3e 71 39 c1 bd
       -0.18447894 -0.115547895 0.23050343 -0.09434784
000370 8d e5 82 3d 74 02 1c be 04 94 9a 3d 9c fa a5 bd
       0.063914396 -0.15235311 0.07547763 -0.081044406
000380 b1 8a d3 bd eb ce 5e be 2a b1 65 3d c8 8a 25 3e
       -0.10329188 -0.2175862 0.05607716 0.16166222
000390 2a 8c 95 3c 09 4b 8a 3d af 77 1c 3d 8c 0e 43 be
       0.018255312 0.06752593 0.038200077 -0.19048518
0003a0 2a dd 15 be be 0c 4c be 48 a6 21 be 8c dd 47 3e
       -0.14635149 -0.19926736 -0.15786088 0.19518107
0003b0 ed 7a 58 bd cb 1e 0c be 3b 0a 69 be 1a 88 5b 3d
       -0.052851606 -0.13683622 -0.22757809 0.053596593
0003c0 20 bd 2c bc a4 ba 56 bd d5 1d e5 3b b2 55 10 3e
       -0.010543138 -0.052424088 0.0069920816 0.1409519
0003d0 da 22 06 be 68 3e 89 3e 3b 52 08 3e 54 5e 04 3d
       -0.13099232 0.26805425 0.13312618 0.03231652
0003e0 c4 0f 77 bc 52 4a bd bc 83 2f 9a 3c b6 2a 04 3d
       -0.015079442 -0.023106728 0.018821483 0.032267295
0003f0 1f cf 02 be 3f 69 df 3d f4 bc 78 3c f0 06 23 3e
       -0.12774323 0.10908746 0.015181769 0.15920615

convs.0.nn.0.bias f4 [128]
000000 d4 f3 31 3e 9f 80 4d 3e 43 24 a3 3e 91 44 57 3e
       0.1737817 0.20068596 0.31863603 0.2102225
000010 31 4f 41 3d c9 00 61 3e 32 b1 00 bd 7b 4f 71 bd
       0.047194663 0.21972956 -0.031418987 -0.05891369
000020 e4 f0 23 bd ef a5 ea 3d 5f 49 86 be ce b1 20 be
       -0.040024653 0.114574306 -0.26227853 -0.15692827
000030 4c 85 9d 3d 06 60 8f bd a1 53 e1 3d 90 dc 56 3d
       0.0769144 -0.07000737 0.11002279 0.05245644
000040 e0 f7 2f be fc 1c 31 3d e5 9e 1c be 61 e9 1c 3c
       -0.171844 0.043240532 -0.15294988 0.009577126
000050 43 dd d6 3c 4a a3 cb bd b5 07 21 be 18 67 2a 3d
       0.026228553 -0.09943254 -0.15725596 0.041602224
000060 23 89 4b 3c 80 a8 42 be 51 97 9d bd 0b c1 50 3d
       0.012422833 -0.1900959 -0.07694877 0.05096535
000070 12 a9 39 3e 39 fc 3d bd 12 d9 8a bd 71 5b 04 be
       0.18130901 -0.046383116 -0.06779684 -0.12925507
000080 de 11 69 3d cd 2c 3c 3d 4c ed 76 be d0 6a 92 3d
       0.056901805 0.045941163 -0.24113959 0.07149279
000090 bc 2b 04 be 9d bd ad 3b a0 35 66 be 65 3c 1b be
       -0.12907308 0.0053021447 -0.22481394 -0.15159757
0000a0 c8 52 14 3e 37 6e 9d bc ad 33 1c be 73 f5 85 bd
       0.14484704 -0.019217594 -0.15254088 -0.06540956
0000b0 f5 61 48 3e 9c da 86 be 10 21 ac 3c c7 ca 7b bd
       0.19568618 -0.2633866 0.02101186 -0.06147268
0000c0 70 00 f1 3d 5b 19 26 3d ee c7 5a 3e 8e 6a 1f be
       0.117676616 0.040551525 0.2136533 -0.15567991
0000d0 41 88 14 3e 16 65 0d be c1 a0 54 3d 73 a6 00 b8
       0.14505102 -0.13808092 0.05191112 -3.0672596e-05
0000e0 5a d1 02 be c3 6f 14 be c8 e6 61 ba 47 1a 15 3d
       -0.12775174 -0.14495759 -0.0008617458 0.036402013
0000f0 9c 32 57 3d 23 18 36 3d d3 c0 83 3b df 10 ff bd
       0.0525385 0.044456612 0.004020789 -0.1245439
000100 0f b2 1b be 6c ae 0f 3e 23 3d 1a be 56 1c 6e bd
       -0.15204643 0.1403138 -0.15062384 -0.058132492
000110 ae 13 52 bd 84 d2 ad 3c b6 95 97 bc 3b 61 27 bd
       -0.0512883 0.021218546 -0.018504005 -0.04086421
000120 06 77 15 3e b5 c3 25 be 55 9c 6c 3e a4 22 28 3c
       0.14596185 -0.16187938 0.23106511 0.010262165
000130 63 1c 03 3e d1 ed ca 3c f2 c9 84 bd a8 0f 4a 3d
       0.12803797 0.024771603 -0.064838305 0.049331337
000140 16 b5 36 bd 35 8f 1c be 65 f4 f5 bd b4 3a 0d 3b
       -0.04460629 -0.15289004 -0.12009505 0.0021549882
000150 36 d0 67 bd f4 d9 38 3e 7b 2d 5c 3d 81 35 3e bd
       -0.05659505 0.18051893 0.05375431 -0.046437744
000160 69 9b 82 bd 8a f1 a8 be 20 33 3d 3d f6 20 f2 bc
       -0.063772984 -0.3299678 0.046191335 -0.029556733
000170 6f 5e 75 bd fd 93 6c 3e ae f8 8a bc c6 9f 5a bb
       -0.059904512 0.23103328 -0.016964283 -0.0033359393
000180 5e e2 ce 3c b7 43 cc bb 11 5e 09 3e aa f2 97 3d
       0.025254425 -0.006233658 0.1341479 0.07419331
000190 0f 0e 56 3c e2 a2 42 be a4 87 83 bd 1b 18 a4 bd
       0.013064875 -0.19007447 -0.06422356 -0.0801241
0001a0 1d 82 cf bd 77 99 59 3d d4 92 54 3d 81 a1 97 bd
       -0.10132239 0.05312487 0.05189784 -0.07403851
0001b0 a3 29 a0 3d 72 b6 81 bd 0d 3a d3 bd 43 f6 35 3e
       0.078204416 -0.06333627 -0.10313807 0.17769723
0001c0 87 4d 4e bd 0d 0d 55 be e3 63 df 3d 4f 87 11 be
       -0.050366905 -0.2080576 0.10907724 -0.14211772
0001d0 14 35 d3 3d 7b bb e2 3c 72 01 92 3d 9e fd 35 3e
       0.10312858 0.027677288 0.07129182 0.17772529
0001e0 60 8e 23 be dc 91 58 be 69 95 cd bd 4f 72 b0 3c
       -0.1597228 -0.21149391 -0.10038263 0.021538882
0001f0 8e d4 d9 3d 73 d5 fd 3d ff 62 2f 3e 88 af 98 bd
       0.10636245 0.12394228 0.17127608 -0.07455355
