saved_models/gin_tree_grid.model (torch, 116799 bytes, 28 tensors)

conv1.nn.0.weight f4 [64, 10]
000000 61 3a 4a be 48 e2 78 3e fc dd 72 be 5c 7e 4f be
       -0.19748832 0.2430507 -0.23717493 -0.20263046
000010 cc cf 5f 3e 81 16 78 be 2a 68 cf 3d 17 8e 4f bd
       0.21856612 -0.24227335 0.101272896 -0.050672617
000020 0d 21 0b 3d 9e 76 a6 bc 49 bd 9b 3c 86 e4 85 be
       0.033967067 -0.020320233 0.019011157 -0.26150912
000030 20 ee 91 be 55 51 1e 3e 57 7e 97 be 84 e4 5d be
       -0.28501987 0.15460713 -0.29588577 -0.21669203
000040 9c 48 83 bc 2b 47 5c be 8f 20 84 be bd 5e 66 bd
       -0.016025834 -0.21511523 -0.2580609 -0.056242693
000050 6b 0a ec bb 1e 90 d2 bd f7 87 7c 3b 5f be 8d 3d
       -0.0072033904 -0.102813944 0.003853319 0.06921076
000060 89 ce 16 3d 33 84 d9 3d 60 8e 6a bd f7 9d 67 3d
       0.03681806 0.10620918 -0.057264686 0.05654713
000070 59 cb ea 3d d0 8f a8 bd 93 59 4d 3e 61 9a 16 be
       0.11464567 -0.08230555 0.20053701 -0.14707328
000080 bf de 5d 3e e1 33 96 3e 6b 2d 90 be 08 b9 39 be
       0.21667002 0.29336455 -0.2815965 -0.1813699
000090 f5 95 4f be 1a 23 9e bd cc 99 f0 bd 3c 69 5e be
       -0.20272048 -0.07721539 -0.117480844 -0.21719831
0000a0 cc 12 4a bc a9 45 aa bd 11 01 ae be e0 bf 61 bd
       -0.012333583 -0.08314068 -0.3398519 -0.055114627
0000b0 7d 27 ce 3b e1 a9 a4 3d 91 39 1f 3e 98 71 e4 3c
       0.0062913285 0.08040214 0.15549304 0.027886197
0000c0 2b 4c 16 3e 0a 5e aa be 64 f1 8f 3e 7a fe 20 3e
       0.14677493 -0.3327487 0.28113854 0.15722075
0000d0 fb ee 11 bd fa 98 f5 bd 79 67 2e 3e 51 e9 3b bd
       -0.0356283 -0.119920686 0.17031659 -0.045876805
0000e0 3b d5 b0 bd 3f a3 7f 3d 87 36 91 3d bb 77 6b 3d
       -0.086344205 0.062411543 0.070904784 0.05748723
0000f0 ea a9 04 3e b4 22 80 be 6b c3 95 be c4 23 89 3c
       0.12955442 -0.25026476 -0.29250655 0.016740687
000100 fb b8 79 3e c8 7c 95 be 98 13 6c bd 16 c6 bc 3c
       0.2438697 -0.29196763 -0.057635874 0.023043673
000110 f0 85 2d 3d f7 50 21 be 26 40 f9 bd 61 c2 49 3d
       0.04236406 -0.15753542 -0.121704385 0.04925764
000120 93 22 f5 3d ef f6 22 bc a8 3f a0 3d 04 6c 5e 3e
       0.11969485 -0.009946569 0.078246415 0.21720892
000130 41 3d 2d 3e 0c 31 9b be 1b fa bd 3d 99 92 18 3e
       0.16917898 -0.30310857 0.092762195 0.14899673
000140 57 82 a1 3e ae ce 57 3e 0e f2 79 bd 13 83 47 be
       0.31544754 0.21074936 -0.061021857 -0.19483595
000150 a5 e5 d0 3a 63 d2 28 be 89 df 79 bc 54 4f d0 3d
       0.001593758 -0.16486506 -0.015251049 0.10171381
000160 78 98 7b be 71 e2 19 3e bf 82 ab bd 25 a7 a0 3d
       -0.24569881 0.15027787 -0.08374547 0.0784438
000170 b6 fe 3a 3d 3a ff 06 be 0c 68 cd bd d9 57 38 be
       0.045653068 -0.13183299 -0.10029611 -0.18002261
000180 0b b3 2e bc 4b c3 aa 3d a6 84 3d 3d 73 68 bc 3d
       -0.010662804 0.083380304 0.04626908 0.091996096
000190 ed 8d 45 3e 4e 08 7f be 6f a8 26 be ba 0c 19 be
       0.19292422 -0.24905512 -0.1627519 -0.14946261
0001a0 a8 a7 83 3c 28 05 54 3e 46 70 7a 3e 7a e1 81 3d
       0.016071156 0.20705092 0.24456891 0.06341834
0001b0 3a 14 1e be 64 9f 47 bc a5 77 a9 bd ba 77 97 3e
       -0.15437403 -0.012183998 -0.082747735 0.29583532
0001c0 e3 f0 5d be 32 e1 b2 3d ac 6c ea 3d ca 78 0a 3e
       -0.21673922 0.08734359 0.11446509 0.1352264
0001d0 f6 73 a4 3e 4e 35 a6 bd 25 eb a8 3e 8b 43 0d 3e
       0.3211972 -0.08115636 0.329919 0.13795297
0001e0 79 ad 5e 3e c1 bc 17 be c1 8b 3c 3e f9 b6 55 3e
       0.21745862 -0.14818098 0.18412687 0.2087058
0001f0 fb 92 13 bd 31 fa cb 3d 74 f2 4a 3e 6d b5 63 3d
       -0.036028843 0.099598296 0.19819051 0.055592943
000200 1c 13 38 3d 8d 63 dc bd 03 7c f6 3c 4b 9c 09 be
       0.0449401 -0.10761175 0.03008843 -0.13438527
000210 b9 30 93 3e 86 11 82 be 0c 4f 84 3e d2 31 ac 3d
       0.2874811 -0.25403994 0.25841558 0.0840794
000220 48 67 9c bd 23 80 1f 3e 1b d6 91 3e 6b f8 a2 3e
       -0.07636887 0.15576224 0.28483662 0.31830153
000230 b6 35 b2 3d 6c b9 79 3e fa e7 89 3e 50 29 e5 3a
       0.08701651 0.24387139 0.26934797 0.0017483626
000240 7e 43 2a be 82 3b 0e 3d 8d 92 29 be 49 7a 82 bd
       -0.16627309 0.03472472 -0.16559811 -0.0637098
000250 63 6e 87 be 50 e2 99 3e 5d 80 cd bd e3 3c c3 3d
       -0.26451406 0.30055475 -0.10034249 0.095330976
000260 75 06 57 3b 19 37 71 3e 78 53 13 be 75 8c 9e 3e
       0.0032810245 0.23556174 -0.1438731 0.30966535
000270 81 f8 87 3e 65 74 cf bd 71 0e 42 3e 7a 6f 33 3e
       0.2655678 -0.10129622 0.18950821 0.17522994
000280 7d ee a3 3d 42 a7 09 be e5 1e 1e 3d cd 4f c0 bd
       0.080044724 -0.1344271 0.038603682 -0.09390221
000290 e2 d3 b3 3c f9 c3 99 bd e1 c7 38 3b b9 c7 6f 3d
       0.02195162 -0.07508082 0.002819531 0.05854008
0002a0 96 d9 db bb c7 10 8d be 87 26 b9 3e 7f 0e 46 3e
       -0.006709288 -0.27551863 0.36162207 0.19341467
0002b0 f3 fd c6 3e 10 bc 8b 3e 4f 34 ca bd a8 11 1d bd
       0.38865623 0.27291918 -0.09873258 -0.038346916
0002c0 e5 1b 9d bd 73 33 d2 3e 3b 43 98 bd a8 36 31 be
       -0.07671336 0.41054878 -0.07434698 -0.17306006
0002d0 60 7b 96 3e 49 0a 3f 3d 54 af 4e be 57 cc 81 be
       0.29391003 0.046640668 -0.2018407 -0.2535121
0002e0 e0 20 8b be 58 5c 3f bd 90 92 26 be a0 e6 8a 3c
       -0.2717352 -0.046718925 -0.16266847 0.016955674
0002f0 32 6d a0 3e 96 bb 5a be 2f 7d 00 be c3 15 13 be
       0.3133331 -0.21360621 -0.12547754 -0.1436377
000300 1b 7b dd 3d df e4 90 3e e5 3a 69 be 2f 8a 63 bd
       0.10814496 0.28299615 -0.22776373 -0.055551704
000310 90 d7 86 3e f5 ad a3 3d 32 9e 68 bd ba dc c4 bd
       0.26336336 0.07992164 -0.05679149 -0.09612413
000320 02 8b 94 be 2d 8b 80 bd 34 45 1f be 8d eb 91 bd
       -0.29012305 -0.06276546 -0.15553743 -0.07125006
000330 d8 de 30 3e ac 7f 00 3e 42 0e 0f 3d 57 5b 8f bd
       0.17272508 0.12548703 0.034925707 -0.069998436
000340 ed d3 6a 3d 0f f6 87 3e 95 ae 55 be d6 62 4c 3e
       0.057331014 0.26554915 -0.20867379 0.19959578
000350 0b 91 78 3e e7 df 59 be ec b2 b3 3d ad e3 3c be
       0.2427408 -0.21276818 0.08774361 -0.18446226
000360 9b bb 9f bc 44 7e 94 3d 60 c5 f4 3d 15 51 d7 3c
       -0.019498637 0.07250646 0.11951709 0.02628378
000370 0e ec 49 bd 58 3a 1c 3e 85 91 ea bd 0f 34 84 be
       -0.049297385 0.15256631 -0.11453537 -0.25820968
000380 4d ec 11 3e 1c fd 0f be 74 c0 66 3d 81 1e 7e be
       0.14250298 -0.14061397 0.05633588 -0.24816324
000390 9d a7 09 be 10 ab 0b be e5 2b 6c 3d 1a d0 cb bd
       -0.13442846 -0.13639474 0.05765905 -0.099518016
0003a0 53 cb 15 bc 75 e0 02 bd 44 4c 2c be 55 83 7d be
       -0.009142715 -0.03195234 -0.16825968 -0.2475713
0003b0 2d 2f 8b 3e 68 04 bb 3d 9a 3d 03 be 26 7b c8 3d
       0.2718443 0.091317 -0.12816468 0.09789114
0003c0 f9 cf e2 bd 80 99 da 3d d4 93 32 3e f3 ab 20 3e
       -0.11074824 0.10673809 0.17439204 0.15690593
0003d0 0a 9f 56 3e af 61 9a be 90 61 c4 bd 6d bf 0b be
       0.20959106 -0.30152652 -0.09588921 -0.13647242
0003e0 c6 e8 13 3c 69 a9 f5 bd 7f 20 5f be 2e 51 dc 3d
       0.0090276655 -0.11995203 -0.2178974 0.10757671
0003f0 a4 2f a1 be 5e 92 68 be 6b 7e 84 be 2c 97 d7 3d
       -0.3148166 -0.22712085 -0.258777 0.105268806

conv1.nn.0.bias f4 [64]
000000 2f 7f a4 3c ab 7e a1 3b 5e 6d 5a 3d 78 03 7d 3e
       0.020080177 0.00492843 0.053326957 0.24708354
000010 3f 4c 73 3e d0 b2 af bd a2 0a 7e be 56 6e 49 3e
       0.23759554 -0.08579028 -0.24808744 0.19670996
000020 50 d4 8d 3e 85 d5 64 3c 51 d0 81 bd 6f 45 ab bc
       0.27701044 0.013966923 -0.06338561 -0.020907132
000030 1c a2 8a be fd cd 54 3e 2b c4 84 3e 92 08 52 be
       -0.27076805 0.20781703 0.25930914 -0.20511082
000040 66 93 64 3e 2d 81 d0 3d 86 36 32 3e 9f 84 43 be
       0.22321853 0.10180888 0.17403612 -0.1909356
000050 5f 0f 5d be df a8 a2 bd 59 20 93 bd 16 e4 0d 3e
       -0.21587895 -0.07942366 -0.07183904 0.13856539
000060 6c 62 35 be cb ab 0b bd 15 99 96 be 87 db 03 be
       -0.17713326 -0.03409938 -0.29413667 -0.12876712
000070 75 74 c3 3e cc f8 62 3e bf 2c 1a be f6 ce 49 3d
       0.38174787 0.22165221 -0.15056132 0.04926964
000080 62 73 31 3c 20 eb 32 bd ca 8e 9c be 0e de 88 3e
       0.010830732 -0.043681264 -0.3057769 0.26731914
000090 13 d2 3b 3d 06 62 68 be 25 bf 90 be aa de 5f 3e
       0.04585464 -0.22693643 -0.28270832 0.21862283
0000a0 cd 8e d5 3d 92 bf 12 be 00 dc 2d be 7a 38 9f be
       0.10427628 -0.14330891 -0.16978455 -0.31097776
0000b0 c4 a0 a0 3e d7 ec 67 3e 68 37 11 be 24 07 5c be
       0.31372654 0.22648941 -0.14181292 -0.21487099
0000c0 3d 72 73 3e 5d 1c 82 3e a8 12 85 3e 9a 8c f8 bd
       0.23774047 0.25412264 0.25990796 -0.121361926
0000d0 3a 1a 70 be 23 ae 43 3e fb 33 76 be 7d f8 86 be
       -0.23447505 0.19109397 -0.24043266 -0.26361457
0000e0 f5 11 f3 bd 42 09 d6 bd 8f 7d a0 bc e8 95 aa 3d
       -0.118686594 -0.104509845 -0.019591121 0.083293736
0000f0 a0 2d 7d 3e 45 c3 30 bc fe 4b 1c be c5 76 41 bd
       0.24724436 -0.010788743 -0.15263364 -0.047232408

conv1.nn.2.weight f4 [64, 64]
000000 82 3e b2 bd 42 7c ed 3d f3 9e 0c be ee 42 98 3d
       -0.08703329 0.11595966 -0.1373251 0.07434641
000010 98 89 a9 bd 7b 77 16 bc 5c 7c 65 bd be 27 81 3d
       -0.08278197 -0.00918376 -0.0560268 0.06306408
000020 d7 c5 b1 3d ef 19 00 be 71 12 63 bb ad 8b 08 be
       0.08680313 -0.12509893 -0.0034648443 -0.13334532
000030 1f 5d 6f 3b 93 bc fb 3c 13 b7 aa 3d 32 d2 85 bd
       0.003652401 0.030729568 0.083357 -0.06534232
000040 60 d8 b0 bc d5 f9 05 bd f0 16 0a bc 10 46 dc bd
       -0.02158755 -0.03270896 -0.00842832 -0.10755551
000050 e0 dc 6a bc 4c 09 7b bc b2 c5 a3 bd 02 17 4e bd
       -0.014334887 -0.015322041 -0.07996692 -0.05031491
000060 e2 df 42 bb 98 c8 d2 bc 0a e7 ac 3c af 14 c5 bd
       -0.0029735495 -0.025730416 0.021106262 -0.09623086
000070 7e 3c 96 bc 30 50 26 3c 0b ae af 3d 28 e9 89 bd
       -0.018339392 0.010150954 0.08578118 -0.06733924
000080 36 95 e6 bd be 0d e9 bd d8 83 99 3d 33 cf c2 bd
       -0.112589285 -0.11379574 0.0749585 -0.09512176
000090 f0 61 50 bd 56 3c dc bd 50 fe 58 3c 9f 06 d7 bd
       -0.05087465 -0.10753696 0.013244227 -0.1049931
0000a0 b0 82 da 3d 54 b6 9f bd 3e 49 a2 bd e6 63 95 3d
       0.10669458 -0.07798448 -0.07924126 0.07294445
0000b0 14 2f 3c 3d ce b7 dc bd 99 f6 fe bd 52 8b 95 bd
       0.045943335 -0.107772455 -0.124493785 -0.07301964
0000c0 4c 80 98 bd 3e e7 e6 3d be ff e2 bd 84 a1 54 3d
       -0.07446346 0.11274575 -0.11083935 0.051911846
0000d0 f0 ca d8 3d 36 f6 6f bd ce 3c c4 3d 10 55 a1 3d
       0.10585582 -0.058584414 0.0958191 0.078775525
0000e0 32 39 f3 3d d8 5e 4b bd a7 b4 06 be 76 2a bb 3d
       0.118761435 -0.049650997 -0.13154851 0.09138958
0000f0 1c f3 a4 3d 73 19 b5 3d 72 7b a2 bd 0f d0 00 3d
       0.08054182 0.08842745 -0.079337016 0.03144842
000100 54 bb 38 bd c0 00 06 bb b2 aa 93 bd d8 2b d4 bc
       -0.045100525 -0.0020447224 -0.07210292 -0.025899813
000110 86 8b a0 bd 40 aa aa bd 1e e1 d2 3d 08 4f ff bd
       -0.07839112 -0.08333254 0.10296844 -0.12466246
000120 90 42 0f 3d c0 ab cc 3c fc e8 d5 bd 70 99 20 bc
       0.03497559 0.02498424 -0.10444829 -0.009802207
000130 c2 31 f4 bd 46 14 92 bd c2 88 d6 bd aa 2c 8d bd
       -0.11923553 -0.07132773 -0.10475303 -0.068932846
000140 00 09 b7 3b 38 a6 3a 3d 50 41 7f bd ba ed fe bd
       0.0055857897 0.045568675 -0.062318146 -0.124476865
000150 d6 4a d5 3d d0 b4 18 3d 08 0a d5 bc 5a 32 b2 bd
       0.104146644 0.03728181 -0.02600576 -0.0870101
000160 a8 ee c7 bd 5c 1d 99 3d 56 e5 a8 bd 1a 0d d2 bd
       -0.09762317 0.07476303 -0.08246867 -0.10256405
000170 02 8a d4 bd f0 0e 3c 3c 34 ad 0b bd f8 0a 17 3d
       -0.103778854 0.011478171 -0.034100726 0.036875695
000180 f0 f6 1e bc 2e 9b ca 3d 38 0d 71 3d bc 27 25 bd
       -0.009702429 0.098928794 0.058850497 -0.040321097
000190 38 25 99 3c 0e 9f e7 3d 20 6b 76 bc 70 f4 08 3c
       0.018694505 0.11309634 -0.015040189 0.00835906
0001a0 0e 39 c9 bd 30 ef 56 bd b4 d3 4d 3d c4 62 b3 bd
       -0.098253354 -0.0524742 0.050250724 -0.087590724
0001b0 7e 8f 82 3d 08 ca 62 bd c0 e3 dd 3c 80 c9 ea 3d
       0.06375025 -0.055368453 0.027086139 0.11464214
0001c0 f8 27 37 3d a0 d4 ae bc b0 4f 2b 3c 80 bc 64 3c
       0.04471585 -0.021341622 0.010456011 0.0139609575
0001d0 e4 79 2d 3d c0 7f f2 3c e8 52 b1 bd 9c b4 39 3d
       0.042352572 0.029601932 -0.08658391 0.04533826
0001e0 aa 49 b1 3d 00 e4 47 ba e0 5e 67 bd e0 a0 4f bc
       0.086566284 -0.0007625222 -0.056486964 -0.012672633
0001f0 c0 ee 0f 3b 62 1e 9e bd a8 f3 a7 bc 46 c4 f0 3d
       0.0021962374 -0.07720639 -0.020501927 0.11756186
000200 80 89 f8 bc 40 c3 13 3d 6a c2 bd 3d 64 3f 8e 3d
       -0.030339003 0.036074877 0.09265597 0.069456846
000210 aa e2 ae bd 49 1b e7 3d dc 72 6e bd 62 90 11 3e
       -0.085393265 0.11284501 -0.058215007 0.14215234
000220 fb 91 c8 3d 4e 41 72 3d 2e d0 0e 3e 75 b8 b3 bd
       0.097934686 0.05914431 0.13946602 -0.08775417
000230 99 ef 5f 3d 9e aa 09 3e 43 11 9e bb 9b ed 8b bd
       0.054671858 0.13443992 -0.004823835 -0.06832429
000240 5a 17 fc bd d5 56 f3 3d ba e2 83 3d 90 da a3 bc
       -0.123091415 0.11881796 0.06439729 -0.02000168
000250 c8 aa f5 3d 53 69 b5 3d 10 f3 b9 bc c5 eb 45 3c
       0.119954646 0.088579796 -0.022698909 0.012080138
000260 bf 6a fc 3d 10 0b d5 3c 91 3a 0f 3e 0a 45 d4 3d
       0.12325048 0.026006252 0.13987185 0.10364731
000270 37 7b fe 3d 4a 50 d7 bd 20 ba ec 3c f7 ed 8b bd
       0.12425845 -0.10513361 0.028897345 -0.068324976
000280 00 18 ab bc 14 ac e5 3c 60 83 3a bc de 01 db 3d
       -0.020885468 0.028036155 -0.011383861 0.106937155
000290 80 5b 17 bc 28 1c 2b bd 54 87 74 3d c6 5d 00 bc
       -0.009238124 -0.0417749 0.05969937 -0.007834857
0002a0 7c 3d 04 3d c0 02 9f 3b f0 46 79 3c 07 47 81 bd
       0.0322852 0.0048526227 0.015214667 -0.063123755
0002b0 a0 52 06 3c 9c 43 73 bd 9d 97 8e 3a d0 65 e9 bd
       0.00819841 -0.05939065 0.0010878925 -0.11396372
0002c0 86 2d cc 3d dc 24 98 3d a3 ac a8 3c 58 e6 b8 3c
       0.099696204 0.07428905 0.020590132 0.022570774
0002d0 5a a7 dd bd 97 66 1e 3e bc 1c 71 bd 0e 15 ea bd
       -0.108229354 0.15468822 -0.058865294 -0.11429797
0002e0 3a e8 f6 bd 84 af 02 bd 6b 14 9a bc 94 5f 6a 3d
       -0.120560125 -0.031905666 -0.018808564 0.057220057
0002f0 65 58 be bd 0e 70 df 3d d8 3c 5f bd 18 af f7 bc
       -0.09294204 0.109100446 -0.054501384 -0.030234858
000300 f8 b3 ce bc c6 c7 e0 bd df ab d7 bc de 86 83 3d
       -0.0252323 -0.10975604 -0.026327072 0.06422208
000310 2c 38 a3 bd 93 7e 15 3e 98 24 84 bd 87 27 bb bd
       -0.07969698 0.14599065 -0.06452292 -0.091383986
000320 67 32 22 3d e4 3b 58 3d d8 2b 00 3e b4 1f 11 3e
       0.03959885 0.05279149 0.12516725 0.1417225
000330 07 c0 27 bd 84 38 af bd 35 87 a7 bd 53 63 99 bd
       -0.040954616 -0.085557014 -0.081800856 -0.07489648
000340 d8 d4 bb bd 84 80 20 3e 40 71 96 bd 98 27 b9 bd
       -0.09171456 0.15674025 -0.073458195 -0.09040755
000350 48 eb 6a 3d 5b fe 13 3d a0 28 8a bd dd b4 f4 3d
       0.057353288 0.036131244 -0.0674603 0.119485594
000360 7a 9f ed bc a8 a1 34 bd dc f2 15 bd 67 7e 8d 3d
       -0.029006708 -0.04409948 -0.036608562 0.06908875
000370 bf 85 40 3d cc a8 99 bd e1 ca a1 3c 03 40 e8 3d
       0.04700255 -0.075028986 0.01975006 0.11340334
000380 f4 85 f9 bd 84 dd 1f 3d 40 32 42 bd ca 93 b1 bd
       -0.12183753 0.039029613 -0.047411203 -0.08670767
000390 ae f7 f4 bd 18 0c df bd 6c 16 dd bd f9 91 a5 bd
       -0.11961304 -0.108909786 -0.10795292 -0.08084483
0003a0 7c 84 d0 bd 6a 6f b2 3d 16 d3 ff 3d 1e 02 1d 3e
       -0.101815194 0.08712657 0.12491433 0.15332839
0003b0 c4 15 9c bd 82 c4 a9 bd e2 62 fa bc 6e 8f d8 bd
       -0.07621339 -0.08289434 -0.03056473 -0.10574232
0003c0 e8 e7 f1 bd 36 66 e6 3d 44 a7 b2 3d d0 33 39 3c
       -0.11811811 0.11249964 0.0872331 0.011303857
0003d0 10 7b cb 3c 69 ca 83 3c a2 39 bb 3d 90 37 07 bd
       0.024838954 0.016087728 0.09141852 -0.033011973
0003e0 b8 18 90 3d 80 7a 5d bb 53 b1 56 bd f4 e5 43 3d
       0.07035965 -0.003379494 -0.052415203 0.047826722
0003f0 b3 72 ad 3d d4 88 a5 3d 10 e1 94 bd ea e1 ad bd
       0.08469143 0.080827385 -0.0726949 -0.08490355

conv1.nn.2.bias f4 [64]
000000 8f 4a aa 3d 7c b7 18 3d 07 1a 0d 3e 0b 2f 23 3e
       0.08315002 0.03728436 0.1377946 0.15935914
000010 5c 9e ce bd d0 ea 0a 3c ef 5c d6 bb 5c 7e 44 3d
       -0.100887984 0.008478835 -0.0065418403 0.04797207
000020 6f 77 f1 bd 72 ed 0b 3e 24 8c 23 3d d0 d2 ff bc
       -0.11790358 0.13664797 0.03992857 -0.031228453
000030 e4 ee 05 3e 72 6e a0 3c ab 4d 47 ba 1c 80 aa bc
       0.13079411 0.019583914 -0.0007602821 -0.02081304
000040 43 f6 0f be 56 59 a0 3d bb c0 b0 3d 25 f7 ad 3d
       -0.14058785 0.078295395 0.086305104 0.08494405
000050 88 37 8d 3d f4 48 c3 bd 5a 49 d0 3d 02 e0 bc bd
       0.06895357 -0.09535399 0.10170241 -0.092224136
000060 1f 89 f8 bd 80 9b 37 3d 6a f8 0a be 6e 36 a7 3d
       -0.12135529 0.04482603 -0.13571325 0.081646785
000070 7d 4c 05 3e 86 bb 4a bd 50 7d 63 bd 60 3b be 3c
       0.13017459 -0.049495243 -0.05553943 0.023221672
000080 e7 be 97 bd 4b d9 44 bc 2a d0 6d bc 22 f3 a3 bd
       -0.074094586 -0.012014697 -0.014514962 -0.08005358
000090 c2 6b a2 bd e4 a9 62 3d 76 e2 25 3d 12 b3 5a 3d
       -0.079307094 0.0553378 0.040499173 0.05339343
0000a0 e8 ec 6a bd e4 20 5b bd 2f 83 6d bd de 77 c2 bd
       -0.057354838 -0.053498164 -0.057986435 -0.09495519
0000b0 ba 23 a6 3d 16 c2 1e 3d 00 dc 38 3d bc 06 fb 3d
       0.08112283 0.038759314 0.045131683 0.12257144
0000c0 a9 27 1e 3d 33 b0 e4 bc 57 84 cf bd d6 25 d5 3c
       0.03861204 -0.02791605 -0.10132664 0.026019018
0000d0 b7 a0 df bc 62 df 08 bd 85 20 cc bd c2 fe 86 bd
       -0.027298314 -0.03341616 -0.0996714 -0.0659156
0000e0 72 01 f9 3b 31 bc 62 bd 2a 9a e4 bd 7c 79 f6 3c
       0.0075990492 -0.055355255 -0.11162217 0.030087225
0000f0 9d b3 89 bc 28 84 6c 3d cc 7b e8 bd c1 05 48 3d
       -0.01680928 0.05774322 -0.113517374 0.048833612

conv1.nn.4.weight f4 [64]
000000 ad 4e 79 3f 00 00 80 3f d4 e8 7f 3f 33 42 81 3f
       0.97385675 1.0 0.9996464 1.0098327
000010 00 00 80 3f 00 00 80 3f ac 33 7d 3f 00 00 80 3f
       1.0 1.0 0.9890697 1.0
000020 54 3e 80 3f f1 c2 70 3f 00 00 80 3f e0 fe 81 3f
       1.0019021 0.94047457 1.0 1.0155907
000030 ed d7 83 3f 49 40 6d 3f c4 91 80 3f 18 ef 7f 3f
       1.030027 0.92676216 1.0044484 0.99974203
000040 c9 76 81 3f 00 00 80 3f da d6 82 3f 4e e4 7e 3f
       1.0114375 1.0 1.0221817 0.99567115
000050 87 6b 84 3f 00 00 80 3f 00 00 80 3f af 53 82 3f
       1.0345315 1.0 1.0 1.0181788
000060 e7 18 82 3f e6 ff 7b 3f 99 cf 81 3f 62 56 81 3f
       1.016385 0.98437345 1.0141479 1.0104487
000070 dc 9d 75 3f 41 cd 6b 3f 0f 4a 72 3f f9 ba 7a 3f
       0.95944 0.9211007 0.94644254 0.9794155
000080 62 8d 72 3f f0 62 77 3f 69 c7 73 3f 00 00 80 3f
       0.94746983 0.9663534 0.9522615 1.0
000090 c5 64 79 3f 5e bb 87 3f a1 7a 70 3f 19 82 7b 3f
       0.9741939 1.0604055 0.93937117 0.9824539
0000a0 00 00 80 3f 00 00 80 3f a1 66 79 3f aa a9 82 3f
       1.0 1.0 0.97422224 1.0208027
0000b0 1e ec 83 3f c0 29 7a 3f e7 45 72 3f 00 00 80 3f
       1.0306432 0.97719955 0.9463791 1.0
0000c0 26 5c 79 3f 1f 50 78 3f 1f e9 86 3f c5 ff 78 3f
       0.9740623 0.96997255 1.0539893 0.97265273
0000d0 4a 95 7e 3f 3b 83 78 3f cd 5e 72 3f 00 00 80 3f
       0.9944655 0.9707524 0.94675905 1.0
0000e0 34 7c 83 3f 0c 31 82 3f 00 00 80 3f 29 85 77 3f
       1.0272279 1.0171218 1.0 0.9668756
0000f0 55 5f 84 3f a5 b7 7e 3f b5 c0 69 3f ac f4 71 3f
       1.0341593 0.9949897 0.9130967 0.94513965

conv1.nn.4.bias f4 [64]
000000 05 8f 26 bd 05 3e 48 3d c0 71 7f bd fa 50 60 bd
       -0.040663738 0.04888727 -0.06236434 -0.054764725
000010 75 a4 c9 bd 92 2b 08 3e 85 7e 14 bd 4e 8e c0 bd
       -0.09845821 0.13297871 -0.03625347 -0.094021425
000020 28 5c d9 bb b9 f5 b8 bd 50 d9 7e 3d 25 32 e9 bc
       -0.0066333003 -0.09031243 0.062218964 -0.028466294
000030 5f 53 31 3d 1d da 2b bd 3c 3c 2b 3a 3a 7f a4 bd
       0.0432924 -0.041956056 0.0006532108 -0.08032079
000040 8e ca dd bd bf 0f 66 bd 63 b0 b8 bb c2 4b c8 bc
       -0.1082965 -0.05616736 -0.0056362613 -0.024450187
000050 1d 65 9d bd 57 f4 a2 39 7c 3b 19 bd 99 12 eb bb
       -0.076853015 0.00031081095 -0.037410244 -0.007173848
000060 73 6b b6 bd 53 39 26 3d e3 56 13 bd d4 db 13 bd
       -0.08907213 0.040582012 -0.035971534 -0.036098316
000070 d8 35 9c bd eb 8a 07 bd 6b a4 9b bd 5a 59 89 bd
       -0.076274574 -0.033091467 -0.075997196 -0.067064956
000080 1b ad c7 bd 2f 3d 27 3d be 4e db bc 0a 72 0e 3c
       -0.09749814 0.040829834 -0.026770946 0.008694181
000090 68 9f 13 bd 34 4b d2 3c 2c 51 a0 3d e9 1e 96 bd
       -0.036040694 0.025670625 0.07827982 -0.073301144
0000a0 f1 b2 3b bd aa ed c0 bd 12 b1 5f 3d de 9b 46 3d
       -0.04582495 -0.09420331 0.054612227 0.04848849
0000b0 04 31 da b8 55 49 7f bd d9 e8 29 3d 8e 85 ec 3c
       -0.0001040418 -0.062325794 0.041481826 0.028872278
0000c0 42 b6 18 bd dd d6 49 3b 5d 48 0e 3d c0 77 ca bd
       -0.03728319 0.0030798235 0.03473698 -0.09886122
0000d0 35 8b 01 be 21 b6 b7 bc d3 6d 67 bd ea 48 b8 3c
       -0.1265076 -0.022425713 -0.05650122 0.022495706
0000e0 32 0c b9 bd a1 5f 86 3d 13 23 88 bd 1a 3f 91 3c
       -0.09035529 0.065612085 -0.06647315 0.017730284
0000f0 a5 e3 3b bd 7b cc 8c bc 63 36 b4 bc 2c c2 32 3c
       -0.045871396 -0.017187348 -0.02199859 0.010910552

conv1.nn.4.running_mean f4 [64]
000000 07 bb 7b 2c 00 00 00 00 a7 55 34 40 af 20 95 3f
       3.5773066e-12 0.0 2.8177278 1.1650599
000010 00 00 00 00 00 00 00 00 59 b7 38 40 00 00 00 00
       0.0 0.0 2.8861907 0.0
000020 e6 e1 43 3b 98 c3 99 40 00 00 00 00 fa a1 a3 40
       0.0029889285 4.805126 0.0 5.1135225
000030 aa b2 b8 2f 9c 81 3d 40 9f d3 1c 3f 4d 80 5b 40
       3.3596353e-10 2.9610357 0.6126041 3.4297059
000040 20 66 ee 32 00 00 00 00 0e b2 14 3c 6c 28 89 40
       2.7753288e-08 0.0 0.009075655 4.2861843
000050 b3 1b 16 30 00 00 00 00 00 00 00 00 4b 30 09 30
       5.4609045e-10 0.0 0.0 4.990894e-10
000060 5d 93 53 36 8c dd 20 33 b7 d1 4a 40 a3 da 4b 40
       3.1527227e-06 3.74544e-08 3.16905 3.1852195
000070 c7 4e a5 30 7a 53 66 3f de 37 88 40 e2 09 61 40
       1.202772e-09 0.89971125 4.2568197 3.5162282
000080 46 eb 20 40 07 9a 22 30 68 dc 22 40 00 00 00 00
       2.51436 5.915414e-10 2.5447025 0.0
000090 f6 7f 15 2e 22 6e 21 40 1f d8 8f 40 a8 6c ed 2f
       3.399233e-11 2.522347 4.495132 4.3187254e-10
0000a0 00 00 00 00 00 00 00 00 99 dc 31 2d 95 51 49 40
       0.0 0.0 1.0110268e-11 3.1456044
0000b0 1e 2b 63 40 52 2d 7f 40 99 de f8 35 00 00 00 00
       3.5495067 3.9871411 1.8542224e-06 0.0
0000c0 1a 4e 88 2c 61 c0 3f 2f c5 23 76 36 ea ff 85 3c
       3.8740235e-12 1.7439696e-10 3.6677677e-06 0.01635738
0000d0 4a 16 f3 30 b9 54 14 40 33 f3 a1 37 00 00 00 00
       1.7686912e-09 2.317671 1.9305944e-05 0.0
0000e0 1f e0 c2 30 0a 38 02 40 00 00 00 00 2c 56 01 40
       1.4179057e-09 2.0346704 0.0 2.0208845
0000f0 27 87 c1 3f ff a0 06 40 7a 1b 48 40 f2 1b 86 35
       1.511937 2.1035764 3.126677 9.991911e-07

conv1.nn.4.running_var f4 [64]
000000 70 7e b0 32 68 7e b0 32 06 e1 d6 3e c1 ca 8e 3d
       2.0546594e-08 2.054658e-08 0.41968554 0.06972266
000010 68 7e b0 32 68 7e b0 32 92 7a 06 3f 68 7e b0 32
       2.054658e-08 2.054658e-08 0.5253078 2.054658e-08
000020 5a 15 d0 39 22 38 b5 3f 68 7e b0 32 dc 1e cc 3f
       0.0003968876 1.4157755 2.054658e-08 1.5946918
000030 76 7e b0 32 ca 3f 0f 3f 8a d3 d6 3c 76 56 38 3f
       2.0546604e-08 0.5595671 0.026223917 0.7200693
000040 f4 d8 bb 32 68 7e b0 32 a4 ac 77 39 bc 5a 92 3f
       2.1868324e-08 2.054658e-08 0.00023620069 1.143394
000050 37 83 b0 32 68 7e b0 32 68 7e b0 32 39 c0 b0 32
       2.0548766e-08 2.054658e-08 2.054658e-08 2.057651e-08
000060 c3 35 74 34 8c 24 bf 32 0e 44 36 3f 31 fe 0c 3f
       2.2743829e-07 2.2251946e-08 0.71197593 0.55075365
000070 a6 91 b0 32 f5 ea 70 3d 27 22 96 3f 13 dc 47 3f
       2.055533e-08 0.058817822 1.1729172 0.7807018
000080 84 e7 e2 3e 2f 88 b0 32 c2 01 c7 3e 68 7e b0 32
       0.44317257 2.0551026e-08 0.3886853 2.054658e-08
000090 c4 7e b0 32 09 32 b9 3e c5 7f a3 3f 04 81 b0 32
       2.0546743e-08 0.36170986 1.2773367 2.0547766e-08
0000a0 68 7e b0 32 68 7e b0 32 c0 7e b0 32 51 83 28 3f
       2.054658e-08 2.054658e-08 2.0546736e-08 0.6582537
0000b0 e1 37 3c 3f 7a e4 7f 3f 3f 3e 39 33 68 7e b0 32
       0.73522764 0.99958 4.313028e-08 2.054658e-08
0000c0 70 7e b0 32 55 85 b0 32 92 51 62 33 63 84 b2 3a
       2.0546594e-08 2.0549729e-08 5.2693913e-08 0.0013619777
0000d0 53 17 b1 32 bb d9 a8 3e 9c d2 df 34 68 7e b0 32
       2.0616119e-08 0.32978615 4.1690225e-07 2.054658e-08
0000e0 3c f2 b0 32 47 ff 8a 3e 68 7e b0 32 0c 62 7b 3e
       2.0599252e-08 0.27147886 2.054658e-08 0.2454912
0000f0 68 1d 25 3e 4e 3c 90 3e 83 43 21 3f 25 f7 f0 32
       0.16124499 0.2817101 0.6299364 2.8052066e-08

convs.0.nn.0.weight f4 [64, 64]
000000 a0 de 04 bd d6 60 82 bd 07 82 55 bd 50 7a 0a 3e
       -0.032438874 -0.06366126 -0.052125957 0.13523221
000010 89 4e c3 3d 3f 80 e8 bd e2 d3 95 3c 97 40 3c 3e
       0.09536464 -0.11352586 0.01828951 0.18384014
000020 f9 6c 8e bd 72 78 2e bc 99 f8 3f be 5a 0c 1c 3e
       -0.06954379 -0.010648834 -0.18747176 0.15239087
000030 dc e8 7d 3d de bd 1b 3d 41 05 97 bd 5a bd a4 3c
       0.06198965 0.03802287 -0.07374049 0.020109821
000040 67 2b 94 3d a6 e3 8e bb 69 28 11 3e e5 2f 7d 3d
       0.07234841 -0.004360634 0.14175572 0.061813254
000050 6b 1f dc 3a 77 76 04 3c 22 15 f3 3c 02 5f ce 3c
       0.0016794031 0.008084885 0.029673163 0.025191788
000060 e6 75 95 bd cb 00 81 bd 89 07 ba bb f5 d2 cb 3d
       -0.07297878 -0.06298979 -0.005677168 0.09952346
000070 96 52 8a bd e3 36 58 3d 54 49 9c 3d 4a 7d 6d bd
       -0.06754033 0.05278672 0.07631174 -0.057980813
000080 c1 38 1b 3e b8 9b ad bc 1d e7 45 3d 37 6a af bd
       0.15158369 -0.021192417 0.04831611 -0.08565181
000090 b2 f1 07 3e e8 61 3d 3d 6e 10 7c 3c a8 58 b5 bd
       0.13275793 0.04623595 0.0153847765 -0.088548005
0000a0 1a e4 0b 3e 7b e4 8a bc fe 00 fa 3d 6f 4f 9f bc
       0.13661233 -0.016954651 0.122072205 -0.019447057
0000b0 6c 61 98 bd 0b 92 c3 3d b2 a5 b1 3b cc 45 a2 3d
       -0.07440457 0.0954934 0.0054213637 0.07923469
0000c0 4d f4 c4 3d df 95 c3 bd 72 af bf bd 93 1d b4 3d
       0.09616909 -0.0955007 -0.093596354 0.08794703
0000d0 f6 e6 94 3d 1b 0d 30 bd fa 33 ef 3d 8f f8 d4 3d
       0.07270615 -0.04298125 0.116798356 0.10398971
0000e0 af 8b 05 bd 40 0a 9a 3d 58 c7 36 3e 64 68 de bc
       -0.032603916 0.07521486 0.17849481 -0.027149387
0000f0 9b 84 2a 3e 0e 59 ea 3d b3 c6 bf 3d 3c e2 a6 bd
       0.16652147 0.11442767 0.09364071 -0.081486195
000100 57 cd 92 bc fa 6e ee bd e6 9c 81 bd 06 a0 8b 3d
       -0.01792018 -0.11642261 -0.06328754 0.068176314
000110 ae 1f 08 3d 76 55 4d be f8 dd bd 3d a2 f1 b4 3d
       0.033233337 -0.20052132 0.09270853 0.0883515
000120 94 92 90 3d 7a 4a a3 bc 2c 23 8f bd 2e 15 0a 3d
       0.070592076 -0.019932974 -0.069891304 0.033711605
000130 ea aa c4 bb 31 d8 e6 3d c4 c8 b9 3d 79 cd 7e 3d
       -0.00600182 0.11271704 0.09071496 0.062207673
000140 18 14 56 3d 6e 6c ae 3d 6d bb db 3d 96 be b9 bd
       0.052265257 0.08516775 0.10729108 -0.090695545
000150 e6 a7 5e bd f8 a1 67 3c e7 64 b9 3d 7b 9b cb 3c
       -0.05435934 0.014137737 0.09052449 0.024854412
000160 58 02 f2 bd 3f 8c df 3d 29 e9 0c bd 9c 25 7f bd
       -0.11816853 0.10915422 -0.034402046 -0.062291726
000170 be 8c 3a 3d 9a 79 2d bd ee b1 92 bd 65 6a 0c bd
       0.04554438 -0.042352296 -0.07162844 -0.034281153
000180 4f dc f1 bd 55 fa 32 bd e1 73 f5 bd c0 5e db bd
       -0.11809599 -0.043695766 -0.11984993 -0.107114315
000190 ec b2 e2 bb 54 5a 6c 3d f5 aa f2 3d 72 5e fb bc
       -0.006918302 0.05770333 0.11849014 -0.030684683
0001a0 ea d8 6e bc 53 1e 9d 3d f6 37 e6 bd e2 7f af bc
       -0.0145780835 0.076717995 -0.112411425 -0.021423284
0001b0 a4 be 98 bc ec dc 3d bc b2 a5 18 3d 97 75 f6 bd
       -0.018645592 -0.011588316 0.037267394 -0.12034147
0001c0 3e 8e 04 bd 67 0b a2 3d 4f f9 e0 3b 07 37 ab 3d
       -0.032362215 0.07912331 0.0068656574 0.08360105
0001d0 9a 26 eb 3d 75 5e 15 be 8a b7 dc 3d 8b c4 a0 bd
       0.11481972 -0.14586814 0.10777195 -0.078499876
0001e0 f7 e6 2f 3d bb 97 42 bd 7d 1a 12 3c 0b 5a a2 bd
       0.042944875 -0.047507983 0.008917448 -0.079273306
0001f0 76 12 20 3d 35 90 16 3d 4a 51 8a 39 d5 3c 6f bd
       0.039080106 0.03675862 0.00026381976 -0.058407623
000200 f5 21 33 bc 84 90 19 be 9d 08 aa 3d b3 48 cb bd
       -0.010933389 -0.14996535 0.08302424 -0.09925976
000210 53 e7 63 bd f9 bb de bd 5b a0 47 3d a3 c5 df 3d
       -0.05564053 -0.10875697 0.04873691 0.10926368
000220 1d 8a c2 3c 04 fc ed 3d 28 56 f3 bd 26 4d 36 3d
       0.023747498 0.11620334 -0.118816674 0.04450717
000230 04 9c 6a 3d 34 f1 7c bc 97 a4 0a bc 55 31 8f 3d
       0.057277694 -0.015438367 -0.008462093 0.06991831
000240 93 e6 e7 3c 14 29 d0 3d bf a9 3d bd 36 cf 97 bb
       0.028308189 0.10164085 -0.04630446 -0.0046328558
000250 c2 b5 18 3c ed 71 c2 3d 1f 65 17 3e f0 a7 bf bd
       0.009320678 0.09494386 0.14784668 -0.093582034
000260 46 b2 d1 3d 08 b5 03 3e e9 90 d6 3d 6f ac 71 3d
       0.10239081 0.12862027 0.10476858 0.059002336
000270 aa 64 00 bd ca 1e b6 bd b9 98 8d 3d 52 34 a6 bd
       -0.031346 -0.08892591 0.06913895 -0.08115448
000280 77 a4 ba bd e2 8e 93 3d 28 32 55 3d 8c ea 8d bc
       -0.091134004 0.07204987 0.052049786 -0.017323755
000290 fe eb 31 bd c1 55 c6 bd f7 85 86 bc 27 32 7a 3d
       -0.04343795 -0.09684325 -0.016421301 0.061082985
0002a0 d5 7b 26 3d 74 c7 71 bd 3e c8 a5 3b 35 61 f6 3d
       0.04064544 -0.059028104 0.005059271 0.120302595
0002b0 58 51 5b bd 75 b5 64 3d 1b bb 24 be ae 4b 35 3e
       -0.053544372 0.055837113 -0.16087 0.17704651
0002c0 80 74 9a 3c de 9b 90 3d d9 ab c2 3c 09 ba 41 bd
       0.01885438 0.07060979 0.023763584 -0.047296558
0002d0 67 0a aa bd aa ea 33 bd ef 6a 89 3d c6 f9 92 3d
       -0.08302765 -0.043924965 0.06709849 0.07176547
0002e0 ac d4 46 bd b5 b1 d7 3a 4b 9d bc bc a7 ca 84 bc
       -0.048542663 0.0016456159 -0.023024222 -0.016209913
0002f0 09 7f f5 3d 8e d2 b9 bd 48 30 80 bd 0c 53 ed bd
       0.11987121 -0.09073363 -0.06259209 -0.115881056
000300 90 06 ed bd b1 30 26 be e0 96 0c 3d a5 6d 5e bd
       -0.11573517 -0.16229512 0.034323573 -0.054303784
000310 2d 86 74 3d cd 2f df bd 6e 2f 80 bc c6 9e d4 3d
       0.059698272 -0.10897789 -0.015647616 0.10381846
000320 b6 a9 66 bd 94 46 10 3e 17 55 c9 3d 2e 03 1d bd
       -0.056314193 0.14089423 0.09830683 -0.03833311
000330 ba c2 6e bd 3e ec 4c bd 28 83 64 bd b7 55 bc 3c
       -0.058291174 -0.050029986 -0.055789143 0.02299009
000340 ec ce 86 3d 67 e1 a8 3d b1 0b 0b 3d 70 d5 29 bc
       0.06582436 0.08246117 0.033946697 -0.010365829
000350 7f 5d 59 3d 65 c3 b4 bd cb d3 96 bd 31 01 ea 3d
       0.05306768 -0.08826331 -0.07364615 0.114260085
000360 52 6f 03 3d f4 db da 3d 4a 72 f0 3c af d0 fd 3d
       0.032088585 0.10686484 0.029351372 0.12393319
000370 3e 7a bb 3c 61 49 29 3d 10 b5 06 bd b1 7e 85 3d
       0.022885438 0.041329745 -0.03288752 0.06518305
000380 43 20 59 3d d8 08 2a bd 70 27 24 3d 22 a5 0b bd
       0.053009283 -0.04151234 0.040076673 -0.03409303
000390 c5 6c 0f 3d 99 96 fb 3d 81 4e 99 bd ed 5a 07 3e
       0.03501584 0.122845836 -0.074856766 0.13218279
0003a0 af 95 ad bd fe 14 0d 3e 60 ac b9 bd e3 36 79 3c
       -0.084758155 0.13777539 -0.09066081 0.01521084
0003b0 3d 51 a4 3d ca ec aa bd f1 e0 96 3d d7 8d ed 3d
       0.080233075 -0.08345945 0.07367123 0.115993194
0003c0 48 df 65 3c ab 5e 58 3d 1d c6 f2 3d 46 2d 86 3d
       0.014030285 0.052824657 0.11854193 0.06551604
0003d0 41 b7 bf 3d ce ec 55 bd d5 6d c3 bc 0a 02 e8 bc
       0.09361125 -0.052227788 -0.023856083 -0.028321285
0003e0 42 31 e9 3d b1 e2 90 bd 02 b7 2f bd 19 2a d1 3c
       0.11386348 -0.07074488 -0.04289914 0.025532769
0003f0 92 b0 c7 bc f9 be b2 bd 4e af 9e bd 55 d7 02 bd
       -0.024376187 -0.087278314 -0.077482805 -0.031943638

convs.0.nn.0.bias f4 [64]
000000 d6 f6 dc bd e3 52 ec bd d3 f9 07 3d c3 08 50 bd
       -0.10789268 -0.11539247 0.033197235 -0.050789606
000010 1c 97 41 3c 21 e3 24 3e 97 77 6d 3e af d2 2c 3e
       0.011815812 0.16102268 0.23190151 0.16877244
000020 1b ba 8a 3c 10 ff dc bd 07 14 ef 3d d5 8f 8d bd
       0.016934445 -0.10790837 0.11673742 -0.069121994
000030 b9 e9 a1 3c 09 ef 1e be f1 bb e0 bb ef 82 8e bc
       0.019764768 -0.15520872 -0.006858342 -0.017396418
000040 18 e0 2a 3d 71 d3 ea bd 16 c9 02 3e 8a b6 10 bc
       0.04171762 -0.114661105 0.1277202 -0.008832583
000050 e8 ad 0f 3e d8 6a bb 3d 4a f4 9c 3d a3 2d 36 be
       0.14031184 0.09151238 0.07663782 -0.17790847
000060 5d ac 30 bd 85 91 7c bd d3 2b e1 3d 13 fc 2e bd
       -0.04313313 -0.061662216 0.10994687 -0.042720865
000070 8d c1 38 3e 3e d7 90 3d 0b 56 5e 3d ed 69 ed bd
       0.18042584 0.07072304 0.054281276 -0.11592469
000080 60 db d7 3c b4 83 c9 bd 97 28 85 bd ec fe 01 3d
       0.026349723 -0.098395735 -0.065018825 0.031737253
000090 fc f1 70 bd 8e ad 9c 3c 49 05 e1 3d 0a 73 e1 3d
       -0.058824524 0.019125726 0.10987336 0.1100827
0000a0 26 c8 ed 3a e1 16 07 3e aa 7f d9 bd e2 da 99 3d
       0.0018141314 0.13192321 -0.10620053 0.07512452
0000b0 d7 92 0d 3e b6 17 dc bd 06 cc 9c bc 71 92 99 bd
       0.13825546 -0.1074671 -0.019140255 -0.074986346
0000c0 d5 67 ee 3c 73 8d 36 3e bc 88 84 be 41 8c 09 be
       0.029102245 0.17827396 -0.2588557 -0.13432409
0000d0 fe a0 c6 bc 7b db 08 3c 88 2d 65 3d 53 2f d5 3d
       -0.024246689 0.0083531095 0.055951625 0.10409417
0000e0 4f 46 df 3d 2a 33 85 bd 0c 83 1d bc 4c 16 77 bd
       0.10902082 -0.065038994 -0.009613764 -0.060324
0000f0 25 c7 ab 3c b7 43 66 bc 81 b3 83 3d b1 af 84 3e
       0.020968983 -0.01405423 0.06430722 0.25915292

convs.0.nn.2.weight f4 [64, 64]
000000 bc 1d c4 3d ef ac 4b 3c 6a 50 a1 bd 1b 64 1d 3c
       0.09575984 0.012431367 -0.07876666 0.009606387
000010 0f f4 1d 3d e8 3c e8 3d f5 df 13 3e 28 c8 5a 3b
       0.03856283 0.11339742 0.14440902 0.0033383463
000020 3e f5 d5 bd 8e d6 4f 3d 33 fc 11 bd 74 1e 8c bd
       -0.10447167 0.050741725 -0.035640907 -0.06841746
000030 ce 97 28 bc 54 b8 55 3c 8f 67 a6 3d 10 44 73 3c
       -0.010290099 0.0130444355 0.08125221 0.01484777
000040 5d 3d 03 3e 9d 4b 82 3d 7a 24 56 3d 0c 09 05 3e
       0.12816377 0.06362078 0.05228088 0.12991732
000050 85 e1 64 3d 3b 42 d8 3b 1d 25 bd bd 32 56 16 be
       0.055879135 0.006599692 -0.092355944 -0.14681318
000060 86 d7 93 3d d5 20 d1 3c 83 a5 05 3d f9 42 e9 bd
       0.07218842 0.02552835 0.032628547 -0.11389727
000070 40 10 fd 3d 3c 25 f4 3d 1e b1 94 3d 49 cb a5 3d
       0.12356615 0.119211644 0.07260345 0.08095414
000080 ef 24 a2 3d a2 49 40 bd 59 9a 5d 3c d5 37 b2 3d
       0.07917201 -0.04694522 0.013525569 0.08702055
000090 ff 88 08 3e 94 3f f6 bc 27 25 c9 3d 5c bf 0c 3e
       0.1333351 -0.030059613 0.09821539 0.13744873
0000a0 10 6c b1 bd ee 99 28 3e 29 3e 64 3d b0 6c 02 be
       -0.086631894 0.1646497 0.055723343 -0.12736773
0000b0 8d 77 bd bd 1c 60 ff bd a5 58 8b bc cb ae 4f bd
       -0.09251318 -0.12469503 -0.017010042 -0.050703805
0000c0 dd bf 8e 3d 77 2d f4 3d c4 fe 30 be 95 4d a5 3d
       0.06970189 0.11922734 -0.17284685 0.08071438
0000d0 ee 70 d8 3d b5 20 b9 bd f3 df 99 bd 59 12 af 3d
       0.10568415 -0.090394415 -0.07513418 0.085484214
0000e0 4b 3a b8 bd 1e 8b ac bc f0 32 38 3e 95 c6 e5 3b
       -0.089954935 -0.02106243 0.17988181 0.007012198
0000f0 fd dd 24 3e e4 ba dc bc 90 b4 c8 bd bd c2 c4 3b
       0.16100307 -0.026944585 -0.098000646 0.00600466
000100 4a 7b 10 be 75 60 2e 3d 3e da 14 3b 89 f2 18 be
       -0.14109531 0.042572457 0.002271309 -0.1493627
000110 69 f3 74 bd 7e 7f 9c 3d ac 27 d3 3d ba 22 51 bd
       -0.059802447 0.07641505 0.10310301 -0.05105851
000120 9d c4 18 be 0d a6 37 bd 52 48 7a ba ee 86 da bd
       -0.14918752 -0.044836093 -0.000954752 -0.10670267
000130 8b bf 05 3e b9 f8 09 3e 63 55 e0 3c a0 4c bb bd
       0.13061349 0.13473786 0.027384466 -0.091454744
000140 31 e3 f0 bc 44 02 a4 3c 1e 0d 4c 3e 6d d3 4c 3c
       -0.029405208 0.020020612 0.19926879 0.01250158
000150 e5 65 b9 bd 64 9d cb bb 31 df 53 3d 02 5e 1a 3e
       -0.09052638 -0.006213831 0.051726524 0.15074924
000160 aa c4 0b be 2d 90 9e 3d 43 ce 05 3e 97 1d 28 3d
       -0.1364924 0.07742343 0.13066964 0.041043844
000170 97 c2 26 bc a1 28 29 3d 8d 08 df bd 5a d2 94 3d
       -0.01017823 0.041298512 -0.10890303 0.07266684
000180 c5 e6 10 3e 48 a5 c6 3d 50 c3 24 3d 48 86 b7 3d
       0.14150532 0.09699494 0.040225327 0.08961159
000190 68 bb 35 bd 65 04 4d be 39 a8 c3 3d 66 e0 b9 bd
       -0.044368178 -0.20021208 0.0955357 -0.09076004
0001a0 66 62 8b bd 22 7d c6 bb 3c a6 8c be eb eb a2 bd
       -0.068058774 -0.0060573975 -0.27470577 -0.07955154
0001b0 42 ba 66 3d 82 0e 66 bd ba 22 d7 bd 3b 8f 0c be
       0.056329973 -0.05616618 -0.105046704 -0.13726513
0001c0 65 7a f0 bd 60 21 2c bd dd 52 ff 3d aa 54 17 3c
       -0.11742095 -0.042024016 0.12466977 0.009236494
0001d0 5f fe 2e 37 fb 42 8b bd 39 7f 9f bd 3e d0 30 3d
       1.0430434e-05 -0.06799885 -0.07787938 0.043167345
0001e0 33 00 3f be 06 1b b2 bd 43 67 52 bd e8 f9 70 bd
       -0.1865242 -0.086965606 -0.05136801 -0.05883208
0001f0 59 24 80 3d 71 96 d2 3c b6 97 6d 3d 2e 35 f8 bb
       0.06256933 0.025706502 0.05800601 -0.007574699
000200 32 5d af bd ac 11 bb bc 14 3c 01 3c 07 c7 99 bd
       -0.085626975 -0.022835575 0.007887859 -0.075086646
000210 3b ea 26 bd ec 8d 03 bd 46 cf 13 be fe 28 a1 3d
       -0.040750723 -0.03211777 -0.14434537 0.07869147
000220 8f c7 cd 3b 81 02 0e 3e 6a 9e f0 bc af 79 eb bd
       0.0062798928 0.13868143 -0.029372413 -0.11497819
000230 3e c6 55 3b e0 c9 3e 3d 93 58 2a bc 0a ac 17 3c
       0.0032619382 0.04657924 -0.010397094 0.009257326
000240 2b 12 5c bd eb 99 06 3c 70 cc 52 3d 24 0c 3c 3c
       -0.053728264 0.008215408 0.051464498 0.011477504
000250 28 d5 b3 3d c2 15 d1 3d 97 2c ed bc 50 c6 9e bd
       0.08780891 0.10209228 -0.028951926 -0.07752669
000260 f7 84 8d bd 07 2f 7b 3b 8d 67 38 bd f6 60 93 3d
       -0.06910127 0.003832759 -0.04502063 0.07196228
000270 47 03 ca 3d 4f ff 98 bd d7 83 ce 3c cf 8e 05 bd
       0.09863906 -0.07470571 0.02520935 -0.032606896
000280 51 3f 8f 3d 2c 50 91 bd f6 49 eb bd 9c 3a bd 3d
       0.069944985 -0.0709537 -0.11488716 0.092396945
000290 17 ad cd 3b c4 ec 98 bb dc f9 11 be 1f 83 12 3d
       0.0062767374 -0.0046668965 -0.1425547 0.035769578
0002a0 90 9a 93 bc 88 da ae 3d a6 98 a7 3d 5d 69 14 3c
       -0.018018037 0.08537775 0.08183412 0.009058324
0002b0 d8 4a a6 3b 75 c4 b4 bd 7a 7e c9 bc f5 e4 19 bd
       0.00507484 -0.08826534 -0.024596442 -0.037571866
0002c0 22 d4 ea bc 9d d7 d0 3d e2 b2 4d bd 95 7b d6 3d
       -0.028665606 0.10197375 -0.050219424 0.1047279
0002d0 15 8e ed 3d dd c0 b7 bc c7 c1 16 3e 27 84 f1 bd
       0.115993656 -0.022430832 0.14722358 -0.11792784
0002e0 c9 b5 82 3d e1 d1 73 3d cb e0 a3 3d 27 51 02 be
       0.06382329 0.059526328 0.0800186 -0.1272627
0002f0 a6 a2 0d be ae d8 07 3e 81 b6 78 3a 75 5d 0a bd
       -0.13831577 0.1326625 0.00094876444 -0.033780534
000300 9f b9 a8 bc b1 bf df 3d fb cd e3 bd fe 8c ae 3d
       -0.020596324 0.10925234 -0.11123272 0.08522986
000310 7c 1b 8c bd a8 c3 99 3b 9a fd 41 3d 23 e3 d8 3d
       -0.0684118 0.0046925135 0.047360994 0.10590198
000320 cb 64 34 bd 2f 83 0a 3e 03 f4 f1 3c 6b 22 54 3c
       -0.044041436 0.13526605 0.0295353 0.012947659
000330 6a 6e 38 bd 7d 8b 0a be 34 61 25 bd fa ec bd ba
       -0.045027174 -0.13529773 -0.040375903 -0.001449018
000340 df 06 93 3d 6b f1 bf 3d 72 51 87 3c 81 81 c9 bd
       0.07179045 0.09372219 0.016518328 -0.09839154
000350 11 ce 7e 3d 48 10 23 bd a3 9e 0a be ce 56 d2 3d
       0.06220824 -0.03981045 -0.13537078 0.10270463
000360 51 0d 26 3d 63 2e 1e 3d 29 a2 ac 3d 20 bb 24 bc
       0.040540043 0.038618457 0.08429367 -0.01005438
000370 c3 5d 29 3d 94 8e 95 3d 7e 76 2d 3e 01 d3 33 bc
       0.041349184 0.07302585 0.16939732 -0.0109756
000380 6b fd e4 3d f8 18 7c 3d aa f2 0d 3d 60 61 93 bd
       0.11181148 0.06154725 0.03465525 -0.07196307
000390 85 f7 6e bd 97 63 60 3d 72 03 fc 3c b7 05 1e bd
       -0.05834152 0.054782476 0.030763362 -0.03857967
0003a0 f8 dd cb bc 2f 6b d5 bd 84 4e bd 3d 5c 4f 61 bd
       -0.024886116 -0.10420834 0.09243491 -0.055007324
0003b0 aa d5 8a bd 92 a7 83 3d 69 a4 3f 3d 27 92 9b bd
       -0.067790344 0.06428446 0.046787653 -0.07596236
0003c0 4b 1f 80 bd 44 0c 22 3e d7 41 80 bd 14 9e b9 3d
       -0.06255969 0.15824991 -0.06262558 0.09063354
0003d0 51 c7 3b 3d 7e 4d 3e bc 32 fe 2d 3c 4c 7f 5e bd
       0.04584438 -0.011615155 0.010619687 -0.05432062
0003e0 b4 9d c6 3c 2c 2f ae 3d 49 e6 f0 bd 8f 51 ac 3d
       0.02424512 0.08505091 -0.117626734 0.084139936
0003f0 87 d1 c2 ba 17 b6 07 3e 06 d3 1e 3e 3b 71 34 3e
       -0.0014863469 0.13253056 0.15510187 0.17621319

convs.0.nn.2.bias f4 [64]
000000 c3 a8 c2 3d f9 74 e3 3d 7a 1d 43 3d b7 be 41 3e
       0.09504845 0.11106295 0.047635533 0.18920408
000010 6e 25 69 bd 6c 3d b4 bd d4 68 16 3e 74 4a 5c bd
       -0.05692046 -0.08800778 0.14688426 -0.05378194
000020 80 0e e4 3d db 9e ac bd e5 63 d0 bd 2a e7 f9 bb
       0.11135578 -0.08428737 -0.10175303 -0.007626434
000030 fe f7 09 3e 2c ec ef bd a3 7a c9 bd 2f dd fa bc
       0.13473508 -0.11714968 -0.09837844 -0.030623047
000040 b4 9e 82 bd 4e 42 8e bd 17 41 a2 bd bf 44 7c bd
       -0.063779265 -0.0694624 -0.07922571 -0.061589
000050 78 ec 88 3d d9 50 a2 bd df e1 9e 3d d6 77 e1 3d
       0.06685728 -0.07925577 0.07757925 0.11009185
000060 d1 58 ed bd 7d 55 92 3d 4f 5a ee 3c 6c 6b 05 be
       -0.11589206 0.07145212 0.029095797 -0.1302926
000070 db 31 b4 3d 05 74 7d 3d 5d 0e 1e bd cb b8 ad 3d
       0.08798572 0.061878223 -0.038587917 0.08482512
000080 fa b7 0a 3e 97 b5 00 3e 73 f4 d9 bc e8 35 c1 bd
       0.13546744 0.12569271 -0.02660582 -0.0943411
000090 c5 7b 30 3d 3e cd 59 3b 37 f6 f9 3c bd 67 8d bd
       0.043086786 0.0033233906 0.030512912 -0.06904552
0000a0 36 db be bd 18 59 06 3c e7 7e c6 3d da 5f a0 3d
       -0.09319155 0.008199953 0.096921735 0.07830782
0000b0 dc 7c 93 bd 01 10 b8 3d 3a 40 c6 bd ee f2 18 3d
       -0.072015494 0.089874275 -0.09680219 0.03734105
0000c0 98 07 10 be 3d c6 da bc 31 ea c3 3d a0 aa 53 bd
       -0.14065397 -0.026705856 0.09566153 -0.051676393
0000d0 52 7a 7a 3d e0 48 c6 bd 23 b0 88 bd 0b cb 27 3e
       0.06115181 -0.096818686 -0.066742204 0.16386048
0000e0 75 cd e2 3d 66 9c 4e bd 09 5c e9 3d 2b 48 1c 3d
       0.11074344 -0.050442122 0.113945074 0.038154762
0000f0 67 65 34 3d d7 bb 92 bd 4d c7 4a 3e c3 7b 10 3e
       0.044042017 -0.07164734 0.1980259 0.14109711

convs.0.nn.4.weight f4 [64]
000000 08 7f 78 3f 62 db 83 3f ab a9 88 3f 64 16 88 3f
       0.97068834 1.0301325 1.0676779 1.0631833
000010 59 69 7a 3f d6 ff 80 3f 32 f0 80 3f fe 56 88 3f
       0.97817 1.0078075 1.0073302 1.0651548
000020 da 4a 7c 3f 16 10 81 3f 27 c6 72 3f 4b 53 78 3f
       0.98551714 1.0083034 0.94833606 0.97002095
000030 b8 f2 73 3f 46 7b 78 3f f7 4e 79 3f 7c 9d 82 3f
       0.95292234 0.970631 0.97386116 1.020431
000040 1d 9c 70 3f 1f 06 7b 3f 14 29 79 3f 44 f0 70 3f
       0.9398821 0.98056215 0.97328305 0.94116616
000050 c2 fc 78 3f 1c 84 70 3f 86 b8 8d 3f fa 68 89 3f
       0.9726068 0.9395158 1.1071937 1.0735161
000060 df b7 74 3f f9 47 78 3f c6 c9 73 3f 23 50 78 3f
       0.95593065 0.9698482 0.95229757 0.9699728
000070 d2 3f 78 3f f3 78 7c 3f 3e 27 6f 3f 7a 42 84 3f
       0.9697238 0.98622054 0.93419254 1.0332787
000080 61 4d 82 3f 7d f9 6e 3f d7 e0 82 3f 43 dd 8b 3f
       1.0179864 0.9334944 1.0224866 1.0926899
000090 99 1e 73 3f 85 23 7a 3f e3 9f 7b 3f 69 4d 81 3f
       0.94968563 0.9771045 0.9829084 1.0101749
0000a0 28 4c 7b 3f db 60 80 3f 35 18 8b 3f 1e 71 7b 3f
       0.9816308 1.0029558 1.0866762 0.9821948
0000b0 0e 4f 79 3f 36 dd 9b 3f e6 4c 7f 3f 7c ad 7f 3f
       0.9738625 1.2176883 0.9972671 0.9987409
0000c0 c8 93 71 3f d8 54 89 3f b6 64 72 3f a9 30 88 3f
       0.9436612 1.0729017 0.9468492 1.063985
0000d0 b0 f2 8d 3f 91 e1 7f 3f 38 5c 6e 3f 6f 34 79 3f
       1.1089687 0.9995356 0.93109465 0.9734563
0000e0 5d 22 71 3f fe b9 5f 3f ad 3e 80 3f 89 3f 72 3f
       0.9419306 0.87393177 1.0019127 0.94628197
0000f0 bb b3 61 3f c0 c5 83 3f c9 ea 88 3f 75 84 75 3f
       0.8816487 1.0294724 1.0696651 0.9590524

convs.0.nn.4.bias f4 [64]
000000 3c 98 73 bd 16 af 9b 3c 3e eb 08 3d 37 67 92 3c
       -0.059471354 0.019004386 0.03342747 0.017871482
000010 94 03 b7 3c 59 ef 00 be ae 83 60 bd 5d fe 17 bd
       0.022340573 -0.12591304 -0.05481308 -0.037107814
000020 ef 2f 29 bd 5a de bb 3d 56 6d d5 bd ab 7c 12 3d
       -0.04130548 0.091732696 -0.10421245 0.035763424
000030 a7 fb 5f bd dc 84 9f bc cd 0b f8 3d 0a e5 1f be
       -0.054683354 -0.019472532 0.12111626 -0.15614715
000040 56 62 bc bd e8 3d d5 bd 2d 20 cf 3c be 6e c4 bd
       -0.091984436 -0.10412198 0.025283897 -0.09591435
000050 d7 4e 56 3d 5c 52 9c 3c d5 69 31 3d 67 f6 a0 bc
       0.05232128 0.01908224 0.04331382 -0.019648744
000060 4a aa e5 bd f0 ed 3a bd 85 b5 9a bd 2f 3c 1a 3d
       -0.11214121 -0.04563707 -0.07554153 0.03765505
000070 08 08 5d bd 51 53 04 be 24 78 90 3d f1 d7 a9 bd
       -0.053962737 -0.12922408 0.07054165 -0.08293141
000080 0c de fe 3c 2e 69 82 3c 74 89 78 bc 2d 04 49 bd
       0.03111174 0.015919294 -0.01516949 -0.049076248
000090 0f ae 98 3c 70 41 70 bd 6e 09 23 3b 89 69 31 bc
       0.018637685 -0.058656156 0.0024877447 -0.010828384
0000a0 fe dd 71 bc 8f d4 b4 bd 99 5f 82 bd b6 1e b3 3d
       -0.0147624 -0.08829605 -0.0636589 0.08746092
0000b0 a6 cd e6 3c 1b 41 05 bd 89 16 db bc b3 e6 a3 bd
       0.028174233 -0.032532793 -0.026744144 -0.08002987
0000c0 76 be 1a bd 7e a4 d2 3d 1f 57 aa bd 90 c5 1e bd
       -0.037779294 0.10285281 -0.08317398 -0.03876263
0000d0 2b 3c 1a 3d 9f 60 5f 3c 99 f8 1a 3d 98 dd 91 bc
       0.037655037 0.013633876 0.037834737 -0.01780586
0000e0 14 fe b6 bd 98 90 3a 3d 2c 59 f1 bd 33 97 90 bc
       -0.0893518 0.04554805 -0.11784586 -0.017650222
0000f0 8b 3c b6 3c d4 d9 e9 3c de aa 8c 3d d9 13 f7 bc
       0.022245666 0.028546251 0.06868528 -0.030160831

convs.0.nn.4.running_mean f4 [64]
000000 70 3f 71 3f 9b ec 63 3d c6 9d 8c 3e b7 3e a3 3f
       0.9423742 0.055645566 0.27464122 1.2753514
000010 b7 20 a7 3e fe 24 e5 3f 64 08 50 3f 3a a1 e0 3f
       0.32642147 1.7901914 0.81262803 1.7549202
000020 c4 bb 3f 3f a4 23 45 3f 27 2c de 3f f5 ae 82 3f
       0.7489588 0.7700751 1.7357224 1.0209643
000030 47 5c f3 3e e0 02 0e 3f db fd be 29 08 53 d3 39
       0.4753134 0.55473137 8.481732e-14 0.0004030692
000040 d0 3a db 3f c3 ce fb 3e 86 b2 0f 28 5d 97 37 3f
       1.7127323 0.49181184 7.976806e-15 0.7171534
000050 a9 b4 96 3f 02 1d 15 35 7b 24 92 39 44 66 2b 3c
       1.1773883 5.554904e-07 0.0002787447 0.010461394
000060 dd dc 48 3f cd d9 cd 3e 5b 41 e2 3f 46 8d 78 2c
       0.7846201 0.4020523 1.7676195 3.5321342e-12
000070 06 74 9f 3f d2 82 fa 3e 26 aa 65 3e cd c4 a0 3f
       1.2457283 0.48927933 0.22428188 1.2560059
000080 7b 8e 40 3f e3 d8 f0 3f d8 ed f0 2f 9a a4 73 3e
       0.7521741 1.8816189 4.3824744e-10 0.2379326
000090 3c 85 8e 3f 26 6b 7f 3e 1c 1c f1 3e 04 d3 88 3f
       1.113441 0.24943218 0.47091758 1.0689397
0000a0 59 e1 e9 2e c1 68 0c 40 e3 f6 e9 3e 48 10 46 30
       1.0635643e-10 2.1938937 0.45696172 7.205512e-10
0000b0 e7 14 83 2b 60 e7 d0 3b 06 49 20 3e d6 86 9e 3b
       9.313911e-13 0.0063752383 0.15652856 0.004837851
0000c0 ad de 94 3f 21 1c 0f 3f 68 31 be 3f 75 8b a8 3e
       1.1630455 0.55902296 1.4858828 0.32918897
0000d0 82 d1 98 3f 35 87 c5 33 03 8b 90 3e 5f a3 c4 3f
       1.1938937 9.1981214e-08 0.28231058 1.5362357
0000e0 69 3f 99 3f 1a 76 21 3e 93 a4 2e 3f 0f 78 38 3f
       1.1972476 0.15767708 0.6821987 0.72058195
0000f0 18 42 eb 3f 53 c0 a2 2e eb 6d 60 3e 22 60 a1 3f
       1.8379545 7.401071e-11 0.2191693 1.2607462

convs.0.nn.4.running_var f4 [64]
000000 0d 7e 8a 3e 47 5d 4f 3c 92 74 90 3e 56 e4 b2 3e
       0.27049294 0.012656516 0.28213936 0.34939831
000010 7f 78 eb 3e 4a 8d 15 40 61 72 cd 3f 70 c0 c5 3f
       0.4599037 2.3367486 1.6050531 1.5449352
000020 18 5f c7 3e 59 4b 3b 3f 8e 62 cd 3f 61 32 d9 3e
       0.38939738 0.73161846 1.6045702 0.4242125
000030 22 7e 50 3e f8 2d fc 3e 68 7e b0 32 9b d7 92 39
       0.20360616 0.4925382 2.054658e-08 0.0002800793
000040 28 f2 99 3f 1e 1d 72 3f 68 7e b0 32 e1 a7 50 3f
       1.2027025 0.9457568 2.054658e-08 0.8150616
000050 7f bf 25 3f ca 04 fe 32 db f2 06 38 a6 aa 12 3b
       0.64745325 2.957167e-08 3.2174266e-05 0.0022379546
000060 bd 5f 7e 3f dd fd 12 3f 7c bf 5f 40 80 7e b0 32
       0.99364835 0.57418615 3.4960623 2.0546622e-08
000070 65 8c af 3f 25 a4 b8 3e 58 1f 3a 3e c3 bb fe 3f
       1.371472 0.36062732 0.18176019 1.990105
000080 e4 e4 b2 3e 11 2b 56 40 82 e3 b0 32 ba d0 89 3e
       0.34940255 3.3463786 2.0592555e-08 0.26917058
000090 73 e5 84 3f 09 07 73 3e cb c1 4b 3f 2f 83 f3 3f
       1.0382522 0.23733152 0.7959258 1.9024409
0000a0 87 92 b0 32 a8 ce 06 40 d9 e8 3d 3f 28 d5 b0 32
       2.055573e-08 2.1063633 0.7418342 2.0586029e-08
0000b0 70 7e b0 32 7e 73 63 3a 35 0d f3 3d 2e c6 42 3b
       2.0546594e-08 0.00086765725 0.118677534 0.0029720175
0000c0 21 b2 07 40 7f 53 85 3f c9 b7 fc 3f 6f 2e e9 3e
       2.1202471 1.0416106 1.9743587 0.4554324
0000d0 58 0b 7b 3f 05 6a 07 33 7c 35 b3 3e 44 c0 f8 3f
       0.98064184 3.152856e-08 0.35001743 1.9433675
0000e0 f9 4c cf 3f 40 a6 b2 3d c3 45 a4 3e 81 46 ee 3e
       1.6195365 0.08723116 0.32084474 0.46538165
0000f0 da 85 87 40 07 8d b0 32 34 49 84 3d e9 b3 f0 3f
       4.2350893 2.0553228e-08 0.06459275 1.8804904
