saved_models/gin_NCI1.model (torch, 123711 bytes, 28 tensors)

conv1.nn.0.weight f4 [64, 37]
000000 a9 4b c8 3e 75 cd 83 3e 85 23 79 3e f4 16 70 3e
       0.39120224 0.2574269 0.24329956 0.23446256
000010 44 e2 ef 3c 15 a9 15 3f 1f 5c 27 be 1a e0 aa 3b
       0.029282697 0.58461124 -0.16343735 0.0052147033
000020 09 b8 dd 3d 4a 59 ec bd 47 ea ec bd d0 c8 ce bd
       0.108261175 -0.11540468 -0.11568122 -0.10096896
000030 ef bb 84 bd 28 36 49 bd 8a 1d e2 bd 9c 84 19 be
       -0.06481158 -0.049123913 -0.110407904 -0.14991993
000040 7d 49 9f bd 28 ca 96 3d d9 55 c8 3d 99 f2 46 be
       -0.07777689 0.07362777 0.09781999 -0.19428481
000050 07 7a 2b 3d 91 08 46 be 1f 0f 15 be 75 3c 1a be
       0.04186442 -0.19339205 -0.1455655 -0.15062125
000060 32 65 68 3d e6 b5 13 3e aa b6 d2 be c4 82 8d 3d
       0.056737132 0.14424857 -0.41154987 0.06909707
000070 b3 ef 9d bd c1 74 cc 3e 06 f8 d3 3e ab 4e 79 3f
       -0.077117346 0.39932826 0.41400164 0.9738566
000080 20 90 d1 bd ea cf 13 be 79 87 1c 3d 86 44 5a 3d
       -0.10232568 -0.14434782 0.038215134 0.053288005
000090 3b 42 d9 3d 6f f4 0a 3e 02 ca 13 bd 05 e4 98 bb
       0.106083356 0.13569807 -0.03608132 -0.004665854
0000a0 57 c8 02 3e 13 ea e1 be 61 41 51 3f 3a 97 95 be
       0.12771736 -0.44123897 0.81740385 -0.2921694
0000b0 4b f7 4e 3f 3d 76 90 3e b7 ab bb be da e1 47 3f
       0.8084609 0.2821521 -0.36654446 0.78079
0000c0 99 59 0d bf ba 71 58 3e 79 aa a8 be da 4a f5 3e
       -0.5521484 0.21137133 -0.3294256 0.4790867
0000d0 c1 fb 8c 3e 9d 1c a2 bd 14 27 e5 3e b2 55 1f 3e
       0.27535823 -0.07915614 0.44756377 0.15560034
0000e0 bd 2d c4 3e 75 81 0b bf 7e 8f 83 be 39 c0 18 3f
       0.38316146 -0.5449441 -0.25695413 0.5966831
0000f0 03 26 07 3c 23 09 10 3f 0c 6c b1 be 4f 4f 34 3d
       0.008248809 0.5626394 -0.34652746 0.044020947
000100 64 85 b0 bc 81 77 aa be 02 43 00 3f 16 6f 5a 3c
       -0.02154798 -0.332943 0.50102246 0.013332149
000110 f7 26 be be 9c 20 16 3d db 96 3b bd dc 6a af 3d
       -0.37139103 0.036652192 -0.045798164 0.08565304
000120 43 5a 03 3f 65 db 04 3f ff bb 13 bf 38 7b 37 be
       0.51309603 0.5189727 -0.57708734 -0.17918098
000130 a7 99 8a be db 91 17 3f 64 8e 8a be f6 08 1f 3d
       -0.27070352 0.5920693 -0.2706176 0.038826905
000140 cc 13 fc bc 73 03 c9 bd f9 10 c0 bd ee 33 84 bc
       -0.030771159 -0.09815111 -0.09378237 -0.016138043
000150 63 7e 20 be 0b a9 8a 3d 24 95 ca 3e b0 7a bf bd
       -0.15673213 0.06770524 0.3956691 -0.09349573
000160 ef 98 ed bd 72 b4 c4 bd 3a 02 0e 3e 78 e0 da 3e
       -0.116014354 -0.0960473 0.13868037 0.4274938
000170 85 e6 7a bd 25 72 ae 3e a0 56 d4 bd 0d a2 1e be
       -0.061254997 0.3407146 -0.10368085 -0.15491505
000180 a8 02 14 be 0e ed fc 3d 62 24 ef bc 77 38 b7 3e
       -0.14454138 0.12349902 -0.029192153 0.35785267
000190 21 66 84 bd 0a 1c fe bd b0 53 23 3e 7a e2 da 3e
       -0.06464792 -0.12407692 0.15949893 0.42750913
0001a0 08 d7 ad bd bb c1 e7 bc 9b c7 18 be 57 cd 95 bd
       -0.084882796 -0.02829062 -0.14919893 -0.07314556
0001b0 8f 83 bc bd f8 9e 96 bd 06 df 8f 3d e4 0a aa be
       -0.0920478 -0.0735454 0.0702496 -0.33211434
0001c0 88 86 85 b9 fa 43 ed be 06 a4 54 be 44 7f 05 be
       -0.0002546797 -0.46340925 -0.20765695 -0.13036829
0001d0 05 99 2b 3e 0b 7d 80 bd 02 ec 55 be 80 d9 ee 3e
       0.16757591 -0.0627385 -0.20890811 0.46650314
0001e0 92 bd 2c be 1a 0c 47 3f 7d 2a 5b be 84 3c 06 3f
       -0.1686919 0.7775284 -0.21402927 0.5243609
0001f0 4a c9 37 be 92 e0 5d 3e 6d f0 25 3f bb e3 05 3f
       -0.1794788 0.21667698 0.64819986 0.52300614
000200 2a b7 03 3f e9 08 1e be 72 7d cc 3c 19 07 46 be
       0.5145136 -0.15433086 0.02496216 -0.19338645
000210 20 5f f4 bd a7 90 08 3f a1 39 8b bd f0 c7 16 be
       -0.11932206 0.5334572 -0.06798101 -0.14724708
000220 ee d3 07 be 5b cf 46 bd 53 4e 98 3d 66 ce 95 be
       -0.13264439 -0.048537593 0.07436814 -0.29259032
000230 f2 6b 16 3e bc b3 ad 3e 7f 8d 5f be f3 9d 26 be
       0.14689615 0.3392619 -0.2183132 -0.1627119
000240 09 8c 84 be f6 a0 19 3e 97 be 8e be 86 4a ca 3d
       -0.25888088 0.15002808 -0.27879784 0.098774955
000250 e3 a3 0f bf 74 07 4a be cb 45 99 be a3 49 31 bf
       -0.56109446 -0.19729406 -0.2993606 -0.69252986
000260 d5 41 8a 3e 8c a3 05 3f c8 95 31 3d 20 15 72 be
       0.2700335 0.5220268 0.043355733 -0.23640871
000270 5a d3 11 bf 38 34 8c 3e 04 0f 17 3f 42 06 9e be
       -0.5696312 0.2738359 0.5900729 -0.3086415
000280 82 4c cf 3e bf e6 82 be 80 70 8e bc bb f6 eb 3e
       0.40488058 -0.2556667 -0.017387629 0.46086678
000290 2c e6 b0 3e ef 05 fa 3e 75 a3 ee be 65 99 e9 3d
       0.34550607 0.48832652 -0.46609083 0.11406211
0002a0 e9 c4 92 3e b3 e0 1b be 9c af 04 3f d3 04 a5 bd
       0.28665856 -0.15222435 0.5183046 -0.08057561
0002b0 de 7d b7 bd c4 47 0e be dd 50 f9 bd c8 14 9f be
       -0.08959554 -0.13894564 -0.121736266 -0.31070542
0002c0 23 b3 8a be f1 5c 90 3e 01 b2 7f be e5 73 20 be
       -0.27089795 0.2819591 -0.24970247 -0.1566921
0002d0 c1 3c aa be ca b5 8d be 31 ff 67 be 44 d9 62 bd
       -0.33249477 -0.27677757 -0.22655942 -0.055382982
0002e0 64 eb 98 3b d7 f7 15 3d 53 de 2f bc f3 2d 6b bd
       0.0046667326 0.03661331 -0.010734159 -0.057416867
0002f0 dd f8 db bd c3 ad 21 bd fa 49 18 be 02 b4 f1 bd
       -0.10740826 -0.039472353 -0.1487197 -0.11801912
000300 69 de e0 bd 64 a3 5b 3d 2e ef 04 3e 49 76 dd bd
       -0.10979921 0.05362262 0.12981865 -0.10813577
000310 a9 10 01 3d d4 c7 fb 3d 71 f3 3c 3d 43 cd cc bd
       0.03151003 0.122939736 0.0461306 -0.10000088
000320 68 cf 43 3d 8f b5 f3 bd 1c 4b 16 be 31 3a 87 3d
       0.04780522 -0.11899864 -0.1467709 0.06602896
000330 13 cd 89 3d 0a 8e ea 3d 56 44 3a bd a4 42 de 3d
       0.06728568 0.11452873 -0.045475326 0.108525544
000340 d9 aa 8f 3c 35 52 12 3e 9e e7 ef bc 18 b1 09 3e
       0.017537521 0.14289172 -0.029285248 0.13446462
000350 e1 61 02 be a3 02 00 bd d5 24 04 be 48 ef f5 bd
       -0.1273265 -0.031252515 -0.12904675 -0.1200853
000360 68 2f 24 be 40 76 ac 3d c8 6b a6 bd bc a8 0a 3e
       -0.16033709 0.08420992 -0.081260264 0.1354093
000370 37 a3 da bd d1 4f 2b 3d 3b cf 66 bd 00 44 a8 3e
       -0.10675662 0.041824166 -0.056349974 0.3286438
000380 a2 d0 99 3e 34 89 2c be 40 3b 89 be 25 0c 71 3e
       0.30041987 -0.16849214 -0.26803017 0.23539789
000390 05 2c 96 3e f2 a5 28 bd 34 9c 17 3f 00 8d 20 bd
       0.2933046 -0.041173883 0.5922272 -0.039196968
0003a0 e0 c4 95 3e 23 a2 c2 bd db 68 d8 bd 5e a3 46 bf
       0.29251766 -0.095035814 -0.105668746 -0.7759303
0003b0 11 fe 2a 3d 51 7b a3 3d 67 21 07 be d0 a5 33 bd
       0.041746203 0.07982505 -0.13196336 -0.043859303
0003c0 ad 0e fe 3e 93 1e 25 3f 84 2e 29 bf c4 dc a5 be
       0.49620572 0.6449978 -0.660866 -0.32394993
0003d0 2d 6b 9e 3d 67 53 f0 bd 2b 6d 4e 3e 28 2d ab 3e
       0.07735286 -0.11734658 0.20158832 0.3343289
0003e0 60 7b 0c 3f 3a 36 94 bd 2b 8a 0f be 3e 7d b1 bc
       0.54875755 -0.072369054 -0.1401755 -0.021666165
0003f0 8f 44 d7 3d d2 3b c4 bd b0 b5 9e bd 47 85 7a 3d
       0.105111234 -0.09581722 -0.07749498 0.06116226

conv1.nn.0.bias f4 [64]
000000 26 4f de be 37 e2 01 3f 4b 01 aa bd e3 3f f1 3d
       -0.4341976 0.507358 -0.08301028 0.117797635
000010 78 a7 2a 3e 36 4a 56 be 18 92 07 bf c3 bc 0b be
       0.16665447 -0.20926747 -0.52957296 -0.13646226
000020 35 c5 d2 bd 4c a0 9f bd 44 e7 9f be 50 d7 d8 be
       -0.102915205 -0.07794246 -0.3123113 -0.4235177
000030 b9 b0 03 be a7 f6 bc 3d 54 26 58 3c d8 d3 b9 be
       -0.12860383 0.09226733 0.013192732 -0.36294436
000040 fb 5b 39 be af 48 bc be 03 69 c8 be 2d a3 00 be
       -0.18101494 -0.36774203 -0.39142618 -0.12562247
000050 8b e1 49 be 0d 26 a4 be 5f 16 a5 3e 8e f7 87 be
       -0.19714944 -0.3206028 0.3224363 -0.26556057
000060 e3 80 b2 bd c1 76 58 3e 57 54 38 be 28 75 be 3e
       -0.087159894 0.21139051 -0.18000923 0.37198758
000070 d0 17 f6 bd 1b 2f 26 3f a7 08 64 bd 0c 38 d9 bc
       -0.120162606 0.6491563 -0.055672314 -0.026515983
000080 07 6f a1 bc 3a 9a 85 3e 30 25 80 be ba 22 b1 3d
       -0.019706262 0.26094228 -0.25028372 0.08649202
000090 81 51 d8 3e 5c 62 b9 3e 12 81 28 be e7 ed 8b bd
       0.42249683 0.36207855 -0.16455486 -0.06832486
0000a0 99 05 10 bf 91 71 fc bc c3 bb 8a bd 7e 08 f1 3d
       -0.5625854 -0.030815871 -0.06774094 0.11769198
0000b0 3d 7a 19 3e 6f 6f d0 3e d1 7a e5 be 6c 03 cb be
       0.14988036 0.40710017 -0.44820264 -0.39651048
0000c0 08 72 c4 be 40 ee c8 3d 8c a9 82 3c 85 f4 4d 3e
       -0.3836825 0.098110676 0.015949987 0.20112808
0000d0 62 7c 71 3e c1 bb 40 3e 9f 47 da be 5b 50 5c be
       0.23582605 0.18821622 -0.42632768 -0.21515028
0000e0 c1 12 7f be d3 db c5 bd 6e 36 aa bd 68 00 57 be
       -0.24909498 -0.09661069 -0.08311163 -0.20996249
0000f0 81 e4 ab 3e 49 8c f1 be 7d 94 3f 3e 05 94 b7 3e
       0.33572772 -0.47177342 0.18708988 0.35855117

conv1.nn.2.weight f4 [64, 64]
000000 ca 6f ff 3e 17 c0 0e 3e 73 1c 1d 3f d2 43 78 be
       0.49889976 0.13940464 0.61371535 -0.24244621
000010 5b 9b 9f 3c 6a 04 28 3d 17 28 56 3d ef 7e a1 3e
       0.019483259 0.041019835 0.052284326 0.31542155
000020 bc 8b 79 bc a7 f8 f1 3d 85 af a4 3d 11 82 10 3f
       -0.015231069 0.11815005 0.0804129 0.56448466
000030 63 0d 8a be 0d 7e 96 3d 83 26 3b 3d ab 14 18 bd
       -0.26963338 0.07348261 0.045691025 -0.037129086
000040 96 da 0e be c1 8c e4 3d 22 08 6f 3f a5 47 9e 3e
       -0.13950571 0.11159659 0.93371785 0.30914035
000050 6d f1 5a 3d 44 a6 d2 3d 1f 62 07 3e 57 39 dd 3d
       0.053452898 0.10285619 0.13221024 0.10801952
000060 2c f4 37 bd 86 69 8d 3d 98 96 ca bc f2 a1 8d bc
       -0.044910595 0.069048926 -0.024730012 -0.017289136
000070 13 70 2b bd 3e 64 0d be 4b 44 80 3f ba f9 3e 3f
       -0.04185493 -0.1380777 1.0020841 0.745998
000080 95 c1 0d 3e 3f 39 c5 bc 1d f8 ad 3e 37 75 c6 3d
       0.13843377 -0.024075149 0.33978358 0.09690326
000090 30 be 52 bf 78 1b 9f 3e 46 f1 3e be 1f 73 dd 3a
       -0.82321453 0.31075644 -0.18646726 0.0016895271
0000a0 de ca 66 3e 0c fd b1 be f5 75 b5 3e 74 be 13 3f
       0.22538325 -0.34763372 0.35441557 0.57712483
0000b0 28 43 02 be aa 54 f6 3e 02 1a 0f bf dd 8e b6 be
       -0.1272093 0.4811147 -0.5589906 -0.3565587
0000c0 4a 64 b0 3e 82 c6 a2 bc 6e 8f 05 3e 3a a6 57 3d
       0.34451514 -0.019870047 0.13042995 0.05264876
0000d0 fa cf 4f 3e 70 ff 90 bd f8 1c 1a 3f 60 b9 5b bd
       0.2029418 -0.07079971 0.6020045 -0.053643584
0000e0 d3 30 af 3c 3e d8 d9 3d ba 11 98 3d a4 0e 0b be
       0.021385586 0.10636948 0.07425256 -0.13579804
0000f0 c4 a4 fe bc 08 4c fc 3e ce a8 51 bd 79 ec bf 3c
       -0.031084426 0.49276757 -0.051186375 0.023428189
000100 98 7a 96 be 96 6d 0c be 44 01 d5 3d 85 2e 38 3e
       -0.29390407 -0.13713679 0.10400632 0.17986496
000110 0e dc e6 3e ca 5b 00 3d 1e 71 6b be 34 5f a1 be
       0.45089763 0.031337537 -0.2299237 -0.31517947
000120 fb 9d e0 bd ac 8e 05 be ab 57 dc bb 81 9a dd be
       -0.109676324 -0.13042706 -0.006724318 -0.4328194
000130 e5 d6 aa be 4c ff c3 bd 6a d0 54 3e 45 8f 91 be
       -0.33367077 -0.095701784 0.20782629 -0.28429618
000140 43 3c 28 bd f9 f0 86 3c e0 4f 21 3e c8 71 1c bf
       -0.041073095 0.016472327 0.15753126 -0.61111116
000150 8a 9b 92 3b 83 18 4d be c9 da c8 3d 1a 57 22 bf
       0.004474108 -0.20028882 0.09807355 -0.63414156
000160 7f ef e6 be 14 ba ff 3e 85 40 df bd c0 27 86 3d
       -0.45104596 0.49946654 -0.10900978 0.065505505
000170 02 a0 62 3e db 64 4d 3d 86 e6 c6 be ef fe 95 be
       0.2213135 0.05014501 -0.3884775 -0.2929606
000180 31 ba 4b 3d 73 74 23 bd 2c 66 21 be fd de 86 be
       0.049738113 -0.039905977 -0.15761632 -0.26342002
000190 2f 08 7c 3f 0c a1 94 3e 12 a1 2e 3e dd 7a 9e bd
       0.9844999 0.2902912 0.17053631 -0.07738278
0001a0 19 68 2e be e9 04 6d 3e f3 fc be be 21 f8 f0 bc
       -0.17031898 0.23146404 -0.3730236 -0.029415192
0001b0 88 26 e3 3d 31 91 1f be 78 9b af be fa ef d2 be
       0.11091334 -0.1558273 -0.342983 -0.41198713
0001c0 5a a9 62 be cb 80 a9 3d 33 27 fc bb 79 77 0d bd
       -0.22134915 0.082765184 -0.0076951026 -0.034537766
0001d0 09 57 b5 3d 38 2b 6b 3e 7c 71 2e be fc f2 ce bd
       0.08854491 0.22965705 -0.17035478 -0.10104939
0001e0 84 90 f0 3c 11 44 a9 3d ea 9e 85 be 0b aa bf 3a
       0.029365785 0.08264936 -0.26097804 0.001462282
0001f0 0d a5 90 be 02 2a f4 be 04 1a aa 3d 32 ce 83 bd
       -0.28250924 -0.476883 0.08305743 -0.06435813
000200 d8 0f b2 be bf 15 03 be e8 aa c9 bd 97 6e 14 3e
       -0.34777713 -0.12801264 -0.09847051 0.14495312
000210 f1 f8 b5 3d ed f5 ca ba 56 30 14 be 94 ea ce bd
       0.088853724 -0.0015484669 -0.14471564 -0.10103336
000220 fe 9f 7c be b5 bb 2a 3c e7 e5 9b bc 5e 9e 81 be
       -0.24670407 0.010420729 -0.019030524 -0.25316137
000230 4b 87 c5 bd a6 05 99 be 89 07 ca 3d bb 7b 1c bd
       -0.09644946 -0.29887122 0.098647185 -0.038203936
000240 01 41 77 3d de f2 5c bd dc b8 59 3e 22 98 04 be
       0.060364727 -0.053942554 0.21261925 -0.12948659
000250 2d 1b 34 3d 56 dd 06 be 13 91 e0 bc ca 0c 55 3d
       0.04397123 -0.1317037 -0.027412927 0.05201415
000260 2f bd 52 bd 1e 1e 11 3d 1d a1 59 bd 37 71 83 be
       -0.05144995 0.035429113 -0.053132165 -0.25672314
000270 cb b7 d1 bd 67 84 73 bd 6b d4 cd 3d 74 64 a9 be
       -0.10240134 -0.05945244 0.10050281 -0.33084452
000280 0d be 11 be 10 9e aa 3d 9a 33 45 bc 98 c5 1a be
       -0.14232655 0.08330929 -0.012036229 -0.15114439
000290 63 57 4e 3b 02 2c f9 bd fb 0a 6e be a6 27 e0 bc
       0.0031485192 -0.12166597 -0.23246376 -0.027362656
0002a0 a6 0e 79 b9 de 8b 66 3c c3 b3 bc 3b 5c 25 20 bd
       -0.00023751947 0.014071433 0.005758734 -0.03909813
0002b0 3a 18 91 be 0d 6c 1e be e8 8c 1d bd 7b bc 5b be
       -0.28338796 -0.15470906 -0.038464457 -0.21458618
0002c0 aa 62 51 be 53 86 a2 be c4 9b cc bd 4e df 7d 3c
       -0.20447794 -0.31743106 -0.099906474 0.0154951345
0002d0 3c d8 43 bd 95 81 df bc 67 32 84 be 91 a4 23 bd
       -0.04781364 -0.02728347 -0.25819704 -0.039951865
0002e0 96 96 ac 3d fc d6 89 3c 37 2d 30 bd c1 d5 3a be
       0.084271595 0.016826145 -0.04301187 -0.18245603
0002f0 ad 94 14 be fd 94 ae bd 57 50 b6 be 17 05 fb bd
       -0.1450984 -0.08524511 -0.3560817 -0.1225683
000300 5f 88 cd 3e 59 d8 32 3f dd 17 f4 3c fd ee ee be
       0.40143105 0.6986137 0.029796535 -0.4666671
000310 1d 4d 96 be 4b 62 31 bd ae 1b 85 bd 02 9c db 3e
       -0.29355708 -0.04330663 -0.0649942 0.42892462
000320 4f 68 85 bd f5 60 41 be b6 ca 77 3d 04 4f 31 3e
       -0.06514036 -0.18884642 0.060496055 0.17315298
000330 7c 73 11 bf 05 17 83 be 8d b8 a8 bd 51 92 55 3e
       -0.5681684 -0.256035 -0.08238325 0.20856597
000340 3f 2a 9f bd c9 1d e1 bc 63 7d 2b bf 2d b6 25 3e
       -0.0777173 -0.027480023 -0.669882 0.16182776
000350 05 7f ca 3d 03 57 14 3e 94 c1 75 3d 9d c0 36 be
       0.09887508 0.14486317 0.059999064 -0.17846914
000360 47 9b 05 bd e6 a7 c2 bd c4 e2 c2 3d 0e 7e 19 be
       -0.032618787 -0.0950468 0.09515908 -0.14989492
000370 cd 51 8f be 3a 98 dc bd 02 df 37 be 31 47 59 3e
       -0.27992097 -0.107712224 -0.17956164 0.21218564
000380 5e 30 f3 bd b2 bb 84 3e 08 9a 92 3e fd 5b 26 be
       -0.1187446 0.2592445 0.28633142 -0.16246028
000390 d7 6b 38 be 5f 9b ea be a4 5b d2 be 2e 77 5f bd
       -0.18009888 -0.45821664 -0.4108554 -0.054557018
0003a0 84 44 79 be c1 a6 17 bf 22 51 1d 3e a0 bf dd be
       -0.24342543 -0.5923882 0.15362981 -0.4331026
0003b0 b0 6e 86 be b9 0d 05 3e 96 82 30 bf b2 f8 5b bf
       -0.26256323 0.12993516 -0.6894926 -0.85926354
0003c0 2e 6c 14 3e 0a 19 0c 3c a7 9f 4f 3e f4 50 28 3e
       0.14494392 0.008550892 0.20275746 0.16437131
0003d0 d2 64 61 bb 1b 35 bb bd 50 e1 e6 3c a4 85 a1 bd
       -0.003439237 -0.091409884 0.02818361 -0.07886818
0003e0 15 03 de bd f3 86 42 bd 5d c9 dc 3d 04 13 1e 3d
       -0.108404316 -0.04749198 0.107805945 0.038592353
0003f0 2a f5 97 3e 69 05 53 bd bd c2 3f bf cc 38 20 3e
       0.29679233 -0.05151883 -0.7490652 0.15646666

conv1.nn.2.bias f4 [64]
000000 59 77 66 3f 17 9c 8c 3d 0f 3b 86 be eb 10 e2 3e
       0.9002586 0.06865709 -0.26216933 0.44153532
000010 8d 22 ff bc 4d 09 89 3e 8c f8 cc 3d 4c 4f 12 3c
       -0.031144405 0.26764908 0.10008344 0.008930039
000020 e3 66 4d 3e 8c 5c e4 bc 2f 55 4a 3d 8d 36 c7 bd
       0.2005878 -0.027876161 0.049397644 -0.097272016
000030 e7 6d 7d bd e2 fe 78 3f b4 56 78 be 92 5d 80 bc
       -0.06187239 0.9726392 -0.24251825 -0.015669618
000040 9e 19 1a 3f 51 9e 0b be f3 1e e1 3d aa bb c6 3b
       0.6019534 -0.13634612 0.10992231 0.006064852
000050 59 82 bc bd 65 6b 30 3f 2f f5 9a 3e eb 75 7a 3e
       -0.09204549 0.6891387 0.30265185 0.24459045
000060 48 2e 10 3f d2 01 f7 3e ab cc 90 3e 3f 46 82 be
       0.5632062 0.48243576 0.2828115 -0.2544422
000070 3e 70 92 be af 56 35 3f d1 30 14 3f 8c cf 5e 3e
       -0.2860126 0.70835394 0.5788699 0.2175886
000080 41 9d 9c be b8 c4 a7 3c db 20 07 be 54 0d ae 3e
       -0.30588725 0.020479545 -0.13196127 0.33994544
000090 16 9d 15 be c0 90 99 3e 2a a1 4d bc d3 a7 9d bd
       -0.14610705 0.29993248 -0.012550632 -0.076980256
0000a0 02 9e 05 be 8c c9 97 3e 0a 98 ef 3d 9f 26 39 3e
       -0.13048556 0.29645956 0.11698921 0.18081139
0000b0 57 4f 30 be 33 c8 26 be e8 ea a3 bd 28 56 5b 3d
       -0.17217766 -0.16287307 -0.08003789 0.053548962
0000c0 26 58 e8 3e 06 f4 48 3d e6 a5 70 bb 58 5a 75 bd
       0.45379752 0.049060844 -0.0036719977 -0.05990061
0000d0 9b 9b ef be 89 63 85 3e 8e 75 73 bd 82 38 74 3d
       -0.46798405 0.26052502 -0.05943828 0.059624203
0000e0 59 f9 ad bd 39 38 0c be e5 ce 8d 3e 04 56 af be
       -0.08494825 -0.13693322 0.2769691 -0.34245312
0000f0 cf 56 0c 3e a1 7d 9a 3e 31 55 b1 bc 6f f1 91 3d
       0.1370499 0.30173972 -0.021647068 0.07126128

conv1.nn.4.weight f4 [64]
000000 db 34 84 3f b0 b9 8f 3f 63 f0 93 3f 77 e1 5a 3f
       1.032863 1.1228542 1.1557735 0.8550028
000010 7d ba 80 3f 8e d3 87 3f ee 85 ec 3e c8 74 72 3f
       1.0056912 1.0611436 0.4619593 0.94709444
000020 ee 39 7d 3f 96 6f 04 3f f5 b3 4b 3f b1 9c 76 3f
       0.9891652 0.51732767 0.7957147 0.9633284
000030 0c 93 76 3f 8e 27 87 3f 91 48 86 3f 80 0e af 3f
       0.96318126 1.0558946 1.0490896 1.36763
000040 73 b2 ab 3f cd 7d bb 3f d1 f2 96 3f af a2 4e 3f
       1.3413833 1.4647766 1.1792852 0.80716985
000050 ec d7 83 3f 6e e1 6c 3f 3a 3f 8e 3f be bb de 3f
       1.0300269 0.9253148 1.1113045 1.7401044
000060 c5 fd 8b 3f 9f 08 68 3f cf 8d 4e 3f 2b 9b 83 3f
       1.0936819 0.90638155 0.8068513 1.0281729
000070 8b 5e ad 3f 2e 5c 88 3f 83 c6 a0 3f 1e b3 3a 3f
       1.3544477 1.0653131 1.2560581 0.7292956
000080 20 3d af 3f 72 6c 6e 3f 90 8d 7e 3f a8 31 93 3f
       1.3690529 0.93134224 0.9943476 1.1499529
000090 36 40 82 3f e4 8d 6f 3f 95 ba a4 3f 1b 52 cb 3f
       1.0175846 0.9357588 1.286944 1.5884432
0000a0 1f 78 b8 3f d1 7f 86 3f 3e aa 4a 3f 79 80 06 3e
       1.4411658 1.0507756 0.7916602 0.13134946
0000b0 10 4c 87 3f f6 9a 82 3f 1b 21 90 3f 55 98 7a 3f
       1.0570087 1.020354 1.1260103 0.9788869
0000c0 c2 2d 9e 3f 87 3c 84 3f e5 e7 72 3f da 1f 87 3f
       1.2357714 1.0330971 0.9488509 1.0556595
0000d0 c2 9e 4a 3f 63 eb 83 3f 4b 43 74 3f 12 6a 61 3f
       0.79148495 1.0306209 0.9541518 0.88052475
0000e0 8d 9c 7d 3f 0a 52 78 3f e4 30 90 3f a9 0e 9c 3f
       0.99067 0.9700018 1.126492 1.2191974
0000f0 84 67 a2 3f e4 ec 3e 3f 18 ab 5e 3f 83 3a 29 3f
       1.268784 0.74580216 0.8697982 0.66104907

conv1.nn.4.bias f4 [64]
000000 e5 87 9a be 5b 67 12 3d de 3e 34 bc 6d 4f 55 3d
       -0.30181804 0.0357431 -0.011001317 0.0520777
000010 55 5b db 3b 54 f3 8a 3d 0a 8a 73 3d b1 20 99 3c
       0.0066942372 0.067846924 0.059457816 0.018692346
000020 11 f9 8f be db b3 09 be 28 11 2a be bb 7e 58 be
       -0.2811971 -0.13447516 -0.16608107 -0.21142094
000030 1e 51 c0 bc 12 70 8e be b7 23 fd b9 3e 2a e5 bd
       -0.02347618 -0.27819878 -0.0004828253 -0.11189698
000040 2a fa bc 3c a6 25 1d 3e 4e 89 0b bb 63 1d 4a be
       0.023068506 0.15346393 -0.0021291557 -0.19737773
000050 e7 b3 83 3b 9e b2 e9 3d de 1c 9b 3e b9 84 31 3e
       0.0040192488 0.11411022 0.3029546 0.17335786
000060 82 06 78 bc 4a 7c 4c be d7 00 ce 3d 90 3b 47 be
       -0.01513827 -0.19969288 0.10058754 -0.19456315
000070 62 59 7b be 52 21 07 be d3 f8 fd 3c e6 a0 a9 3d
       -0.24545816 -0.13196304 0.031002438 0.08282642
000080 1b e3 95 3e 5c 5f 83 be 13 38 5a 3d 70 68 75 3d
       0.2927483 -0.2565869 0.053276133 0.059914052
000090 92 14 4d 3b 9c 6d 0c bd a7 9a cb bd f1 d7 ed 3c
       0.0031292778 -0.03428422 -0.09941607 0.029033633
0000a0 90 60 41 be c9 52 30 be f6 ed ce 3c 36 3e 82 3a
       -0.18884492 -0.1721908 0.025259953 0.0009936753
0000b0 8c b6 b6 bd cd 81 3b 3a 1a 12 00 3d 36 6e 21 be
       -0.08921537 0.0007152826 0.031267263 -0.15764698
0000c0 b9 ef 93 be a1 94 b3 bc 81 c8 38 be c4 7c 2f 3e
       -0.2889383 -0.021921458 -0.18045236 0.17137438
0000d0 6b af 4c 3d 35 8a 97 be 93 dc 19 3d 6c 2f 6f bc
       0.04997198 -0.2959763 0.03756387 -0.014598709
0000e0 26 fc 68 bc ef 14 be be 36 3a 05 be 6f be 3f be
       -0.014220273 -0.37125346 -0.13010487 -0.18724988
0000f0 b9 2c 21 be af 67 cc bc a7 8e 4a 3e 85 e0 0d be
       -0.15739717 -0.024951784 0.1978098 -0.13855179

conv1.nn.4.running_mean f4 [64]
000000 34 b3 65 40 18 02 61 3b 04 00 00 00 5d 21 88 3f
       3.5890627 0.0034333523 6e-45 1.0635182
000010 04 00 00 00 41 06 ee 3f 4a 32 4d 3f 04 00 00 00
       6e-45 1.8595659 0.8015486 6e-45
000020 e4 0d 23 40 09 ad b6 3f a7 84 59 3f 04 00 00 00
       2.5477228 1.4271556 0.84968036 6e-45
000030 04 00 00 00 e6 8e 68 40 04 00 00 00 0a 01 93 3f
       6e-45 3.6337218 6e-45 1.1484692
000040 d3 b1 4d 3f 8b c7 ab 3b 39 11 fb 3f ab 72 c0 3f
       0.80349463 0.0052422932 1.9614631 1.5034994
000050 04 00 00 00 ae 84 dd 3e 1c 50 e6 3e aa c2 3f 3e
       6e-45 0.4326529 0.44982994 0.18726602
000060 b6 12 c1 3f bc 41 88 3f c0 22 10 40 8e 3a ed 3d
       1.5083835 1.064506 2.252121 0.11583434
000070 51 08 80 3d 10 7a 53 40 9e 6d 76 3f 23 af c8 3f
       0.06251586 3.304325 0.9626101 1.5678447
000080 2a e5 45 3f 6e 2f 99 3f 04 00 00 00 d4 8d c0 3d
       0.773028 1.1967599 6e-45 0.094020516
000090 04 00 00 00 d4 a6 bf 3f 11 1b bd 3f 71 d8 2b 3f
       6e-45 1.4972787 1.4773885 0.6712714
0000a0 b4 1f 4c 39 1d 70 ac 3f 31 aa a9 3f 8e cd 4a 3f
       0.00019466766 1.3471714 1.3255063 0.792199
0000b0 9d 01 04 40 04 00 00 00 04 00 00 00 d0 6c 36 3c
       2.0625985 6e-45 6e-45 0.011134341
0000c0 ee fe 02 40 04 00 00 00 04 00 00 00 d8 4c 6e 3f
       2.0468097 6e-45 6e-45 0.93086004
0000d0 28 dd ac 3f 29 94 15 40 04 00 00 00 d0 38 99 3f
       1.3504992 2.337168 6e-45 1.1970463
0000e0 04 00 00 00 04 00 00 00 55 fe 92 3f 91 2d 39 3d
       6e-45 6e-45 1.1483866 0.04520947
0000f0 cf d5 77 3f d1 67 b5 3f bb ed a7 3f 39 7d d0 3f
       0.9681062 1.4172307 1.3119425 1.6288215

conv1.nn.4.running_var f4 [64]
000000 85 42 5f 3f 81 c8 79 3b 04 00 00 00 28 99 93 3e
       0.87210876 0.0038113894 6e-45 0.28827786
000010 04 00 00 00 b7 b2 c9 3f b5 f7 18 3e 04 00 00 00
       6e-45 1.5757664 0.14938243 6e-45
000020 41 82 61 3f 99 16 d5 3e bf 65 0a 3f 04 00 00 00
       0.88089377 0.41618803 0.540615 6e-45
000030 04 00 00 00 c3 ca 7d 3f 04 00 00 00 89 63 d2 3e
       6e-45 0.99137515 6e-45 0.41091564
000040 77 54 21 3e 79 1f 81 3b c7 73 96 3f 55 32 db 3e
       0.15754877 0.0039405194 1.1754082 0.42811838
000050 04 00 00 00 f1 4d d7 3d b2 26 36 3e 90 3a 6c 3e
       6e-45 0.10512913 0.17788199 0.23069215
000060 78 7e 95 3e 5b 25 11 3f 15 65 85 3f 12 03 71 3e
       0.2919805 0.56697625 1.0421473 0.23536327
000070 d5 7b f9 3d 44 b2 6b 3f e6 20 11 3f f6 63 91 3f
       0.12181822 0.92068887 0.56690824 1.1358631
000080 2b 82 15 3f 6d 7c 19 3f 04 00 00 00 03 52 79 3d
       0.58401746 0.59955484 6e-45 0.060869228
000090 04 00 00 00 72 0c 47 3f b7 a1 e2 3e 69 62 b0 3e
       6e-45 0.77753365 0.44264004 0.3445008
0000a0 64 9a 6c 39 32 f8 0f 3f eb 7a c5 3e 25 e8 ac 3e
       0.00022564229 0.5623809 0.3857034 0.33770862
0000b0 5b 6b 56 3f 04 00 00 00 04 00 00 00 5d 44 03 3c
       0.8375756 6e-45 6e-45 0.008011905
0000c0 30 cc 06 3f 04 00 00 00 04 00 00 00 fc 4e 14 3f
       0.52655315 6e-45 6e-45 0.5793302
0000d0 95 57 87 3f 7a 79 69 3f 04 00 00 00 05 1e 25 3f
       1.0573603 0.91200984 6e-45 0.6449893
0000e0 04 00 00 00 04 00 00 00 d7 f8 fc 3e 57 f3 91 3d
       6e-45 6e-45 0.494086 0.071264915
0000f0 6c ef eb 3e d1 c1 08 3f 34 73 76 3f de d5 27 3f
       0.46081102 0.5342074 0.96269536 0.6556071

convs.0.nn.0.weight f4 [64, 64]
000000 fa ba 62 be 87 35 90 be 41 fe 11 3e a3 4f c8 be
       -0.22141638 -0.28165838 0.14257146 -0.39123258
000010 bb 14 4c bd db 09 95 3e b1 85 5a be c1 eb cc bc
       -0.049824458 0.29109082 -0.21340062 -0.02501476
000020 42 9c 38 be a5 8c 84 3d 42 57 9f be 68 fa b4 3c
       -0.18028358 0.06472138 -0.3112126 0.02209206
000030 e2 47 d2 3b 54 9a c1 be 13 32 0e 3e d5 d9 90 be
       0.0064172605 -0.37813056 0.1388629 -0.28291193
000040 ef 1b f0 3e 27 6e 2b 3f f7 17 35 3e d5 7d 92 3e
       0.46896312 0.66964954 0.17684923 0.28611627
000050 e9 aa 6b bd b2 7d ad be 7e 29 cf bc c0 4b ee 3e
       -0.05753604 -0.3388496 -0.02528834 0.46542168
000060 4b 18 a2 be b6 42 fc bd 2b 63 6e 3e 28 f8 9b be
       -0.3165916 -0.123174116 0.23280017 -0.30462766
000070 93 a0 fc bd 0d cc a7 be 70 ee 01 bf a6 59 89 3e
       -0.123353146 -0.32772866 -0.5075445 0.2682621
000080 91 d7 82 bd a4 5a 68 be d9 e2 1f 3d 7c 49 65 be
       -0.06388772 -0.22690827 0.0390347 -0.22391313
000090 8c bb eb bb 0a e3 61 3e 69 ae 4a 3d a9 20 ae bd
       -0.007193988 0.22059265 0.049482737 -0.08502323
0000a0 c2 92 e1 3c e8 4a c6 be 72 85 2b be 3a 5b bf 3d
       0.0275358 -0.38729024 -0.16750124 0.09343572
0000b0 a0 c4 6f be 77 b8 51 bc e8 e3 94 bc 77 82 ac 3e
       -0.2341485 -0.0128003275 -0.01817508 0.33693287
0000c0 94 1e 96 be a4 74 9a 3d ad 4d 37 bd 33 ed cf 39
       -0.29320204 0.07541779 -0.04475181 0.00039658844
0000d0 8f 56 2c 3d 98 13 85 bd cc 06 37 bd 95 ef ed bd
       0.042074736 -0.06497878 -0.044684216 -0.11617962
0000e0 a0 c4 86 bd b5 13 6f be 97 63 6d be 4c 7b ad be
       -0.06580472 -0.23347361 -0.23182522 -0.3388313
0000f0 52 5e 1b 3e 2c 92 7e 3c 9e c8 20 3e c3 d6 19 3d
       0.15172699 0.01553778 0.1570153 0.03755833
000100 2c 30 c3 be e4 7d bc 3e 53 0e 91 bd 97 6e 9a be
       -0.3812269 0.36814797 -0.0708281 -0.30162498
000110 5e c7 67 3d 34 2c 05 3f dd a7 38 bc 8b d3 b5 bd
       0.056586616 0.52020574 -0.0112704905 -0.08878239
000120 86 f8 13 bd 31 aa ff be cd 40 86 be 6c fe 77 3d
       -0.036125682 -0.49934533 -0.26221314 0.06054537
000130 97 84 7e bc c7 2a a0 be 3c c9 3b 3d 56 41 bd be
       -0.015534542 -0.31282637 0.04584621 -0.3696391
000140 9c e7 d8 3c e1 35 dc 3e 7b 63 d1 3e d5 0d 88 be
       0.026477627 0.43009856 0.4089621 -0.26573053
000150 2e fd f7 bc 00 ec 89 3e 51 f3 9f 3e ec f0 df be
       -0.030272093 0.26937866 0.31240323 -0.43738496
000160 a9 b5 ac be 3b fb 33 bf 53 c4 86 3d 99 32 ce bd
       -0.33732346 -0.7030522 0.065804146 -0.100682445
000170 22 c0 98 3d 4f 67 83 be 70 b8 68 bf d8 9f d1 3e
       0.074585214 -0.25664756 -0.9090643 0.40942264
000180 16 da d3 bc 8e 6f ea be 91 d1 2f 3d 9b ee 45 be
       -0.025860827 -0.45788234 0.042924467 -0.19329302
000190 9c 09 8e bd 1e 74 0f 3f e1 55 e5 bc e0 96 20 be
       -0.069354266 0.56036556 -0.027995052 -0.15682554
0001a0 2b 42 0b be e6 2c d1 be b9 47 aa 3e eb 64 82 be
       -0.1359946 -0.40854567 0.33257845 -0.2546762
0001b0 c9 12 69 be e1 db 2c 3d 14 58 cb 3c f6 c8 3d be
       -0.22761072 0.04220188 0.024822272 -0.18533692
0001c0 bf 49 13 bf fb 28 31 be ab f7 68 3d 03 59 db 3d
       -0.575344 -0.17300789 0.05687682 0.10710337
0001d0 b8 3e 8a 3d 12 54 aa 3a fe 66 82 3d c3 49 3d 3e
       0.06750244 0.0012995026 0.063673005 0.18485169
0001e0 8a 4e 11 3e 3b 9e 08 bd 9c 62 8f be f1 e4 30 bd
       0.14190117 -0.033354025 -0.2800492 -0.043187086
0001f0 d5 8e 92 3e 63 7d 91 3e d2 b9 09 3f 68 f1 ef 3d
       0.28624597 0.28415975 0.53799164 0.117159665
000200 07 f7 5e be a2 b3 f3 3d 07 88 46 3e 3c d5 b1 bd
       -0.21773921 0.118994966 0.19387828 -0.08683249
000210 fd 7d 3a 3a 69 1b e1 bd 83 01 98 bc 58 7b 95 bd
       0.00071141106 -0.10991556 -0.018555408 -0.072989166
000220 bc 82 ea be 28 84 47 be 19 75 e3 be 18 3e d5 3e
       -0.45802867 -0.19484007 -0.44425276 0.41648936
000230 42 6e 73 3d 3e df 77 bc 41 ef 39 3d b0 7c 1d 3e
       0.059431322 -0.015128909 0.045394186 0.15379596
000240 a1 3f 2b 3e 23 98 a9 3d 45 80 85 3e 8d c9 24 be
       0.16723491 0.08280971 0.26074424 -0.1609251
000250 b8 84 20 be ed 97 8e be 3c e2 40 bf 50 a1 05 bf
       -0.15675628 -0.27850285 -0.75345206 -0.5219927
000260 93 a4 5d 3e 02 ae 77 bd af 78 2c 3d 46 9c c7 be
       0.21644811 -0.06046868 0.04210728 -0.38986415
000270 7c 48 7a be d5 b1 28 bf cf 64 c5 be 42 6c e2 bd
       -0.24441713 -0.6589635 -0.38553473 -0.11055805
000280 72 c3 29 bf b5 2f 9a 3d cd 4c 15 be cd e2 b4 be
       -0.6631385 0.07528631 -0.14580078 -0.35329285
000290 9c 9a 08 be f3 b5 01 be 62 0a 4c 3e 9d 0a 40 bf
       -0.13340229 -0.12667064 0.19925836 -0.75016195
0002a0 a1 ce 1e 3f 30 07 0d bf 01 92 c9 be 8e f3 9b be
       0.6203404 -0.5508909 -0.39369205 -0.30459255
0002b0 eb c4 de be 6b 2e 05 be d3 82 5f be 6e 92 d4 3e
       -0.4350961 -0.13005988 -0.21827249 0.41517967
0002c0 d1 fd d1 3d 9b 0b e0 bd 95 02 88 3e 31 05 3e bf
       0.1025349 -0.109397136 0.2656447 -0.7422667
0002d0 ff 65 d3 be ac c4 80 be 3d 4d dd bc 4d ee 00 bf
       -0.41288754 -0.2515005 -0.02701437 -0.5036362
0002e0 46 09 a6 3d ce 2a bf 3e 31 18 4c be 30 55 6d bd
       0.081072375 0.37337345 -0.19931103 -0.05794257
0002f0 c2 a9 e5 bd c9 7f aa be 92 7d a7 3c c1 91 99 be
       -0.11214019 -0.33300617 0.020445619 -0.29994014
000300 3a 85 48 be e5 c7 ec 3e e7 6e 3e 3d 0f 00 1d 3e
       -0.19582072 0.46246257 0.046492483 0.15332054
000310 31 06 cb 3c 83 28 a7 bc 5a 59 ad 3e 88 bf 97 bd
       0.024783226 -0.02040506 0.33857232 -0.074095786
000320 6d b3 64 3e 58 81 95 3d 8b 6e 36 be e9 56 e5 3e
       0.2233407 0.07300061 -0.17815606 0.4479287
000330 f0 18 c0 3c ea 2d 05 be 56 98 9b 3b 87 c4 2a be
       0.023449391 -0.13005796 0.0047483845 -0.16676532
000340 36 58 76 3d 50 4f 1e be f9 f8 0f bd 89 27 fe bd
       0.06014272 -0.15459943 -0.03514955 -0.124098845
000350 7c f5 02 3d a9 50 00 3e 71 88 c6 3e 37 97 86 be
       0.031972393 0.1253077 0.38775972 -0.26287243
000360 61 63 72 3d 3a 8e 98 bd 3a 03 c4 be d2 9f fa 3e
       0.059176806 -0.074490026 -0.38283712 0.48950058
000370 f9 73 2e 3e 04 b2 da bc e4 c3 d9 be 0e 82 b1 bd
       0.17036428 -0.026696213 -0.42532265 -0.08667384
000380 73 db 9a be 9e e2 14 be e6 95 f5 bc 0f 5d 94 3e
       -0.3024555 -0.14539573 -0.029978704 0.28977248
000390 b0 f8 91 3d d6 dc bb 3d 0d 5d c1 3d 59 36 12 bf
       0.071275115 0.091729805 0.09441576 -0.5711418
0003a0 6d 4d 35 3f 65 b5 a2 bd 48 28 21 3e 1c e6 a3 3c
       0.7082127 -0.079447545 0.15738022 0.020007186
0003b0 05 bf 6d be 7b e0 8c bd f0 19 85 bd ea 14 75 3d
       -0.232174 -0.06878754 -0.06499088 0.0598344
0003c0 1a 46 be be 0a 1c 60 3c a0 b5 f4 3e f1 bc 1e be
       -0.37162858 0.01367856 0.4779482 -0.15501763
0003d0 fa 69 16 be a1 77 a4 3d 4d c9 0b bd a8 14 04 3e
       -0.14688864 0.0803063 -0.034127522 0.12898505
0003e0 b9 fd 3a bb 2a f7 22 3f 75 cb 83 be bc ab 5e 3e
       -0.0028532578 0.6365839 -0.25741163 0.21745199
0003f0 c5 14 f0 bb de 03 1a be 8f 2c a6 bd f1 d2 4f 3e
       -0.0073266947 -0.15040538 -0.081139676 0.20295312

convs.0.nn.0.bias f4 [64]
000000 2d 4d 88 3d 52 a8 78 bd 70 1b 21 bb d6 2a 43 be
       0.06655345 -0.060707398 -0.0024583004 -0.1905931
000010 ea 37 57 be 84 c1 1c bf 30 ef e7 be 93 0b 3e be
       -0.21017423 -0.6123278 -0.45299673 -0.18559103
000020 da 7e 85 3e ef 33 67 be 84 d8 9c be 3f 89 e3 be
       0.26073343 -0.22578405 -0.30633938 -0.44440648
000030 6c de 11 be d7 c0 06 be 64 f0 19 bf 30 58 be be
       -0.14245003 -0.131595 -0.6013243 -0.37176657
000040 64 11 08 be 91 a5 36 be ed b0 cd 3c 48 39 59 be
       -0.13287884 -0.17836596 0.025108779 -0.21213257
000050 45 f6 bc 3d bb 8f 18 bf 63 3c 05 bf d2 37 3e be
       0.0922666 -0.59594315 -0.5204527 -0.18575981
000060 51 a6 c6 bd 79 95 1e be 48 2e 12 bf 0a fc 85 be
       -0.09699691 -0.15486707 -0.5710187 -0.26168853
000070 31 db c4 bd 73 ef fe bd 1d 1f e3 be 55 bb ec be
       -0.0961212 -0.12448015 -0.44359675 -0.46236673
000080 fc ea 1a 3e 49 f8 1e be 6e d9 a9 bd d0 3f 27 bf
       0.15128702 -0.15524401 -0.082934245 -0.65331745
000090 af 7c 8c 3e 85 47 1d bf d8 97 da be df 45 29 3e
       0.27438876 -0.61437255 -0.42693973 0.1653056
0000a0 57 18 8b 3d f2 fc 8d be 15 ee 3b be 4e b7 bf bb
       0.06791752 -0.27732044 -0.1835254 -0.005850709
0000b0 38 63 3c be 90 95 06 be bd f3 57 be 28 2e c8 be
       -0.18397224 -0.13142991 -0.21089073 -0.39097714
0000c0 75 08 ff be e6 46 80 be 95 5d 2d bf 4c 54 d0 be
       -0.4981114 -0.2505409 -0.6772092 -0.40689313
0000d0 2d 82 12 be 64 8c 20 3d 48 c8 86 be f7 eb 22 bf
       -0.1430747 0.039196387 -0.26324677 -0.63641304
0000e0 6d 1c 9f 3e b6 77 2b be d9 82 8a 3e 37 2b f4 be
       0.31076375 -0.16744885 0.27052954 -0.4768922
0000f0 59 4a c1 be 03 e5 87 be 37 97 50 bf 32 63 41 be
       -0.37752035 -0.2654191 -0.81480736 -0.18885496

convs.0.nn.2.weight f4 [64, 64]
000000 a2 67 06 bf b3 35 8f be f5 60 79 bf 02 e4 a6 bc
       -0.5250188 -0.27970657 -0.9741357 -0.020372394
000010 9c d7 01 3d a8 f5 05 3d 30 eb 46 be 78 3c 88 be
       0.03169976 0.03270498 -0.19425654 -0.26608634
000020 e2 70 ce 3e 21 c1 bb bd 9f ca e9 3d 72 a4 26 3c
       0.40320498 -0.09167696 0.114156 0.010171043
000030 a2 2b 76 3e 7f 91 d2 3c 4c 38 1e 3e 85 3a 55 bd
       0.24040082 0.025704144 0.15451163 -0.05205776
000040 74 97 b6 3e 07 88 4e 3c a7 bd 62 3e 54 12 e7 3c
       0.35662425 0.012605674 0.22142659 0.028206982
000050 6e 67 21 3e c7 16 23 3e 47 b1 fb 3d 92 6a 89 3e
       0.15762112 0.15926658 0.12289672 0.2683912
000060 65 94 a6 3e 85 47 1a bf 13 d9 36 be a4 d4 e4 be
       0.3253509 -0.6026538 -0.17856245 -0.44693482
000070 d8 82 89 3e 08 2a 82 3e f2 26 e4 bd 55 46 e5 3d
       0.26857638 0.25422692 -0.11140241 0.111950554
000080 87 68 3c be 4e f0 b3 be f2 22 7d be aa 07 fc bd
       -0.18399249 -0.35144275 -0.24720362 -0.12306149
000090 4f 81 a4 be 01 57 57 be 26 d1 1d 3e 69 61 2d be
       -0.32129905 -0.21029283 0.15411815 -0.1693169
0000a0 68 8d da be 34 7a 41 3f 70 81 67 be 98 da 89 be
       -0.4268601 0.7557709 -0.2260797 -0.26924586
0000b0 83 7d 1e be 63 08 1f 3e 3d 1b d4 be 06 fa 95 3c
       -0.15477566 0.15530543 -0.4142703 0.018307697
0000c0 b0 63 ae 3e 27 47 c2 3e d7 9e 8d bd 5e 0b 19 3e
       0.3406043 0.3794491 -0.06915062 0.14945742
0000d0 33 6c 60 3e ef cf d2 bd 75 db 91 3d 67 4a 44 3e
       0.21916275 -0.102935664 0.07121936 0.19169007
0000e0 b6 cc b5 3d 86 05 dc bc 6e a5 6d 3d e7 55 eb bd
       0.08876936 -0.026858103 0.058019094 -0.11490994
0000f0 03 b3 00 3f eb 0e 9d bf 31 5d 11 3e 97 48 3e 3f
       0.5027315 -1.2270178 0.14195706 0.74329513
000100 8f 76 d9 be e0 c2 1f 3e 28 fb 33 be 0c 59 e5 3e
       -0.42473266 0.15601683 -0.17576277 0.447945
000110 b3 b6 05 bd 6e 5f 59 be 67 af a1 be 8a 15 ae bd
       -0.03264494 -0.2122781 -0.31579134 -0.08500202
000120 e5 6e 9b 3e 8c af 6a be 51 e6 70 be d2 ef 16 be
       0.30358043 -0.22918528 -0.23525359 -0.14739922
000130 f6 5b da be 16 dc 9e bd 8d 42 c4 3d df 99 84 3e
       -0.42648286 -0.07756822 0.09583006 0.25898644
000140 74 26 9f be 39 af b2 bd a7 38 23 3e cd c1 00 bf
       -0.31084025 -0.08724827 0.1593958 -0.50295717
000150 bb 61 2c bc 6a 91 f9 be ac 97 b6 3d 8f ae 1d be
       -0.010521348 -0.48743755 0.08915648 -0.1539862
000160 20 6d 5c bd 43 76 ad 3e 49 a1 6b bd 63 3d c4 be
       -0.053815007 0.3387929 -0.05752686 -0.38328084
000170 16 62 a9 be 90 8d 9b be 63 bd cf bd 09 c7 2c 3e
       -0.33082646 -0.3038144 -0.101435445 0.16872801
000180 8a 24 a2 3e 62 f9 a5 be 71 9d d8 bd 8e 5e 0c bf
       0.31668502 -0.32416826 -0.105769046 -0.5483178
000190 6c 7e b6 3e e4 02 1f 3e 59 07 1f 3e 66 03 0b bf
       0.35643327 0.15528446 0.15530147 -0.5430206
0001a0 24 f5 63 be 06 b9 23 be 2b 6c 59 be 2e 08 03 3f
       -0.22261482 -0.1598855 -0.21232669 0.51184356
0001b0 7f ca af be 2c c7 14 3f 2d 34 40 3e c7 3a 9a 3d
       -0.3433418 0.5811641 0.18769903 0.07530742
0001c0 db bb 14 be aa cd cb 3c 84 54 b2 3d 21 32 dc be
       -0.14524786 0.024878342 0.08707526 -0.43006995
0001d0 95 71 07 bd da ee 18 bf bb ba d7 3d 68 2c 93 bb
       -0.033067305 -0.5973946 0.10533663 -0.0044913776
0001e0 91 37 8b be 3a 2d 18 be a8 3b af be bb 0d 19 be
       -0.2719083 -0.14861003 -0.34225202 -0.14946644
0001f0 e6 8c 37 be de ba 26 bc 09 1e ef bd 51 28 a0 be
       -0.17924842 -0.010176389 -0.116756506 -0.3128076
000200 f1 95 b2 be 95 2c 7f be 5d 52 71 3e fd 5b dd be
       -0.3488002 -0.2491935 0.23566575 -0.43234244
000210 b3 91 1f be cf 7d 6c bd ce 1a bc 3c d0 0f 5d bf
       -0.15582924 -0.057737168 0.022962 -0.8635225
000220 86 ff 45 3e 9a 68 33 bf 5a e2 cc bd 3a 55 d5 be
       0.19335756 -0.70081484 -0.10004111 -0.41666585
000230 5f dd ee be 0d cb 0d bf 02 7c af bd d0 20 a3 3e
       -0.46653268 -0.55387956 -0.085685745 0.3186097
000240 d1 4f a3 be de 7d e6 bd 1c 55 a5 be 04 76 02 bf
       -0.31896833 -0.11254476 -0.32291496 -0.5096133
000250 6c be 64 be f5 8c 92 bd c5 aa f3 3d 07 70 c9 be
       -0.22338265 -0.07155792 0.11897806 -0.39343283
000260 9f c6 a5 be f7 4b e6 be 19 af fb bd e5 43 96 be
       -0.32378098 -0.44979832 -0.122892566 -0.29348674
000270 fc 2b 68 3e 22 b7 36 be 82 5b 63 be 9d d4 ef be
       0.22673029 -0.17843297 -0.22202876 -0.468419
000280 8e 2a d3 be 06 7e 22 3e f7 8f 93 3c cc a4 a8 bd
       -0.41243404 0.15868387 0.018012984 -0.082345575
000290 33 62 cc bd 44 76 f3 bc 0f 84 45 be f6 75 5e 3e
       -0.099796675 -0.02971948 -0.19288658 0.21724686
0002a0 44 56 a9 3d 85 d3 20 bf 84 25 51 3c 99 a1 f4 bd
       0.08268407 -0.62822753 0.012765292 -0.11944885
0002b0 c9 47 3f be 2c c4 de bd e8 e8 5d 3d 66 b5 0a be
       -0.18679728 -0.108772606 0.054177195 -0.1354576
0002c0 10 d2 d7 be 89 69 13 bf 41 6f 50 be 1f d5 1a bd
       -0.42152452 -0.5758291 -0.2035494 -0.037800904
0002d0 ac f5 59 be 93 71 6d 3e f3 c1 97 bd 4f b1 a2 be
       -0.21285123 0.23187856 -0.0741004 -0.317759
0002e0 88 4e fa 3e 13 d1 15 3e 84 d9 c0 3c b0 7d ee bd
       0.4888804 0.14630537 0.02354122 -0.11645067
0002f0 f2 73 86 be ee d0 d1 be 42 f8 32 bd a8 94 e3 be
       -0.26260334 -0.40979713 -0.04369379 -0.44449353
000300 32 fe 1f bf ca 73 27 bf 34 d1 ef be a3 f4 ed 3d
       -0.62497246 -0.65411055 -0.46839297 0.116189264
000310 f1 e1 65 3e fb d8 8e bf b4 24 5c be 33 00 3f 3e
       0.22449471 -1.1159967 -0.21498376 0.1865242
000320 da f2 ce 3d 1b a6 35 bf 86 dd 2c bf 7f 98 c0 bd
       0.10104914 -0.7095658 -0.6752552 -0.09404086
000330 4d 62 c7 be 01 bb 1a 3e 8c 52 43 3d b0 7a 0f bf
       -0.38942185 0.15110399 0.047686145 -0.5604658
000340 5b 90 a1 3e a6 9c 04 3e a0 b4 81 3e 45 01 c9 bd
       0.31555447 0.12950382 0.25333118 -0.09814695
000350 b6 bf 3b 3c 16 a5 81 be 4f df 18 bf 62 11 37 3d
       0.011459282 -0.25321263 -0.5971574 0.044694312
000360 e7 e1 95 be fa b5 1c be 8d 8d e1 3d b3 91 ca bd
       -0.29273912 -0.15303794 0.11013327 -0.09891071
000370 4d 73 a3 3b bf 4d b2 3e 8d c2 ed 3d 15 47 a6 be
       0.00498811 0.3482494 0.11609373 -0.32476106
000380 35 7c 25 bd 40 3b c1 3d c4 16 18 bf 76 42 1f bf
       -0.040401656 0.09435129 -0.5940974 -0.62210786
000390 3d 4c c1 3e cb a4 f9 bd 9d f1 a1 be 29 5a 01 3e
       0.37753478 -0.12189635 -0.3162965 0.1263205
0003a0 9e 2e 97 be 4a b6 e6 be b2 0e a4 3e 9f 6f eb 3d
       -0.29527754 -0.4506095 0.32042462 0.114958994
0003b0 a6 d2 37 3e 0e c6 1e bd 2a b7 da bd 42 9c a2 3e
       0.1795145 -0.0387631 -0.10679467 0.3175984
0003c0 e5 9b d2 be aa c2 6d be 75 43 07 3e 33 15 85 be
       -0.41134563 -0.2321879 0.13209327 -0.25992736
0003d0 87 a8 32 3d 8e 88 e1 3d 72 d5 e9 3d ab 8f 1e 3e
       0.04361775 0.11012374 0.114176646 0.15484492
0003e0 63 13 9b be 76 30 c3 3d a8 b5 a9 3e 37 09 df 3c
       -0.30288228 0.095307276 0.33146405 0.027226074
0003f0 56 f1 80 bf 9d 25 0f 3e b8 ba 7a be de 44 6a bf
       -1.007365 0.13979192 -0.2448529 -0.91511333

convs.0.nn.2.bias f4 [64]
000000 8c 6d 38 be 3e 34 09 bd 39 85 0b 3f a0 42 e4 3d
       -0.18010539 -0.033497088 0.54500157 0.1114552
000010 57 93 af b5 4c 5d 67 3e bf a7 04 be 4f 48 e6 be
       -1.3081398e-06 0.22594184 -0.12954615 -0.44977042
000020 4a 25 0c 3e fc 54 c4 bc cb 54 87 be 7c 1f 4c be
       0.136861 -0.023966305 -0.2643188 -0.19933885
000030 f0 80 bc 3e ab 50 e8 bd 49 14 67 be 22 fa cc 3e
       0.36817122 -0.11343511 -0.22566332 0.40034586
000040 5f c5 57 3c 04 c8 0d bf be 8b 05 be ea 6d 26 bf
       0.0131696155 -0.55383325 -0.13041589 -0.65011466
000050 30 0a 51 be e4 8f cb be 7d 1a 69 3e 6d 41 bd 3d
       -0.20414042 -0.39758217 0.2276401 0.092409946
000060 8a 7b d4 be 99 27 ac 3d c7 ea 5d 3e 2a 00 ca 3d
       -0.41500503 0.0840599 0.21671592 0.098633125
000070 89 82 38 be fa 97 80 bd dd e2 9e bd 43 dc d4 3e
       -0.18018545 -0.06278987 -0.077581145 0.41574296
000080 48 96 99 3c 04 9e de bd 21 3b a7 3e b9 5c 52 be
       0.018748417 -0.10869983 0.326623 -0.20543183
000090 74 8d cc bd b9 78 cd bc c0 12 a6 3c 25 fa 82 be
       -0.099879175 -0.02508198 0.020272613 -0.2558147
0000a0 64 d7 4c be 3a 84 d8 3d 28 e1 be 3e 47 24 5d be
       -0.2000404 0.10572095 0.37281156 -0.2159587
0000b0 a0 78 3b bd 33 c4 16 bf 99 16 32 3e 80 5f 04 be
       -0.045769334 -0.58893126 0.17391433 -0.12927055
0000c0 65 6a 2d 3e bc 39 69 3d 50 e5 10 bd 9f a9 0d 3d
       0.16935118 0.056939825 -0.03537494 0.03458559
0000d0 2a c4 29 be 53 3d 42 3d 3a 5a 39 3e 7d 02 d5 be
       -0.16578737 0.047421765 0.18100825 -0.4160346
0000e0 76 ce 5c be 60 02 5a be 90 91 2c be b5 cb 39 bf
       -0.21563134 -0.21289968 -0.16852403 -0.7257646
0000f0 68 21 59 be 7f 4c 89 be 5b 91 e3 be 7e 63 88 3e
       -0.2120415 -0.26816174 -0.44446835 0.26638407

convs.0.nn.4.weight f4 [64]
000000 e0 c8 8a 3f 8f dc 7f 3f 71 e8 a6 3f 40 09 a6 3f
       1.0842552 0.9994592 1.3039685 1.2971573
000010 f3 aa c8 3f d5 7b 72 3f 17 54 65 3f d4 db 8a 3f
       1.567717 0.947202 0.89581436 1.0848336
000020 2e a8 ad 3f 73 64 90 3f 51 35 89 3f 1c f3 7f 3f
       1.3566949 1.1280655 1.0719396 0.9998033
000030 64 32 93 3f d9 c8 ee 3e a3 22 1d 3f 6d 7a 4a 3f
       1.1499753 0.4663761 0.61380976 0.79093057
000040 f5 2b 56 3f ab 4e 8e 3f e3 87 68 3f 6b 71 4b 3f
       0.83660823 1.1117758 0.90832347 0.7946994
000050 78 f7 ef 3e 47 2b ad 3f 44 a1 97 3f 5b aa 2f 3f
       0.4686849 1.3528832 1.1846089 0.68619317
000060 c7 c0 84 3f 39 b1 8d 3f dc 8f 84 3f da cd be 3e
       1.0371331 1.1069709 1.0356402 0.37266427
000070 d4 49 73 3f f9 0f 4e 3f 2f 74 86 3f 95 eb e8 3f
       0.9503453 0.8049312 1.0504206 1.8196894
000080 44 41 01 3e dc 14 2e 3f f2 cb 91 3f b7 1b b1 3f
       0.12622553 0.6800058 1.1390364 1.3836583
000090 2c 17 87 3f b8 23 83 3f bf a4 aa 3f 73 d7 6b 3f
       1.0553946 1.0245275 1.3331527 0.92125624
0000a0 59 ae a1 3f 10 a9 d4 3e 80 2f 5d 3f cd 53 49 3f
       1.2631332 0.41535234 0.86400604 0.78643495
0000b0 c9 1f 8b 3f 4b 41 1f 3f 44 5f 8e 3f bd cc 7d 3f
       1.0869075 0.62209004 1.1122823 0.9914053
0000c0 69 0a 26 3f 8f a0 47 3f fa ee 95 3f 0d 8a 8c 3f
       0.64859635 0.7797937 1.1713555 1.097963
0000d0 1c 97 e5 3f 5f 59 32 3f b6 d4 81 3f a6 e5 bc 3f
       1.793674 0.6966762 1.0143039 1.4757583
0000e0 90 40 99 3f 8a 22 6e 3f 1e b5 35 3f d4 12 f2 3f
       1.1972828 0.9302145 0.7097949 1.8911996
0000f0 94 0c 4e 3f 6b ed 6d 3f bc e4 53 3f d0 8c 5e 3f
       0.8048794 0.92940396 0.82770896 0.8693361

convs.0.nn.4.bias f4 [64]
000000 d7 92 ce bd b3 f7 ae 3e a5 b5 24 3e 50 23 30 3e
       -0.10086601 0.34173355 0.16084917 0.1720097
000010 56 c5 bd 3d 5a 88 42 3d fb 7c a0 3e dc 2e 8c bc
       0.092661545 0.047493316 0.31345353 -0.017112188
000020 14 2f 47 3e 1d 88 41 bc ca 6e 66 bd 4b b7 b8 bd
       0.19451553 -0.011812237 -0.056258 -0.09019335
000030 a6 55 80 be 05 92 a2 3c 5b a2 de 3c 62 85 0b be
       -0.25065345 0.019845018 0.027177026 -0.136251
000040 26 1e 03 3f c0 fe f6 3d 33 a6 b5 be 3e 64 6b 3c
       0.5121788 0.120603085 -0.35478362 0.014367161
000050 14 d2 07 3e e0 b9 2e be 43 bb a4 bd 2a 52 ab 3d
       0.13263732 -0.17063093 -0.0804353 0.08365281
000060 d7 81 93 3d e0 ae 26 3c 26 e0 5e 3e b9 1b 01 bd
       0.07202499 0.010173529 0.21765193 -0.03152058
000070 41 9c 44 3d 2d 1e b7 bd 86 e1 16 3d 1e 02 6a 3d
       0.048000578 -0.089413024 0.03683617 0.057130925
000080 2d ab 5e ba 48 0a cc bd 14 d0 e4 3e e4 b1 93 3e
       -0.0008494135 -0.099628985 0.4469 0.28846657
000090 4f ba e1 bc b3 a9 69 bc d1 16 c0 bc 73 42 91 bd
       -0.02755466 -0.014261651 -0.02344838 -0.07092752
0000a0 8e 69 a9 3d bf c6 fc bc 06 eb 51 bd cf fa cc bd
       0.08272086 -0.030856488 -0.051249526 -0.100087754
0000b0 aa cd 56 3b 1f cd f0 3c 9c 83 7b be 72 5d 44 3d
       0.0032776394 0.029394684 -0.24561924 0.04794068
0000c0 d2 d1 45 bd 76 74 08 3e 5b 1a b1 3e e9 30 cb 3e
       -0.048295803 0.13325676 0.3459042 0.39685753
0000d0 74 62 cf 3e 0d 75 5e 3d 46 83 0c 3e bf 69 eb 3d
       0.405048 0.054310847 0.13721952 0.11494779
0000e0 ef e6 dc bd 93 cf e1 bc d8 22 22 3e cb 7c 1d be
       -0.107862346 -0.0275648 0.15833604 -0.15379636
0000f0 a8 3f c8 3d 33 23 b6 3c 5b 2c d9 be c3 da c0 bd
       0.097777665 0.022233581 -0.42416653 -0.094167255

convs.0.nn.4.running_mean f4 [64]
000000 e5 94 31 41 1b 12 a6 3e 46 9f 7f 3e 2e 5d bc 40
       11.098851 0.32435688 0.24963102 5.8863745
000010 eb 03 92 3e 1c 56 85 41 b4 60 45 41 04 00 00 00
       0.28518614 16.667046 12.336109 6e-45
000020 e5 4b fa 3f 2b 1c 12 41 0c c0 93 40 1a 5e e6 3f
       1.9554411 9.131877 4.617193 1.7997468
000030 49 a0 ce 40 ce 29 37 42 08 94 89 41 e3 5a 25 41
       6.457066 45.790825 17.19728 10.334689
000040 8a 45 3b 41 58 4b 3b 40 52 e1 f4 40 e0 ce bb 40
       11.704477 2.9264736 7.652505 5.8690033
000050 c9 37 80 41 2d 45 f7 3f ce 46 f3 3f 27 c7 8f 40
       16.027239 1.9317986 1.9005983 4.4930606
000060 04 00 00 00 04 00 00 00 93 2c 01 41 7c 69 28 42
       6e-45 6e-45 8.073382 42.103012
000070 04 00 00 00 67 8c cc 40 04 00 00 00 ee 7f 09 40
       6e-45 6.392139 6e-45 2.1484332
000080 98 7d e8 41 2e de 54 41 d7 96 99 40 7f 26 75 40
       29.061325 13.304243 4.799663 3.8304746
000090 04 00 00 00 04 00 00 00 b0 9f 57 3f 04 00 00 00
       6e-45 6e-45 0.8422804 6e-45
0000a0 ce b5 6c 40 ef 41 1e 42 4d 9b 0e 41 b8 94 1d 40
       3.6985965 39.56439 8.912915 2.462202
0000b0 13 c9 5d 3f d3 05 2d 41 9e 5c 80 41 90 ba 37 42
       0.8663494 10.813922 16.045223 45.93219
0000c0 db d8 0c 42 b1 ea 16 41 08 12 4b 41 0f 6d 39 41
       35.211773 9.432298 12.691902 11.589126
0000d0 a1 21 21 40 c2 5e 53 42 c8 1b 32 41 ca 2e ee 3f
       2.5176775 52.842537 11.131783 1.8608029
0000e0 47 f7 3b 40 04 00 00 00 d8 e7 0d 41 eb 23 34 40
       2.9369676 6e-45 8.8691025 2.8146923
0000f0 33 1c b1 40 04 00 00 00 17 5e 86 40 fe 87 37 40
       5.5346923 6e-45 4.1989856 2.8676753

convs.0.nn.4.running_var f4 [64]
000000 3e 49 11 44 e0 7a a2 41 f8 a3 08 40 73 b2 f7 42
       581.1444 20.309998 2.1350079 123.84853
000010 65 8b 34 40 a7 4a d9 43 36 be c8 43 04 00 00 00
       2.821008 434.58322 401.48602 6e-45
000020 bb df d9 41 2d c6 78 43 20 75 e6 42 4b 7a d1 41
       27.234243 248.77412 115.22876 26.184713
000030 eb 81 f4 42 0e 08 05 44 c9 73 15 44 90 ec 16 43
       122.253746 532.12585 597.80914 150.92407
000040 10 1c 83 43 1a b3 74 42 ea 4d 3c 43 ca 5e 56 43
       262.21924 61.174904 188.30435 214.37027
000050 6d f3 d4 43 e9 60 0a 42 85 49 08 42 d8 da 5f 43
       425.90176 34.59464 34.071796 223.85486
000060 04 00 00 00 04 00 00 00 6b 12 52 43 f3 9f 15 44
       6e-45 6e-45 210.07195 598.4992
000070 04 00 00 00 66 09 0b 43 04 00 00 00 79 3b 3c 42
       6e-45 139.03671 6e-45 47.05808
000080 94 5b a9 43 53 97 82 43 5e d9 54 42 da a2 b1 42
       338.71545 261.18222 53.212273 88.81807
000090 04 00 00 00 04 00 00 00 ef 8d 28 41 04 00 00 00
       6e-45 6e-45 10.534652 6e-45
0000a0 80 1c 25 43 07 6d 0e 44 4a e6 fa 43 d5 48 65 42
       165.11133 569.70355 501.79913 57.321125
0000b0 d5 74 2b 41 d6 73 5e 43 d0 2b 09 44 ca dc c7 43
       10.716023 222.45248 548.6846 399.7249
0000c0 44 2a 01 44 2f 3f 17 43 82 e2 86 43 8d a8 92 43
       516.6604 151.24681 269.7696 293.3168
0000d0 95 a5 16 42 df 5b f7 43 ed 15 55 43 2d f6 02 42
       37.6617 494.71774 213.08565 32.740406
0000e0 c8 7f 3f 42 04 00 00 00 ce b6 82 43 17 d4 90 42
       47.874786 6e-45 261.42816 72.41424
0000f0 ef db ff 42 04 00 00 00 af 32 96 42 c8 56 24 43
       127.92956 6e-45 75.09899 164.33899
