saved_models/gin_ba_community.model (torch, 118335 bytes, 28 tensors)

conv1.nn.0.weight f4 [64, 10]
-0.028001007 -0.054121383 -0.14883582 0.07569518 -0.16145043 -0.23265883 -0.31547114 -0.028257478
0.17879799 0.016162006 0.2685013 -0.35410565 -0.0359137 -0.3348918 -0.016136138 0.16920404
0.23760822 0.032235317 0.05520262 -0.06837708 -0.32942262 -0.23843575 0.056497566 -0.44831708
0.18482977 -0.4117133 0.09565774 0.21369417 0.28757232 0.29806527 0.09089515 0.2337596
0.19485848 0.33401534 -0.2478564 0.071355686 0.13313724 -0.16995062 0.006097991 -0.20345496
-0.22067645 0.032545105 -0.09341703 -0.23094107 0.19066781 0.34932026 -0.43343103 -0.2845754
-0.22633082 -0.023509566 -0.18870573 -0.301801 -0.025596559 -0.21343683 -0.256878 -0.096907675
0.02394704 -0.20275593 0.1981047 -0.17387825 -0.13398418 -0.22983336 -0.18416496 -0.012546991
0.0036412112 0.015895342 0.218205 -0.3829024 -0.15785716 0.16666988 0.3178994 0.18748194
-0.09708667 -0.13497382 -0.10296219 0.1747085 -0.32374042 -0.31434476 -0.0011998946 0.49084777
-0.12511289 0.33747327 0.14110331 -0.39645976 -0.29418504 0.18950288 -0.032062832 -0.11388254
0.18825372 -0.07257987 -0.17310947 -0.024410624 0.2496794 -0.43909353 0.2553508 0.045606155
0.09755342 -0.12868679 0.095774524 -0.26234624 -0.008320454 0.119271345 0.25778255 0.040789895
-0.23169853 -0.039941028 0.29571223 0.29020074 0.22366439 0.14316748 0.16681142 -0.24031036
-0.100242645 0.17376421 -0.16160533 -0.1065659 0.32298815 -0.2585558 -0.049745217 0.42517194
-0.09738112 -0.25845253 0.065551944 0.1344001 -0.4111535 -0.2026083 0.35146585 -0.22045648
0.003637345 0.22921681 0.08272312 0.094643526 0.2632244 -0.2847297 -0.33271495 -0.37472025
0.1851569 0.0524403 -0.21957381 0.2650671 -0.15163423 -0.19010161 -0.24552678 0.46040097
0.24556376 -0.0037161063 0.17815378 0.38066518 0.056484044 -0.04225842 0.24789663 -0.1304152
0.071010314 -0.086356446 -0.083001435 -0.015573726 -0.27830404 -0.16936705 -0.41973862 -0.20859353
0.1257762 0.17677355 -0.14539948 -0.38114682 -0.21017796 0.37023312 -0.020321118 0.0032772126
-0.20586488 -0.102422014 -0.3259402 0.016325807 -0.28155223 -0.34151134 0.018962186 -0.10482529
-0.35105687 0.28722093 -0.290689 -0.4225698 -0.1663854 -0.25691888 -0.21680668 -0.04714791
0.100742266 0.15795115 0.059653077 -0.008148168 0.37106913 0.10514891 0.28750938 -0.09124102
0.28557348 0.03578005 0.18620577 -0.41015723 0.07443043 0.22010273 -0.050371174 0.30001122
0.28661382 0.13173431 -0.15648837 -0.2963656 -0.041409045 0.22386706 0.2329884 0.24381402
-0.039848804 0.22393762 -0.33330873 0.27327108 -0.33861664 -0.15320762 -0.029116493 0.1405447
-0.2937581 0.2616853 0.07236373 0.22916186 -0.28095922 0.06944296 -0.2612223 -0.23889393
0.13288215 0.41628474 -0.39778665 -0.2588054 -0.031305008 0.2821235 0.20847799 -0.23876967
0.3838582 -0.19315174 0.26725578 -0.021747993 0.21266702 0.004530292 -0.094040215 0.28328472
-0.13178812 -0.22554441 -0.096731804 0.031547554 0.43143943 0.08806217 -0.18622977 0.2772857
-0.08021477 -0.38455352 0.26556093 -0.13233472 -0.0156003805 -0.08087852 0.046495594 -0.12942684
00000000: 5e62 e5bc 62ae 5dbd 6b68 18be 1306 9b3d
00000010: 4353 25be 1e3e 6ebe 6f85 a1be 3a7c e7bc
00000020: d216 373e 2f66 843c 0179 893e 564d b5be
00000030: 3e1a 13bd f076 abbe ef2f 84bc d343 2d3e
00000040: 924f 733e 2e09 043d 241c 623d 4809 8cbd
00000050: 15aa a8be 8028 74be fe69 673d d189 e5be
00000060: 0444 3d3e 16cc d2be 35e8 c33d a5d2 5a3e
00000070: ae3c 933e 039c 983e 3d27 ba3d ad5e 6f3e
00000080: fb88 473e 0f04 ab3e 11ce 7dbe ee22 923d
00000090: 2155 083e 8907 2ebe a8d1 c73b 7f56 50be
000000a0: 02f9 61be 044e 053d 6e51 bfbd d17b 6cbe
000000b0: 6c3e 433e 1bda b23e acea ddbe deb3 91be
000000c0: 44c3 67be 2297 c0bc 133c 41be a985 9abe
000000d0: e0af d1bc 2f8f 5abe 8385 83be 8877 c6bd
000000e0: 952c c43c 409f 4fbe f5db 4a3e 240d 32be
000000f0: 2633 09be 7059 6bbe bd95 3cbe e591 4dbc
00000100: 63a1 6e3b f336 823c 2271 5f3e c90b c4be
00000110: 4fa5 21be 82ab 2a3e b6c3 a23e 44fb 3f3e
00000120: 60d5 c6bd 9436 0abe d7dd d2bd c9e6 323e
00000130: 4ec1 a5be ccf1 a0be c845 9dba 6650 fb3e
00000140: 981d 00be 4cc9 ac3e 637d 103e c6fc cabe
00000150: 6c9f 96be 0b0d 423e 5154 03bd 403b e9bd
00000160: 95c5 403e c1a4 94bd 9c43 31be caf8 c7bc
00000170: f5ab 7f3e ded0 e0be 57bd 823e 85cd 3a3d
00000180: 16ca c73d 78c6 03be 6f25 c43d 3f52 86be
00000190: 8352 08bc 8944 f43d 13fc 833e 4e13 273d
000001a0: 6142 6dbe 3499 23bd 9867 973e 3195 943e
000001b0: 4708 653e 7f9a 123e 9dd0 2a3e eb13 76be
000001c0: 044c cdbd 3fef 313e de7b 25be 393f dabd
000001d0: b45e a53e 6d61 84be a4c1 4bbd 23b0 d93e
000001e0: c16f c7bd e453 84be 1940 863d 2ea0 093e
000001f0: b682 d2be 8d78 4fbe 55f3 b33e 58bf 61be
00000200: 8660 6e3b d0b7 6a3e bd6a a93d 77d4 c13d
00000210: 59c5 863e 17c8 91be 9d59 aabe 55db bfbe
00000220: c599 3d3e a4cb 563d f5d7 60be e0b6 873e
00000230: 0146 1bbe ffa9 42be 5f6b 7bbe adb9 eb3e
00000240: 1175 7b3e eb89 73bb f26d 363e 8ce6 c23e
00000250: d05b 673d 2a17 2dbd 9dd8 7d3e 908b 05be
00000260: db6d 913d a6db b0bd a8fc a9bd f128 7fbc
00000270: de7d 8ebe 8e6e 2dbe fbe7 d6be 8b99 55be
00000280: 7acb 003e 2004 353e 9ae3 14be ad25 c3be
00000290: e438 57be 328f bd3e 7978 a6bc 81c6 563b
000002a0: 3ece 52be a2c2 d1bd a2e1 a6be b3bd 853c
000002b0: 9d27 90be 93da aebe 9656 9b3c a4ae d6bd
000002c0: babd b3be 9f0e 933e 30d5 94be 125b d8be
000002d0: ef60 2abe df8a 83be 9202 5ebe 2b1e 41bd
000002e0: f651 ce3d f2bd 213e c956 743d e57f 05bc
000002f0: c6fc bd3e 5058 d73d 6e34 933e 92dc babd
00000300: b036 923e 1a8e 123d baac 3e3e 2100 d2be
00000310: fb6e 983d 9c62 613e 0152 4ebd 129b 993e
00000320: 0cbf 923e 5ce5 063e 7d3e 20be 3bbd 97be
00000330: 889c 29bd 683d 653e 8394 6e3e 62aa 793e
00000340: 8038 23bd e74f 653e 71a7 aabe 30ea 8b3e
00000350: 295f adbe 75e2 1cbe b685 eebc f3ea 0f3e
00000360: 7667 96be 9efb 853e 6f33 943d 68a9 6a3e
00000370: e3d9 8fbe 1c38 8e3d eebe 85be 9ca0 74be
00000380: 4212 083e 4623 d53e b1aa cbbe 2482 84be
00000390: ae39 00bd 7e72 903e 417b 553e 0980 74be
000003a0: 1089 c43e 92c9 45be c0d5 883e d928 b2bc
000003b0: 62c5 593e d872 943b 2898 c0bd b20a 913e
000003c0: 77f3 06be 1df5 66be 531b c6bd 0238 013d
000003d0: a1e5 dc3e f059 b43d 04b3 3ebe 64f8 8d3e
000003e0: a447 a4bd 33e4 c4be 9af7 873e c182 07be
000003f0: bd98 7fbc a3a3 a5bd 2a72 3e3d 7888 04be

conv1.nn.0.bias f4 [64]
0.11010552 0.11907286 0.09974253 0.38712892 -0.028282441 -0.30509388 0.105782256 0.0031273242
-0.4424184 -0.52185506 -0.34438884 -0.17152686 0.19989607 -0.118971795 0.30835232 0.04205943
0.13868777 -0.03673128 -0.3158858 -0.11904222 -0.22983429 -0.28389063 -0.03121046 0.025676373
0.3285668 -0.21988207 -0.35406306 -0.31188354 -0.3650102 -0.007892134 0.1342395 0.33529514
-0.13959496 0.38561565 -0.32621968 0.5438382 -0.32561105 0.1674518 0.25708672 -0.020982102
-0.38717562 0.06431466 -0.32673645 0.27076387 -0.33499882 0.063284375 0.046276905 0.36529052
0.40029818 0.078573994 -0.3156911 0.35353136 0.100548364 0.13454391 -0.16376907 -0.15321623
-0.32577768 -0.00223298 0.16507609 -0.4013575 -0.17394869 -0.38679716 -0.19426917 0.12438023
00000000: 017f e13d 79dc f33d d045 cc3d c335 c63e
00000010: 94b0 e7bc 4435 9cbe 5ea4 d83d cbf3 4c3b
00000020: aa84 e2be 4b98 05bf bc53 b0be bda4 2fbe
00000030: 8eb1 4c3e 7ca7 f3bd 5be0 9d3e 8246 2c3d
00000040: 2b04 0e3e 8a73 16bd c9bb a1be 68cc f3bd
00000050: ae59 6bbe 1d5a 91be 14ad ffbc 4257 d23c
00000060: e839 a83e c428 61be c147 b5be 33af 9fbe
00000070: 9ee2 babe 024e 01bc 1476 093e ceab ab3e
00000080: fbf1 0ebe 6a6f c53e 4406 a7be fb38 0b3f
00000090: 7eb6 a6be 7c78 2b3e dfa0 833e a8e2 abbc
000000a0: e23b c6be 68b7 833d 004a a7be 90a1 8a3e
000000b0: f784 abbe 3d9b 813d da8c 3d3d 5c07 bb3e
000000c0: e2f3 cc3e 67eb a03d 44a2 a1be 1002 b53e
000000d0: 4dec cd3d e1c5 093e 14b3 27be b7e4 1cbe
000000e0: 55cc a6be 3057 12bb b509 293e bb7e cdbe
000000f0: 9b1f 32be 470a c6be 7fee 46be 10bb fe3d

conv1.nn.2.weight f4 [64, 64]
-0.21389103 0.121543825 -0.003279368 -0.11582595 -0.029280419 -0.12792926 0.020090029 -0.0031462824
-0.049154654 -0.06725992 -0.12128161 0.0532354 0.1602723 -0.036971886 0.11104022 0.088627025
0.0840137 -0.29672387 -0.019414073 -0.21134365 -0.07044282 0.00905112 -0.10642232 0.051546875
0.027459385 0.06115807 -0.12082624 0.034414064 -0.09914265 0.034586307 -0.0958808 -0.102721415
0.29368263 -0.17747653 0.050440867 0.14014734 -0.11736681 -0.11507091 -0.16745746 0.053198297
0.15786412 -0.06010492 -0.12545514 -0.08867578 0.050132938 0.16951716 -0.11181308 0.032401334
-0.059748832 0.046818424 0.096902736 0.028824285 0.08167176 0.040701132 0.076504916 -0.11348782
0.09049295 0.019260295 0.16783892 -0.16798331 -0.053321034 0.0072883866 0.032060783 0.1172323
0.0037791848 0.09867009 -0.06897075 -0.06190095 0.023135932 -0.09283356 0.10786115 0.15807956
-0.058272325 -0.052614383 0.061416306 -0.0014589584 0.05076871 0.26370677 -0.017294278 0.022063805
-0.105460785 -0.08580068 0.03322147 0.2592543 0.0503614 -0.23580106 -0.13274062 0.013260721
-0.08030606 0.07665208 -0.0022109256 0.044888474 0.0025137586 -0.1872622 0.06524943 -0.08749335
0.099511445 0.07435782 -0.024025345 -0.0061041135 0.042011157 -0.26133966 -0.0014326925 0.20341487
-0.14524476 0.07919183 -0.014574172 -0.044488825 0.07294708 0.11092385 -0.14271596 -0.1639347
-0.14002438 0.10528265 -0.042016592 -0.15218472 0.010407426 -0.04336407 -0.0033260137 -0.09776453
0.10306931 -0.12283087 -0.116486914 -0.0635572 0.21227475 -0.09734435 0.045773197 -0.0052003753
0.0065117013 -0.20768248 0.14009757 -0.110081665 -0.07780933 -0.13573954 0.050435144 -0.079994135
-0.0027570787 0.01236874 -0.010320285 -0.24737266 -0.047019288 0.20316315 0.087848164 -0.10301507
-0.13523214 0.026667729 -0.012791695 -0.008262978 -0.2706629 -0.15913212 -0.05705213 -0.16882616
0.067549855 -0.10403547 0.04111459 0.01643063 -0.08426113 -0.008328377 -0.078463346 -0.0942703
0.0012926069 -0.19946428 -0.12567598 -0.2595053 -0.1633902 0.0736732 -0.17577647 -0.1590827
-0.102547504 0.07347209 -0.05694323 -0.19420369 -0.11760139 -0.06793346 -0.18720607 0.06281404
-0.23320207 -0.006359539 -0.21756864 0.16225737 -0.05031503 -0.1667199 -0.18177569 -0.3283951
-0.26722583 0.118473664 -0.07419032 0.072384015 -0.13959867 0.1837685 -0.07515513 -0.26397628
-0.05289728 -0.10443456 0.22256039 0.13855843 -0.24004662 -0.31106862 -0.12512687 -0.09992555
0.17325261 -0.05453405 0.108847745 -0.0026402976 0.115717374 0.0745845 -0.035173725 -0.06840893
0.041374564 -0.3551129 -0.36967313 0.00051863474 0.073179625 -0.2815906 -0.32318902 -0.4024458
-0.11510184 0.15713505 -0.17488353 -0.048698977 0.02314904 -0.040663216 -0.070886746 0.065862745
-0.036766477 -0.013335172 0.062272258 -0.09980495 -0.2845742 0.009194174 0.13068862 -0.1351663
0.11266993 -0.14207795 -0.38055992 -0.1320532 0.050565496 0.014146686 -0.29770687 -0.026867872
-0.21455114 -0.041328296 -0.13326931 0.026399577 0.02088613 -0.24117291 -0.15391935 0.06578667
0.06781559 0.105877645 -0.5083791 -0.04830404 -0.13803041 0.04503957 -0.26273263 -0.39010668
00000000: 4006 5bbe f8eb f83d aaea 56bb 2836 edbd
00000010: 7ddd efbc e3ff 02be d893 a43c dc31 4ebb
00000020: 6456 49bd 92bf 89bd 7e62 f8bd 5d0d 5a3d
00000030: 6c1e 243e d56f 17bd 0e69 e33d 1682 b53d
00000040: 600f ac3d 31ec 97be 430a 9fbc 786a 58be
00000050: 5344 90bd 264b 143c f2f3 d9bd d122 533d
00000060: 81f2 e03c e280 7a3d bf73 f7bd c3f5 0c3d
00000070: 4d0b cbbd 5faa 0d3d 275d c4bd 9b5f d2bd
00000080: 925d 963e 68bc 35be 159b 4e3d c982 0f3e
00000090: 035e f0bd 4caa ebbd f879 2bbe 75e6 593d
000000a0: 22a7 213e 9430 76bd 5077 00be a69b b5bd
000000b0: 3258 4d3d e895 2d3e 42fe e4bd 43b7 043d
000000c0: 31bb 74bd adc4 3f3d f174 c63d e820 ec3c
000000d0: 8643 a73d 3bb6 263d 9cae 9c3d 4d6c e8bd
000000e0: 5e54 b93d c4c7 9d3c f7dd 2b3e d103 2cbe
000000f0: 2867 5abd 6bd3 ee3b 2b52 033d 7d17 f03d
00000100: 33ac 773b 8b13 ca3d 8940 8dbd da8b 7dbd
00000110: 9187 bd3c 861f bebd 4ee6 dc3d 9cdf 213e
00000120: f6ae 6ebd 2e82 57bd aa8f 7b3d 853a bfba
00000130: daf2 4f3d 9304 873e bbac 8dbc 27bf b43c
00000140: d3fb d7bd 44b8 afbd 3c13 083d fbbc 843e
00000150: c147 4e3d d575 71be 28ed 07be 7f43 593c
00000160: 8177 a4bd c4fb 9c3d 2de5 10bb fadc 373d
00000170: dfbd 243b aac1 3fbe 7ea1 853d b72f b3bd
00000180: a8cc cb3d ea48 983d cdd0 c4bc 0405 c8bb
00000190: e413 2c3d 50ce 85be 2fc9 bbba fd4b 503e
000001a0: 0bbb 14be 532f a23d 82c8 6ebc ea39 36bd
000001b0: 4765 953d 0b2c e33d 2224 12be 7fde 27be
000001c0: 8d62 0fbe 6e9e d73d 9719 2cbd 50d6 1bbe
000001d0: e983 2a3c 869e 31bd 40f9 59bb c538 c8bd
000001e0: 0116 d33d c08e fbbd b190 eebd 472a 82bd
000001f0: 8d5e 593e 795c c7bd ad7c 3b3d e967 aabb
00000200: 1c60 d53b b7aa 54be bd75 0f3e 7f72 e1bd
00000210: 7f5a 9fbd 4eff 0abe 1595 4e3d f7d3 a3bd
00000220: 1bb0 34bb 41a6 4a3c 6a16 29bc 424f 7dbe
00000230: 4c97 40bd 000a 503e bde9 b33d 91f9 d2bd
00000240: 4b7a 0abe 4876 da3c 4294 51bc 7161 07bc
00000250: 5494 8abe 88f3 22be 7faf 69bd c4e0 2cbe
00000260: 9457 8a3d 8c10 d5bd c667 283d 8799 863c
00000270: 1991 acbd bf73 08bc 64b1 a0bd c910 c1bd
00000280: b16c a93a 5d40 4cbe 34b1 00be e1dd 84be
00000290: c34f 27be fae1 963d bffe 33be 93e6 22be
000002a0: 6d04 d2bd 8978 963d 4e3d 69bd 55dd 46be
000002b0: ffd8 f0bd b320 8bbd f3b2 3fbe a6a4 803d
000002c0: 86cc 6ebe ae63 d0bb 50ca 5ebe cc26 263e
000002d0: 2217 4ebd 9fb8 2abe 6823 3abe 6723 a8be
000002e0: d3d1 88be 52a2 f23d 18f1 97bd 123e 943d
000002f0: f4f2 0ebe cf2d 3c3e efea 99bd e627 87be
00000300: d1aa 58bd c9e1 d5bd dfe6 633e 43e2 0d3e
00000310: c8ce 75be 6344 9fbe 4221 00be c4a5 ccbd
00000320: 2269 313e 195f 5fbd 91eb de3d d808 2dbb
00000330: 3bfd ec3d c2bf 983d 5312 10bd fb19 8cbd
00000340: 6078 293d 5cd1 b5be cc45 bdbe fdf4 073a
00000350: 33df 953d a52c 90be 0879 a5be 600d cebe
00000360: 83ba ebbd 03e8 203e ab14 33be 9478 47bd
00000370: 0ea3 bd3c 798e 26bd 122d 91bd 0ce3 863d
00000380: 7298 16bd c47b 5abc 3211 7f3d 8a66 ccbd
00000390: b6b3 91be 29a3 163c 3dd3 053e 0969 0abe
000003a0: 7ebf e63d e27c 11be c0d8 c2be f438 07be
000003b0: c41d 4f3d 80c7 673c 096d 98be 031a dcbc
000003c0: 4bb3 5bbe dc47 29bd c077 08be ed43 d83c
000003d0: 6419 ab3c 08f6 76be 099d 1dbe 29bb 863d
000003e0: e6e2 8a3d 61d6 d83d 2225 02bf 75da 45bd
000003f0: d857 0dbe 6a7b 383d e484 86be 10bc c7be

conv1.nn.2.bias f4 [64]
0.11373599 0.08963048 0.0011607099 0.05256944 -0.19929238 0.027595704 -0.064336255 -0.02535597
0.1549573 -0.14905125 0.035974357 0.21021044 -0.029472008 0.039100446 0.10559617 -0.121980645
0.1326298 -0.14294909 0.26480725 -0.005816963 0.32335705 -0.079649985 0.08028003 -0.07775243
-0.15570205 0.1973661 0.15671249 0.086580716 0.10979945 0.12813535 -0.23296563 0.17633091
0.12657574 -0.1928676 -0.002943659 0.16098192 -0.13476016 0.011078026 -0.03629983 0.1477422
-0.07342913 0.07351226 0.06368541 0.10725575 0.2293997 0.33926702 0.19365692 0.046970468
0.20417327 -0.10819085 -0.08000695 -0.02120043 0.04627412 -0.15644465 -0.079644 -0.051645797
-0.055091437 -0.2033076 0.1566581 -0.0004137067 -0.03895021 -0.29008582 -0.036625948 -0.20276636
00000000: 6aee e83d 2f90 b73d f622 983a 0e53 573d
00000010: 4d13 4cbe 6310 e23c bac2 83bd 53b7 cfbc
00000020: 20ad 1e3e e4a0 18be d959 133d 6841 573e
00000030: 486f f1bc ca27 203d ce42 d83d fdd0 f9bd
00000040: 1bd0 073e 3f61 12be d194 873e 399c bebb
00000050: 0e8f a53e 881f a3bd db69 a43d ab3c 9fbd
00000060: 5c70 1fbe 571a 4a3e 3d79 203e 3b51 b13d
00000070: 89de e03d ea35 033e 8b8e 6ebe 1790 343e
00000080: 129d 013e 167f 45be 67ea 40bb 72d8 243e
00000090: 91fe 09be 9c80 353c 21af 14bd bb49 173e
000000a0: 0362 96bd 998d 963d 7f6d 823d e7a8 db3d
000000b0: c1e7 6a3e 68b4 ad3e 004e 463e 1b64 403d
000000c0: cc12 513e 2a93 ddbd afda a3bd 86ac adbc
000000d0: ef89 3d3d 0733 20be 651c a3bd 8b8a 53bd
000000e0: 8fa7 61bd de2f 50be fb6a 203e c6e6 d8b9
000000f0: 418a 1fbd 2186 94be 1705 16bd fca1 4fbe

conv1.nn.4.weight f4 [64]
0.89850795 0.9825656 0.99144644 0.99674046 0.9234768 0.87589437 0.83463955 0.94053453
0.9828734 1.0974166 0.9283586 0.995054 0.9895168 0.90528446 1.1853802 0.9402563
1.0015342 0.97924745 0.9053838 0.9601424 1.0437273 1.1017201 0.95236456 0.9985192
0.9698801 1.1359798 0.83036125 0.8768963 1.0508838 0.8967826 0.89634246 0.89888877
1.1710656 0.8641674 0.9815454 1.1173315 0.93566334 1.0115231 0.81942517 0.94133645
0.8861847 0.91771275 0.9472474 0.9758136 1.1187708 1.0183282 0.9894864 0.8024327
1.1171567 0.8814182 0.92933923 0.8138416 1.1038281 1.0370597 1.0079774 0.9447032
0.86254585 0.9861219 1.0112906 1.1034584 0.95438105 0.8798338 0.98795265 1.0180559
00000000: 9e04 663f 6b89 7b3f 6fcf 7d3f 622a 7f3f
00000010: fa68 6c3f 9d3a 603f f0aa 553f dfc6 703f
00000020: 979d 7b3f 2678 8c3f e9a8 6d3f dcbb 7e3f
00000030: f950 7d3f b9c0 673f 8aba 973f a3b4 703f
00000040: 4632 803f f6af 7a3f 3cc7 673f e4cb 753f
00000050: db98 853f 2a05 8d3f 2ace 733f f49e 7f3f
00000060: 104a 783f c967 913f 8e92 543f 477c 603f
00000070: 5c83 863f 8b93 653f b376 653f 931d 663f
00000080: 7ae5 953f 133a 5d3f 8f46 7b3f b804 8f3f
00000090: a287 6f3f 9779 813f d9c5 513f 6dfb 703f
000000a0: 00dd 623f 39ef 6a3f ce7e 723f ecce 793f
000000b0: e233 8f3f 9458 823f fb4e 7d3f 3b6c 4d3f
000000c0: fefe 8e3f a0a4 613f 2de9 6d3f ec57 503f
000000d0: 3d4a 8d3f 5fbe 843f 6705 813f 12d8 713f
000000e0: cecf 5c3f 7c72 7c3f f871 813f 203e 8d3f
000000f0: 5152 743f ca3c 613f 77ea 7c3f a84f 823f

conv1.nn.4.bias f4 [64]
0.00086884876 0.021956574 -0.06349368 -0.090267666 -0.18101017 0.08822338 -0.121129185 0.084385864
-0.0014991105 -0.013787226 0.02681541 0.084810965 -0.027075471 -0.03469363 0.017629977 -0.15785094
-0.12885924 -0.02722201 -0.06194065 -0.016344363 -0.061651576 0.06879422 0.0050016665 -0.1460742
0.012381007 0.006674825 -0.013800963 0.07261163 -0.030492445 -0.05245835 0.10437257 -0.055245202
0.0057430547 0.03929431 -0.086688995 -0.08520396 0.059703823 -0.008980166 0.02205889 0.17884737
0.044204116 -0.045521542 -0.021707064 0.07132571 -0.09731665 0.051701643 0.032836653 0.120660566
-0.0887414 0.07849631 -0.05010983 0.050815485 0.14579716 0.19862552 0.040536292 -0.12744355
0.10960932 -0.010632126 -0.04081043 0.049541716 -0.03597846 -0.02484969 -0.09203268 0.0116853025
00000000: 74c3 633a 46de b33c f908 82bd 41de b8bd
00000010: bb5a 39be 76ae b43d 9412 f8bd 7fd2 ac3d
00000020: cd7d c4ba d1e3 61bc feab db3c 5fb1 ad3d
00000030: 61cd ddbc e81a 0ebd be6c 903c ada3 21be
00000040: adf3 03be b100 dfbc 7bb5 7dbd 9de4 85bc
00000050: 5d86 7cbd fce3 8c3d 05e5 a33b 7a94 15be
00000060: b5d9 4a3c 7eb8 da3b 6f1d 62bc 68b5 943d
00000070: 4bcb f9bc 91de 56bd 49c1 d53d cb48 62bd
00000080: 3c30 bc3b 12f3 203d 008a b1bd 6a7f aebd
00000090: ff8b 743d 8c21 13bc d8b4 b43c c423 373e
000000a0: 600f 353d cc74 3abd 03d3 b1bc 3713 923d
000000b0: f44d c7bd 1ac5 533d ba7f 063d e31c f73d
000000c0: 0dbe b5bd acc2 a03d f73f 4dbd e623 503d
000000d0: da4b 153e 7d64 4b3e 6209 263d 9080 02be
000000e0: da7a e03d 5e32 2ebc d628 27bd 41ec 4a3d
000000f0: 265e 13bd 9491 cbbc a17b bcbd b673 3f3c

conv1.nn.4.running_mean f4 [64]
0.50269693 0.5622062 0.017718896 0.14047235 0.2963475 2.4119306 0.025666062 3.262931
3.7113855 0.23185137 0.51471186 1.5601112 3.5472026e-32 0.061550505 0.08901722 0.79353476
1.3913157 1.7582135 3.020651 0.7335429 0.64410686 0.29344925 0.6435723 1.3308575
0.53743124 0.11705274 0.61912674 1.4257823 0.050919037 0.1278786 0.7044035 0.34999037
0.1460443 1.3492973 0.6439756 0.0072681666 1.7548989 1.4966401 1.9964881 2.340031
1.832024 3.2498546 1.0827668 2.978118 0.25745976 1.7230899 0.2635974 3.0738897
0.25156814 1.2835641 0.022012165 1.5784104 0.247699 0.6010011 0.01608003 1.8088406
2.5788116 4.3628626 0.58719456 0.16806205 9.163338e-33 0.9950107 0.22187132 0.33284542
00000000: bfb0 003f bfec 0f3f 3827 913c fcd7 0f3e
00000010: dcba 973e 125d 1a40 a241 d23c ddd3 5040
00000020: 5787 6d40 726a 6d3e 28c4 033f b9b1 c73f
00000030: 692e 380b 621c 7c3d a94e b63d 1825 4b3f
00000040: a216 b23f 240d e13f 5952 4140 78c9 3b3f
00000050: 30e4 243f fb3e 963e 27c1 243f 8a59 aa3f
00000060: 1895 093f 59b9 ef3d 177f 1e3f 0980 b63f
00000070: 7b90 503d 9cf2 023e ca53 343f f031 b33e
00000080: a38c 153e c6b5 ac3f 96db 243f cd29 ee3b
00000090: 87a0 e03f e791 bf3f ec8c ff3f 11c3 1540
000000a0: c37f ea3f 9efd 4f40 1a98 8a3f 7c99 3e40
000000b0: c4d1 833e 368e dc3f 3df6 863e 9cba 4440
000000c0: 8acd 803e d44b a43f db52 b43c 5a09 ca3f
000000d0: cfa4 7d3e 35db 193f 44ba 833c 1788 e73f
000000e0: 400b 2540 929c 8b40 6252 163f 7518 2c3e
000000f0: a950 3e0a 05b9 7e3f 3c32 633e b76a aa3e

conv1.nn.4.running_var f4 [64]
1.0037072 1.7126431 0.023243818 0.28284183 0.68921024 17.520506 0.025958048 6.1793957
19.64077 0.98740715 1.0286282 6.54293 3.0663667e-30 0.11259523 0.13460837 2.7613811
5.738011 8.749994 20.843311 4.577327 0.91559243 1.0370784 2.4324174 8.63752
1.5326407 0.18202028 1.3991909 5.281985 0.05072994 0.15898706 1.7487174 0.51426697
0.23563267 4.254892 1.2339286 0.0069302865 10.281607 3.2879846 14.125606 10.462414
12.957288 8.748395 4.617883 22.134933 0.30519843 8.120794 0.306546 10.107312
0.28781784 2.6156876 0.027910996 7.2200165 0.54262036 3.2493806 0.015566582 8.700751
20.567657 15.546698 1.2216387 0.18722647 3.0679176e-30 5.7852845 0.49637163 0.8033402
00000000: 7a79 803f e437 db3f d269 be3c a5d0 903e
00000010: 1570 303f ff29 8c41 f9a5 d43c 9cbd c540
00000020: 4c20 9d41 b7c6 7c3f 17aa 833f af5f d140
00000030: f2c5 780e 5498 e63d c7d6 093e 78ba 3040
00000040: c99d b740 faff 0b41 1abf a641 7679 9240
00000050: 4464 6a3f fcbe 843f baac 1b40 4833 0a41
00000060: 922d c43f 8663 3a3e b018 b33f 0506 a940
00000070: 33ca 4f3d 81cd 223e f9d5 df3f 00a7 033f
00000080: b149 713e 1328 8840 5ff1 9d3f 7517 e33b
00000090: 7681 2441 576e 5240 7b02 6241 0c66 2741
000000a0: 0d51 4f41 6df9 0b41 b3c5 9340 5814 b141
000000b0: f842 9c3e c6ee 0141 99f3 9c3e 8db7 2141
000000c0: dc5c 933e 6d67 2740 9aa5 e43c 600a e740
000000d0: 2be9 0a3f daf5 4f40 fa0a 7f3c 4736 0b41
000000e0: 908a a441 46bf 7841 a85e 9c3f 4cb8 3f3e
000000f0: 28e6 780e 0d21 b940 6c24 fe3e b4a7 4d3f

convs.0.nn.0.weight f4 [64, 64]
0.06585632 0.14094411 0.07675604 0.16442412 0.030720763 0.055267643 -0.01664801 0.17971225
0.15034142 0.061201055 0.08901447 -0.016762616 0.03080935 0.08322146 0.16347235 0.06333996
0.18150312 0.18286608 0.11373444 0.15161234 -0.107379965 0.010083002 0.15589261 0.2152541
0.18596576 -0.2093764 0.10590812 0.03006497 0.15171993 0.03074315 0.13669488 0.083079554
-0.2771038 0.017996289 0.02776706 0.09159201 0.13471258 0.09749487 0.06695201 -0.03664354
0.1405796 0.19500723 0.13908927 0.025919752 -0.017051872 0.15180238 -0.046255723 0.09135459
0.13952318 -0.006008393 0.041217837 0.083872974 0.11944742 0.063059226 -0.03851455 0.1737277
0.099714085 0.21419576 -0.11379809 -0.084708594 0.061004702 0.06624883 0.11931993 0.1661435
0.1219245 0.20708185 -0.08590885 -0.01897163 0.06390208 0.1652135 0.028421028 0.121880434
-0.121288545 0.044937413 0.07650182 0.18549491 -0.05893913 -0.13376121 0.23995356 -0.062981315
0.1915746 0.062035613 -0.11372917 0.05651957 0.23460811 0.07602648 0.1250497 0.09155792
0.087770924 -0.16601771 -0.016720042 -0.14062361 0.033254575 0.048564095 -0.10036499 -0.094471425
-0.046056043 0.02868348 -0.078624144 -0.37825674 0.08174387 0.2131294 0.021264737 0.048974145
-0.07887282 0.15156737 -0.10345619 -0.08340795 0.18015526 0.013663777 -0.009798357 0.08913876
0.05523331 0.055429023 0.09554568 0.15530725 0.12354108 0.18760842 0.17412576 0.04256045
0.023966284 -0.14177445 0.12854894 -0.05085059 0.058536306 0.1172351 -0.13318653 0.15664096
-0.0013688685 0.006408326 -0.0144150825 0.2116123 0.21328266 0.09043146 -0.070337795 -0.026517313
0.000396698 0.042093907 0.058165748 -0.17481415 0.09088754 0.120011084 0.06372544 0.11358839
-0.017814314 0.06755407 0.0817661 -0.123696 0.10328767 -0.07516418 0.0035434747 0.0841763
-0.016448436 0.08205808 -0.037453324 4.6194382e-05 0.11406046 0.054535463 -0.06862177 0.14323378
-0.014829478 -0.14575014 -0.019258425 -0.13632402 0.006302711 -0.027155453 -0.104665875 -0.10336002
-0.015911728 0.13504183 0.051303543 0.069384046 0.07064352 0.032690916 -0.015675368 0.087523475
-0.06615237 0.12307331 0.1370942 0.01529749 0.09647177 -0.123655155 -0.1232891 0.19170856
-0.06851742 -0.0027635263 0.16102353 0.048632137 0.07110146 0.13279164 0.18956226 -0.03996717
-0.14092124 0.13767478 0.043013114 -0.005879428 0.11694101 -0.123532794 -0.17796338 0.075423054
-0.15831046 -0.036386635 0.031650677 0.11403234 0.008825708 0.093207926 0.20751889 0.048391182
0.15303136 -0.09561021 -0.06516413 -0.03913248 -0.005951629 0.0041328003 0.13093853 0.058885984
0.0014662164 0.16732197 -0.13455868 -0.033642024 -0.12569143 -0.08666796 0.07403895 -0.21006796
-0.022801682 -0.14463693 0.023405395 -0.06156237 -0.016334502 -0.024053168 0.019892106 0.004788547
-0.028087799 0.07301376 0.03399065 -0.11299849 0.050807267 0.011171489 0.12345299 0.021827295
0.052859977 -0.24919401 0.012793321 0.07559633 -0.13794604 -0.057344943 0.101599514 0.05178615
0.041780602 -0.09220266 0.03429054 -0.1417154 0.07722183 0.022902798 0.0940759 -0.10188136
00000000: aedf 863d a753 103e 4532 9d3d cc5e 283e
00000010: 1caa fb3c 5360 623d 6861 88bc 7d06 383e
00000020: 1af3 193e f5ad 7a3d 384d b63d c151 89bc
00000030: e463 fc3c 0370 aa3d 4c65 273e 62b8 813d
00000040: f4db 393e 3f41 3b3e 9aed e83d 4440 1b3e
00000050: 07ea dbbd 2d33 253c 50a2 1f3e 926b 5c3e
00000060: cf6d 3e3e c466 56be 5be6 d83d d04a f63c
00000070: 785c 1b3e 0fd9 fb3c bef9 0b3e 9d25 aa3d
00000080: 8de0 8dbe f46c 933c bf77 e33c 9794 bb3d
00000090: 18f2 093e 64ab c73d 231e 893d 8917 16bd
000000a0: 19f4 0f3e faaf 473e 6b6d 0e3e a955 d43c
000000b0: 5eb0 8bbc 1572 1b3e a476 3dbd 1e18 bb3d
000000c0: 2adf 0e3e 0ee2 c4bb 09d4 283d 98c5 ab3d
000000d0: d9a0 f43d 3225 813d 6fc1 1dbd ade5 313e
000000e0: e636 cc3d 2256 5b3e f90e e9bd b37b adbd
000000f0: 11e0 793d 77ad 873d 025e f43d 8621 2a3e
00000100: 8db3 f93d 440d 543e fbf0 afbd 646a 9bbc
00000110: 18df 823d ba2d 293e 37d3 e83c 739c f93d
00000120: 2166 f8bd 4b10 383d fcac 9c3d 61f2 3d3e
00000130: 286a 71bd b3f8 08be 63b6 753e 59fc 80bd
00000140: 222c 443e 0e19 7e3d d7ea e8bd 1181 673d
00000150: 1c3d 703e c5b3 9b3d 070d 003e b882 bb3d
00000160: 3ec1 b33d 8c00 2abe 78f8 88bc a3ff 0fbe
00000170: f335 083d 25eb 463d 298c cdbd 3c7a c1bd
00000180: 43a5 3cbd 9ef9 ea3c b205 a1bd deaa c1be
00000190: 5569 a73d 983e 5a3e 6333 ae3c 1d99 483d
000001a0: 1388 a1bd 7a34 1b3e d7e0 d3bd cad1 aabd
000001b0: 9f7a 383e 09de 5f3c 4a89 20bc 628e b63d
000001c0: 533c 623d 8b09 633d 74ad c33d dd08 1f3e
000001d0: 1b03 fd3d 6c1c 403e 064e 323e de53 2e3d
000001e0: f154 c43c 522d 11be 55a2 033e b548 50bd
000001f0: c4c3 6f3d f518 f03d 0d62 08be 7d66 203e
00000200: 9b6b b3ba effc d13b 3d2d 6cbc e5b0 583e
00000210: c566 5a3e 2134 b93d 430d 90bd d63a d9bc
00000220: e7fb cf39 a96a 2c3d 353f 6e3d 7b02 33be
00000230: 3f23 ba3d 5fc8 f53d 7c82 823d 08a1 e83d
00000240: 53ef 91bc ca59 8a3d fc74 a73d 5454 fdbd
00000250: 7c88 d33d adef 99bd a439 683b a064 ac3d
00000260: dfbe 86bc 110e a83d a868 19bd d7c0 4138
00000270: 8898 e93d 9460 5f3d 9289 8cbd e0ab 123e
00000280: 57f7 72bc 863f 15be d8c3 9dbc 8698 0bbe
00000290: f986 ce3b 1d75 debc 105b d6bd 6bae d3bd
000002a0: 5059 82bc 6848 0a3e aa23 523d 3919 8e3d
000002b0: 8dad 903d e9e6 053d a169 80bc 823f b33d
000002c0: e57a 87bd dc0d fc3d 6c62 0c3e 53a2 7a3c
000002d0: fe92 c53d ea3e fdbd ff7e fcbd 404f 443e
000002e0: dc52 8cbd 471c 35bb 5ae3 243e 7e32 473d
000002f0: a49d 913d 88fa 073e 9c1c 423e 9eb4 23bd
00000300: a84d 10be 9efa 0c3e 852e 303d 37a8 c0bb
00000310: c57e ef3d c3fe fcbd 083c 36be 6777 9a3d
00000320: 231c 22be 270a 15bd 24a4 013d ca89 e93d
00000330: b499 103c cce3 be3d d57f 543e d535 463d
00000340: 41b4 1c3e 49cf c3bd c574 85bd 6149 20bd
00000350: e205 c3bb 716c 873b c014 063e 6e32 713d
00000360: 0f2e c03a 7356 2b3e c0c9 09be 38cc 09bd
00000370: 41b5 00be f97e b1bd bca1 973d 0e1c 57be
00000380: 98ca babc b41b 14be acbc bf3c d328 7cbd
00000390: efcf 85bc 260b c5bc c5f4 a23c 3ee9 9c3b
000003a0: 6218 e6bc 3d88 953d c839 0b3d c16b e7bd
000003b0: 481b 503d 9f08 373c ecd4 fc3d 28cf b23c
000003c0: b483 583d b72c 7fbe 149b 513c 40d2 9a3d
000003d0: ba41 0dbe 88e2 6abd 6813 d03d b71d 543d
000003e0: 2322 2b3d c0d4 bcbd 3d74 0c3d d81d 11be
000003f0: 7b26 9e3d a69e bb3c deaa c03d 2da7 d0bd

convs.0.nn.0.bias f4 [64]
-0.40062785 -0.21165138 -0.20314567 -0.1077595 -0.17476182 -0.41415423 -0.31326813 0.406483
-0.31676567 0.23777793 0.14268148 -0.18541686 0.032168362 -0.0848784 -0.28422475 0.060574204
-0.40538278 -0.10817572 -0.080415316 -0.32296062 0.19449991 0.37335983 0.16516675 0.18978824
0.4453247 -0.10724279 -0.30927426 -0.59211046 0.19916716 -0.49449268 -0.1925289 0.14061813
-0.23712856 -0.30202517 -0.24963562 -0.45800692 0.02684777 -0.23729102 -0.10984002 0.21584415
0.13891916 0.03610925 -0.08995026 -0.26749396 -0.08934602 0.24282278 -0.15439515 0.16576526
-0.2597416 -0.1719119 0.50637233 -0.15904592 -0.47086585 -0.497716 -0.36899796 0.15511791
-0.22962235 -0.1570734 -0.26420844 -0.123900965 0.2429764 0.1642967 -0.042572893 -0.19330345
00000000: 181f cdbe 24bb 58be 6b05 50be 03b1 dcbd
00000010: c3f4 32be 060c d4be ae64 a0be 8a1e d03e
00000020: 1c2f a2be 0f7c 733e 181b 123e ebdd 3dbe
00000030: f9c2 033d bad4 adbd e885 91be a81c 783d
00000040: 558e cfbe 3b8b ddbd c9b0 a4bd 185b a5be
00000050: fc2a 473e 0529 bf3e 7921 293e d957 423e
00000060: 9901 e43e 1ca2 dbbd 3259 9ebe 8d94 17bf
00000070: 7af2 4b3e 252e fdbe 4c26 45be 33fe 0f3e
00000080: d4d1 72be 0ba3 9abe 7ba0 7fbe e27f eabe
00000090: dbef db3c 6bfc 72be cef3 e0bd 4006 5d3e
000000a0: d340 0e3e 4be7 133d d837 b8bd f8f4 88be
000000b0: 0cfb b6bd 89a6 783e c319 1ebe 5ebe 293e
000000c0: dafc 84be ac09 30be 9ea1 013f efdc 22be
000000d0: 5415 f1be a2d4 febe 4ded bcbe 3bd7 1e3e
000000e0: 1f22 6bbe d9d7 20be 5446 87be cabf fdbd
000000f0: cece 783e 653d 283e ea60 2ebd 57f1 45be

convs.0.nn.2.weight f4 [64, 64]
-0.08653438 -0.114085175 -0.07849728 -0.005072741 -0.12274048 0.03241784 -0.10683881 0.08666
-0.1551484 -0.0841768 -0.26244268 -0.12647687 -0.01731475 0.1980302 -0.043349206 0.08873794
0.027780509 0.11391547 -0.061441038 -0.1943609 -0.05414224 -0.027948992 0.047859848 -0.13247354
-0.09917317 -0.077055536 0.17951877 -0.008852098 -0.12815888 0.07254613 -0.29473242 0.034881443
0.02035258 -0.22215092 -0.19723158 -0.21157467 -0.17580098 -0.14020391 -0.1524531 0.13488322
0.13809244 -0.28078258 0.10686171 -0.045874916 0.09525368 -0.016536243 -0.23568441 -0.29797027
-0.15061131 0.11874097 -0.005411033 0.08805842 0.0580355 -0.20539598 -0.20288959 -0.07963018
-0.1602851 -0.10171449 -0.0088575035 0.043060306 -0.20816977 -0.23278497 -0.07983319 0.12021273
4.0938085e-05 -0.061620682 0.08221572 0.14196417 -0.13271672 -0.0078029563 0.0861038 0.041351367
0.079446174 0.03821744 -0.10714778 -0.0036733127 -0.0765137 0.044149913 -0.087475695 -0.18626122
0.0023653556 0.11637682 0.06252625 0.040297482 0.020215556 0.16567093 -0.060170095 -0.05254235
0.06897036 -0.10514576 -0.20113271 0.07390155 0.06508601 -0.153524 0.074960336 0.19951999
0.058560576 0.11345429 -0.012134179 0.15728217 -0.1341947 0.022181517 -0.08733347 -0.1352594
-0.02405069 0.0064101946 0.20079985 0.18290114 0.036830366 -0.079503424 0.0035911198 -0.1181996
0.11048542 0.1230957 0.03926071 -0.019519018 -0.020434635 -0.021668768 0.1037728 -0.06625785
0.1533368 -0.046128288 -0.010164275 0.0064290296 -0.0754006 -0.15552649 0.079791516 0.12991305
-0.018473556 -0.03922687 -0.06520363 -0.12017263 -0.024548795 -0.01917428 -0.11132713 0.06462217
-0.06659064 -0.0306295 -0.02638076 -0.14166439 0.02200699 0.06887029 -0.16349532 -0.12386094
-0.12525965 0.026833393 -0.14997478 -0.08173847 -0.026322372 -0.12780556 -0.12718633 0.06483308
-0.16655338 -0.10401794 0.017329272 -0.009378313 -0.13964699 0.067029774 -0.13446547 0.024582071
0.02184631 -0.063897796 -0.042507615 0.030665707 -0.026962232 -0.13028494 -0.11408106 -0.14226907
-0.11563835 -0.10904375 0.022578342 -0.033263236 0.07318974 -0.06327202 0.054886136 0.010260466
-0.078295894 -0.08363656 -0.100046866 0.08293109 -0.09704856 -0.07392218 -0.0900894 0.053311054
-0.08171108 0.07317351 0.0067595136 -0.13626902 -0.10823597 -0.12663674 -0.12474611 0.042697035
-0.1566958 -0.025216002 -0.07900061 0.0798638 0.032049056 0.088197544 -0.09134943 -0.086032525
-0.07711116 0.1970574 0.03232066 -0.067148015 0.108820304 0.026034392 -0.06964903 0.1036226
0.21897885 0.07975871 -0.12308666 -0.05590352 0.06782609 -0.19434798 0.17976233 -0.1555381
-0.24097642 -0.1743912 0.057894975 -0.08926356 -0.123316616 0.15250428 -0.13167682 -0.15189873
-0.13260894 -0.096651234 -0.022190645 0.022808231 0.20038974 0.0010752875 -0.0122579355 0.14831083
-0.051027272 -0.10883728 -0.08419505 -0.15311453 0.07583473 0.08854984 0.1729482 0.15924048
-0.14454493 -0.106436945 -0.117385976 0.048270065 -0.0067622145 -0.003103615 0.11255593 0.15178967
0.053855665 0.21765071 -0.059073497 -0.06455167 0.24720383 0.15320235 -0.11362694 0.11720953
00000000: f038 b1bd 7da5 e9bd 2fc3 a0bd 3c39 a6bb
00000010: 5c5f fbbd 92c8 043d 4ece dabd cc7a b13d
00000020: 39df 1ebe e364 acbd e35e 86be 2783 01be
00000030: aad7 8dbc 6ec8 4a3e f08e 31bd 3dbc b53d
00000040: f393 e33c 844c e93d 99a9 7bbd 8b06 47be
00000050: 41c4 5dbd 49f5 e4bc b008 443d 25a7 07be
00000060: 4e1b cbbd 4bcf 9dbd c5d3 373e 6408 11bc
00000070: 153c 03be 1193 943d 2be7 96be d8df 0e3d
00000080: 74ba a63c 887b 63be 13f7 49be 08a7 58be
00000090: 2c05 34be 9d91 0fbe aa1c 1cbe d41e 0a3e
000000a0: 1b68 0d3e bcc2 8fbe 50da da3d 56e7 3bbd
000000b0: 5d14 c33d 0477 87bc 4157 71be 8f8f 98be
000000c0: da39 1abe 772e f33d 094f b1bb f957 b43d
000000d0: a2b6 6d3d 5353 52be 4ac2 4fbe 2615 a3bd
000000e0: c721 24be b04f d0bd 101f 11bc 0160 303d
000000f0: 752a 55be 2f5f 6ebe 957f a3bd 1732 f63d
00000100: efb4 2b38 f865 7cbd b760 a83d 0e5f 113e
00000110: e4e6 07be f1af ffbb 3057 b03d 0d60 293d
00000120: adb4 a23d e489 1c3d 4c70 dbbd f6bb 70bb
00000130: 37b3 9cbd 8ad6 343d 7526 b3bd 43bb 3ebe
00000140: 1504 1b3b f856 ee3d c30d 803d f90e 253d
00000150: 189b a53c a4a5 293e eb74 76bd a636 57bd
00000160: 5540 8d3d a956 d7bd bcf5 4dbe b259 973d
00000170: d04b 853d 6535 1dbe ce84 993d f84e 4c3e
00000180: 37dd 6f3d b95a e83d 6fce 46bc 940e 213e
00000190: 566a 09be 03b6 b53c e4db b2bd 7181 0abe
000001a0: f405 c5bc 9c0c d23b 7a9e 4d3e 704a 3b3e
000001b0: 70db 163d b1d2 a2bd fe58 6b3b a212 f2bd
000001c0: 2e46 e23d 9919 fc3d d7cf 203d 59e6 9fbc
000001d0: 8966 a7bc b382 b1bc d586 d43d 32b2 87bd
000001e0: 5204 1d3e 04f1 3cbd 0f88 26bc 9caa d23b
000001f0: a16b 9abd 5642 1fbe bc69 a33d ed07 053e
00000200: db55 97bc 5bac 20bd 7b89 85bd 111d f6bd
00000210: 8e1a c9bc 6113 9dbc 7aff e3bd a158 843d
00000220: ac60 88bd b8ea fabc 771c d8bc 7810 11be
00000230: 0148 b43c de0b 8d3d 516b 27be ceaa fdbd
00000240: 1144 00be b4d1 db3c fd92 19be 8066 a7bd
00000250: 04a2 d7bc 76df 02be 223d 02be 35c7 843d
00000260: f88c 2abe 5c07 d5bd 1ef6 8d3c 7fa7 19bc
00000270: 9fff 0ebe e846 893d 51b1 09be 5760 c93c
00000280: 08f7 b23c d9dc 82bd 771c 2ebd a636 fb3c
00000290: e6df dcbc 6a69 05be 55a3 e9bd fcae 11be
000002a0: cdd3 ecbd 5452 dfbd 37f6 b83c 083f 08bd
000002b0: 81e4 953d c394 81bd 49d0 603d 831b 283c
000002c0: 9959 a0bd a549 abbd 5fe5 ccbd c6d7 a93d
000002d0: 65c1 c6bd 8364 97bd cb80 b8bd b15c 5a3d
000002e0: 2458 a7bd fedb 953d e97e dd3b 1b8a 0bbe
000002f0: d2aa ddbd 10ad 01be e37a ffbd 16e3 2e3d
00000300: dd74 20be ca91 cebc 12cb a1bd a28f a33d
00000310: df45 033d eaa0 b43d 6915 bbbd d231 b0bd
00000320: 75ec 9dbd 6ac9 493e ab62 043d e684 89bd
00000330: 2edd de3d 1446 d53c 27a4 8ebd 1638 d43d
00000340: fe3b 603e 8958 a33d dc14 fcbd 17fb 64bd
00000350: 68e8 8a3d 2803 47be 9e13 383e 6145 1fbe
00000360: 86c2 76be 9b93 32be 4823 6d3d d0cf b6bd
00000370: 6c8d fcbd 152a 1c3e 4ad6 06be 578b 1bbe
00000380: a3ca 07be 15f1 c5bd 28c9 b5bc 54d8 ba3c
00000390: f832 4d3e a9f0 8c3a 82d5 48bc cbde 173e
000003a0: f901 51bd 14e6 debd 746e acbd 0eca 1cbe
000003b0: 3d4f 9b3d 9e59 b53d 5519 313e f00f 233e
000003c0: 9603 14be 9dfb d9bd 0f68 f0bd d5b6 453d
000003d0: 9195 ddbb 0566 4bbb b983 e63d c06e 1b3e
000003e0: c297 5c3d d4df 5e3e 0df7 71bd aa33 84bd
000003f0: 0023 7d3e 14e1 1c3e 3eb5 e8bd 8d0b f03d

convs.0.nn.2.bias f4 [64]
-0.03229201 -0.007171771 -0.07114452 -0.06045438 0.020657837 0.2096975 -0.07490385 0.038376704
0.27180287 0.25351533 0.0047921715 0.06216705 -0.12900811 0.021410182 0.09384029 -0.16168359
-0.2377749 -0.118129835 -0.078079954 0.14038897 -0.067996174 -0.007860406 -0.071897626 -0.00026800745
0.20715798 0.21149288 0.15096356 0.042526867 -0.07447319 -0.14428551 -0.03016836 -0.18591188
0.06729868 -0.12223382 -0.14417408 0.35439703 -0.053807892 0.07035521 -0.0061801923 -0.1958192
0.6794803 0.25338647 0.29006752 0.15671624 0.32709852 0.11290704 -0.021659419 0.13708137
0.03529723 0.6936327 0.20889515 -0.0028853442 -0.069559656 -0.21981278 0.25696367 -0.2045192
0.17554577 -0.17085584 -0.07318856 -0.14788836 -0.14093763 0.00428123 0.0151393805 -0.2707537
00000000: a044 04bd 2d01 ebbb 38b4 91bd 039f 77bd
00000010: a03a a93c f1ba 563e 3167 99bd e430 1d3d
00000020: bf29 8b3e c3cc 813e a607 9d3b e0a2 7e3d
00000030: b41a 04be 6864 af3c 572f c03d 6290 25be
00000040: 437b 73be 0eee f1bd 62e8 9fbd 20c2 0f3e
00000050: 9441 8bbd efc8 00bc 103f 93bd 5a83 8cb9
00000060: 3921 543e 9791 583e 3196 1a3e a730 2e3d
00000070: 6685 98bd 95bf 13be a323 f7bc af5f 3ebe
00000080: e4d3 893d ba55 fabd 5fa2 13be 8773 b53e
00000090: aa65 5cbd 6416 903d 3683 cabb d484 48be
000000a0: 6cf2 2d3f dfbb 813e bb83 943e 397a 203e
000000b0: 7579 a73e ce3b e73d 186f b1bc 0f5f 0c3e
000000c0: d493 103d ea91 313f 9ce8 553e 0b18 3dbb
000000d0: 4b75 8ebd 9a16 61be be90 833e 7b6d 51be
000000e0: 45c2 333e d5f4 2ebe e2e3 95bd 0c70 17be
000000f0: f451 10be 8f49 8c3b 2a0b 783c 3ba0 8abe

convs.0.nn.4.weight f4 [64]
0.84209514 0.86316097 0.97231644 1.0991316 0.89790726 0.9680512 1.0144006 0.93025345
0.8783093 1.0263611 0.9285099 0.9029037 1.1122893 1.0063611 0.91648275 0.9150331
0.9041475 1.0760226 0.9204588 1.1168065 0.9482285 0.88493675 0.8441024 0.7197363
1.0088311 0.8542306 0.9738605 0.7923294 0.8718471 0.8992533 0.9360762 0.8511878
0.9829858 0.8582536 0.9050659 1.3735133 0.96565837 1.1050205 0.8395864 0.8959898
1.1724861 0.97705114 0.9199019 0.92988545 1.0623785 0.812607 0.9227944 1.1290045
0.93550736 1.2033161 1.2078398 0.922974 0.7440181 0.90374196 0.9592031 0.8994655
0.9145835 0.8660398 0.95701647 0.83962053 0.87061304 0.8994009 0.7747881 0.86864036
00000000: 8c93 573f 1ef8 5c3f bbe9 783f 58b0 8c3f
00000010: 40dd 653f 34d2 773f e1d7 813f 1725 6e3f
00000020: e1d8 603f cd5f 833f d3b2 6d3f b224 673f
00000030: 7f5f 8e3f 71d0 803f 9d9e 6a3f 9c3f 6a3f
00000040: 3676 673f 1cbb 893f 30a3 6b3f 84f3 8e3f
00000050: 1abf 723f 378b 623f 1817 583f a340 383f
00000060: 6121 813f dbae 5a3f ec4e 793f 19d6 4a3f
00000070: 5f31 5f3f 7735 663f b1a2 6f3f 72e7 593f
00000080: f5a4 7b3f 82b6 5b3f 66b2 673f 49cf af3f
00000090: 6335 773f 5071 8d3f 22ef 563f 965f 653f
000000a0: 0614 963f 0620 7a3f b17e 6b3f f90c 6e3f
000000b0: 05fc 873f 0307 503f 413c 6c3f 3883 903f
000000c0: 697d 6f3f 4306 9a3f 7f9a 9a3f 0648 6c3f
000000d0: f877 3e3f a25b 673f 568e 753f 5f43 663f
000000e0: 2522 6a3f c9b4 5d3f 08ff 743f 5ff1 563f
000000f0: 7fe0 5e3f 233f 663f 8358 463f 375f 5e3f

convs.0.nn.4.bias f4 [64]
-0.09226496 -0.27083507 0.12246475 -0.19685698 -0.07857395 0.16151927 -0.13949054 -0.06828451
-0.16050255 0.12722595 0.014532128 -0.23519877 -0.23929249 0.03133262 -0.28361186 0.081104554
-0.17422722 0.10494137 0.099669516 -0.119918436 -0.19527973 -0.288465 0.046050746 0.08987944
-0.045522723 -0.1652194 -0.0371628 -0.29505995 -0.05088409 0.046283197 -0.01268379 -0.18257457
-0.16056366 0.13226308 -0.14593245 -0.13225564 -0.14680487 -0.1514315 0.15870678 -0.129598
-0.0954641 -0.12866239 -0.25228795 -0.21147044 0.024326872 -0.14782111 -0.16815782 0.083717346
-0.22917493 -0.07264773 -0.08577204 -0.07091799 -0.1564476 -0.028753525 -0.30394128 0.036487535
0.29081482 -0.11192031 0.00060904224 -0.3231716 0.023924645 0.067314945 -0.17981413 -0.30671772
00000000: 69f5 bcbd e5aa 8abe cdce fa3d e094 49be
00000010: 61eb a0bd 4f65 253e 9cd6 0ebe c0d8 8bbd
00000020: c85a 24be 8547 023e 2a18 6e3c f2d7 70be
00000030: 1709 75be a256 003d 9335 91be 251a a63d
00000040: 9f68 32be 80eb d63d 881f cc3d cc97 f5bd
00000050: 69f7 47be afb1 93be b59f 3c3d b612 b83d
00000060: 0976 3abd 462f 29be 0538 18bd 1912 97be
00000070: d66b 50bd 7393 3d3d accf 4fbc d4f4 3abe
00000080: cd6a 24be f96f 073e 516f 15be 066e 07be
00000090: 0454 16be dc10 1bbe 0884 223e 57b5 04be
000000a0: af82 c3bd 13c0 03be e32b 81be b58b 58be
000000b0: 2649 c73c 6b5e 17be 9031 2cbe 0074 ab3d
000000c0: d5ac 6abe 55c8 94bd 40a9 afbd 733d 91bd
000000d0: cd33 20be 838c ebbc 319e 9bbe f473 153d
000000e0: aee5 943e 7a36 e5bd 22a8 1f3a bf76 a5be
000000f0: 9efd c33c 6bdc 893d 3221 38be 1b0a 9dbe

convs.0.nn.4.running_mean f4 [64]
0.030375682 7.44851 2.1007003e-31 2.1087966 1.6405658 10.059901 0.81922233 9.9664346e-11
3.0567114 1.457344 5.4219565 12.814502 1.428525 0.031699177 8.815872 3.0259676
9.000688 2.8733943 4.9354916 1.0771345 0.046155225 3.9841242 0.0061275074 7.1563034
3.3881652 5.4264984 1.5333567 8.081801 8.6689005 4.8152804 0.17057404 5.42356
7.275257 10.070735 7.3125877 0.3004321 1.6693263 1.1503264 6.805934 7.9142857
0.15172027 1.0283248 1.1124417 3.2132258 0.58670247 6.3239393 4.973834 2.730745
7.0485435 0.1822186 0.90119994 3.5870345 0.02371915 2.0179276 4.1683445 9.579155
7.9469075 7.141766 7.284008e-29 1.1301451e-16 13.190464 4.3907204 2.212525 8.76752
00000000: 6cd6 f83c 325a ee40 df57 880c 86f6 0640
00000010: 0ffe d13f 5bf5 2041 8eb8 513f 0a2a db2e
00000020: 29a1 4340 408a ba3f ab80 ad40 3308 4d41
00000030: e8d9 b63f ffd6 013d d00d 0d41 74a9 4140
00000040: d102 1041 b1e5 3740 8cef 9d40 8bdf 893f
00000050: 430d 3d3d e4fb 7e40 42c9 c83b 7000 e540
00000060: b3d7 5840 e0a5 ad40 0845 c43f 0f4f 0141
00000070: d1b3 0a41 c716 9a40 f6aa 2e3e ce8d ad40
00000080: e8ce e840 bb21 2141 b800 ea40 3cd2 993e
00000090: 7cac d53f e53d 933f 36ca d940 d441 fd40
000000a0: 8f5c 1b3e 26a0 833f 7d64 8e3f 7ea5 4d40
000000b0: 2232 163f b65d ca40 a629 9f40 87c4 2e40
000000c0: ab8d e140 8397 3a3e 0ab5 663f f991 6540
000000d0: aa4e c23c ba25 0140 1463 8540 3844 1941
000000e0: 114d fe40 5989 e440 eaab b810 ff4b 0225
000000f0: 240c 5341 c880 8c40 029a 0d40 c347 0c41

convs.0.nn.4.running_var f4 [64]
0.04360701 246.24927 3.0731718e-30 9.726455 22.424318 247.48181 2.1460361 3.758549e-13
23.7237 5.807451 83.2853 473.2401 5.6609817 0.06387393 506.2233 45.33524
364.5554 7.3796835 82.92954 3.5346515 0.1657588 85.62882 0.014898216 177.58598
27.676397 139.83029 6.468488 257.50623 155.25328 129.36511 1.0404866 135.48427
169.34415 627.30396 159.52394 0.6331928 25.144526 5.804213 234.13005 256.98608
0.1868893 3.2842612 4.908947 40.55588 1.4101614 196.5296 97.721924 7.7748876
331.0817 0.1917827 2.9023278 67.20524 0.062062643 5.9773397 68.63902 470.61533
267.25604 258.10593 5.8895624e-29 1.6791773e-16 1130.2566 96.55616 11.514532 370.19937
00000000: 449d 323d d03f 7643 4853 790e 8f9f 1b41
00000010: 0165 b341 587b 7743 a858 0940 6696 d32a
00000020: 23ca bd41 a3d6 b940 1392 a642 bc9e ec43
00000030: c326 b540 56d0 823d 951c fd43 4957 3542
00000040: 1747 b643 5e26 ec40 eddb a542 bb37 6240
00000050: adbc 293e f541 ab42 a617 743c 0396 3143
00000060: 4369 dd41 8ed4 0b43 dbfd ce40 ccc0 8043
00000070: d740 1b43 785d 0143 aa2e 853f f97b 0743
00000080: 1a58 2943 74d3 1c44 2186 1f43 ec18 223f
00000090: fd27 c941 1dbc b940 4b21 6a43 387e 8043
000000a0: e95f 3f3e 5631 5240 1816 9d40 3939 2242
000000b0: 2b80 b43f 9487 4443 a071 c342 e1cb f840
000000c0: 758a a543 af62 443e bdbf 3940 1569 8642
000000d0: 6635 7e3d 5e46 bf40 2e47 8942 c34e eb43
000000e0: c6a0 8543 8f0d 8143 7251 9510 9198 4125
000000f0: 3648 8d44 c11c c142 863b 3841 8519 b943

convs.1.nn.0.weight f4 [64, 64]
0.100458376 -0.090841524 -0.032186195 0.028511075 0.057501093 0.0735603 -0.08016874 -0.06921042
-0.055415016 0.05340182 0.11124465 -0.103836745 -0.14533508 -0.13037735 0.062496454 -0.14853077
-0.10176672 0.06554889 -0.08822523 0.012779577 -0.15313953 0.01590936 -0.03841112 0.062104747
-0.14882922 -0.017594477 0.14375672 -0.031549837 0.025244597 0.02257859 -0.062554955 0.11270445
-0.023223454 -0.004787402 0.060026992 0.07315171 0.014843431 0.104996294 -0.0072105373 -0.017543994
-0.20353162 -0.108522646 0.05413927 0.105692536 0.12730306 0.103404924 0.09507241 0.17221543
0.058786053 0.17451565 0.13429797 0.11351621 -0.027649425 0.09377905 0.042144597 0.1277377
0.055225838 0.04309764 0.005644745 0.06207618 -0.101857476 0.057743266 0.042873763 0.027793463
-0.039241984 0.05884133 0.044914138 0.09619704 0.12592408 0.042505067 0.06247253 -0.10877077
0.091861986 -0.12109171 -0.032453947 -0.00051970594 0.15683028 0.14738573 -0.05008836 0.11646692
0.036974326 0.039184466 -0.09517391 -0.2491464 0.050936237 0.117941976 -0.12455855 -0.10066696
0.021333197 -0.04180212 -0.1082868 0.02804296 0.06206535 -0.05990336 0.019315124 -0.028016392
-0.13063248 0.054030143 0.15770671 0.09472431 -0.06740137 -0.17554745 0.09350185 -0.087695956
0.10593658 0.08248745 -0.049549483 -0.0585643 0.051547784 -0.049700875 0.07816069 -0.19585761
0.029187927 -0.3381436 -0.18473156 0.02965262 -0.05987242 -0.03159376 -0.04307494 0.04954349
0.029823503 -0.00035823067 0.058466986 0.062141716 -0.07900996 -0.025081037 0.10514939 0.14945763
0.08035581 -0.1486367 0.17434141 0.06995618 -0.15115115 -0.03764857 0.006666903 -0.18916234
-0.100727156 0.098739296 -0.108107746 -0.02278169 -0.1337396 -0.018185573 -0.14465435 0.058516465
-0.038556296 -0.022398323 0.068131976 -0.11073488 0.15872198 -0.09072811 -0.03072813 0.09900396
0.09580679 0.005003263 -0.081728496 0.00058045366 -0.04366684 0.074305564 -0.09609543 -0.1833875
-0.15318513 -0.098845616 -0.15711221 -0.1350799 -0.12024633 -0.09842289 0.13852859 -0.011529292
-0.26112694 0.02839284 -0.070047505 -0.16978338 -0.08620813 -0.13304389 -0.09787542 -0.16991213
-0.15463421 -0.16931686 -0.05080264 -0.068247356 -0.046611987 0.012057358 -0.011209602 0.067390874
0.094080485 -0.10021614 0.080111586 -0.2702647 0.010097548 0.1400813 0.025026636 -0.18830308
0.07604246 0.019948246 0.040712144 0.20372021 -0.08208607 0.17053823 0.010698069 -0.0015514473
0.09763481 -0.16073 0.10606355 -0.066153385 0.106237866 -0.04947307 0.09337354 -0.09024714
0.06989593 -0.047246795 0.1645359 -0.059087366 0.09294846 0.10158884 -0.1531946 0.052291926
-0.06275124 0.0309089 0.012748207 0.025714992 -0.040447216 0.027742442 0.17701629 -0.040346786
-0.20483854 -0.10192439 0.038940813 -0.2826814 0.028724996 0.25876194 -0.050819304 -0.03785997
-0.03277842 0.13502242 -0.059812002 0.16610058 -0.22462587 0.022608485 -0.092652634 -0.22217059
-0.09833204 0.03772322 0.026383394 -0.07725408 0.056317855 0.1199453 -0.05987431 -0.09583612
0.02908297 -0.112178564 0.08192375 0.057057485 -0.08116547 0.07215332 0.04874366 0.104353644
00000000: 1fbd cd3d 1f0b babd acd5 03bd 0f90 e93c
00000010: 4486 6b3d c8a6 963d 822f a4bd 31be 8dbd
00000020: dbfa 62bd debb 5a3d 3cd4 e33d 5ca8 d4bd
00000030: b8d2 14be a481 05be 48fc 7f3d 7318 18be
00000040: 126b d0bd 7f3e 863d 6eaf b4bd 6e61 513c
00000050: 9cd0 1cbe 5954 823c fb54 1dbd 8c61 7e3d
00000060: b066 18be 4b22 90bc f634 133e 673a 01bd
00000070: c2cd ce3c bcf6 b83c d01c 80bd 97d1 e63d
00000080: 1d3f bebc a4df 9cbb ddde 753d 90d0 953d
00000090: dd31 733c 4c08 d73d 5f46 ecbb 6cb8 8fbc
000000a0: 986a 50be 1f41 debd 24c1 5d3d 5475 d83d
000000b0: bc5b 023e f6c5 d33d 53b5 c23d 3e59 303e
000000c0: a5c9 703d 3bb4 323e 6885 093e 307b e83d
000000d0: 0c81 e2bc 3b0f c03d d09f 2c3d accd 023e
000000e0: 7d34 623d 2787 303d 8ef7 b83b 9843 7e3d
000000f0: a79a d0bd 3484 6c3d 669c 2f3d 1eaf e33c
00000100: 34bc 20bd 9b03 713d e3f7 373d f402 c53d
00000110: 3ef2 003e cb19 2e3d 32e3 7f3d 36c3 debd
00000120: 2322 bc3d eefe f7bd 6eee 04bd e03c 08ba
00000130: 1e98 203e 49ec 163e 7429 4dbd 3586 ee3d
00000140: 6472 173d e47f 203d 8aea c2bd 3c20 7fbe
00000150: 84a2 503d 908b f13d 8e18 ffbd 7b2a cebd
00000160: f5c2 ae3c b338 2bbd 78c5 ddbd 5aba e53c
00000170: 3d38 7e3d 3a5d 75bd c03a 9e3c a282 e5bc
00000180: 85c4 05be b64e 5d3d de7d 213e d2fe c13d
00000190: bb09 8abd b6c2 33be e67d bf3d f099 b3bd
000001a0: 47f5 d83d 2eef a83d 66f4 4abd 1fe1 6fbd
000001b0: c523 533d 2593 4bbd b612 a03d e68e 48be
000001c0: 851b ef3c 2821 adbe 452a 3dbe 0dea f23c
000001d0: c83c 75bd 7568 01bd 596f 30bd 1dee 4a3d
000001e0: 6b50 f43c e8d0 bbb9 147b 6f3d 5088 7e3d
000001f0: f9cf a1bd bf76 cdbc 9058 d73d 6c0b 193e
00000200: 9691 a43d 3834 18be 8e86 323e 3045 8f3d
00000210: 5ec7 1abe 6335 1abd 0976 da3b c6b3 41be
00000220: 0a4a cebd d437 ca3d 9867 ddbd aba0 babc
00000230: 09f3 08be e9f9 94bc 4520 14be f6ae 6f3d
00000240: 35ed 1dbd b07c b7bc c788 8b3d f8c8 e2bd
00000250: 0488 223e a9cf b9bd 8fb9 fbbc 97c2 ca3d
00000260: 5a36 c43d 69f2 a33b 4561 a7bd 9629 183a
00000270: 00dc 32bd 842d 983d aecd c4bd efc9 3bbe
00000280: 90dc 1cbe 926f cabd 06e2 20be 6352 0abe
00000290: b543 f6bd f191 c9bd 70da 0d3e 5be5 3cbc
000002a0: 6eb2 85be 1a98 e83c 1175 8fbd b2db 2dbe
000002b0: e38d b0bd a83c 08be e872 c8bd 72fd 2dbe
000002c0: 6e58 1ebe 6661 2dbe 6e16 50bd 45c5 8bbd
000002d0: 36ec 3ebd 3a8c 453c 7aa8 37bc 3a04 8a3d
000002e0: 45ad c03d 1f3e cdbd 8b11 a43d 2260 8abe
000002f0: 3070 253c 7971 0f3e a904 cd3c 86d2 40be
00000300: 26bc 9b3d 816a a33c c7c1 263d 089c 503e
00000310: be1c a8bd 93a1 2e3e f446 2f3c ef59 cbba
00000320: c2f4 c73d 6896 24be d937 d93d 6d7b 87bd
00000330: 3d93 d93d 46a4 4abd a03a bf3d 7ed3 b8bd
00000340: 9925 8f3d db85 41bd 197c 283e 9805 72bd
00000350: c35b be3d cf0d d03d 0cdf 1cbe 0f30 563d
00000360: b983 80bd a934 fd3c dbdd 503c 3fa8 d23c
00000370: fbab 25bd 1e44 e33c c243 353e ac42 25bd
00000380: 32c1 51be bcbd d0bd 6780 1f3d 9ebb 90be
00000390: af50 eb3c 727c 843e e727 50bd 0e13 1bbd
000003a0: aa42 06bd 5143 0a3e 6efd 74bd 4516 2a3e
000003b0: 5304 66be 6e35 b93c aac0 bdbd b080 63be
000003c0: 4f62 c9bd aa83 1a3d fd21 d83c 6337 9ebd
000003d0: 8dad 663d e2a5 f53d c43e 75bd ba45 c4bd
000003e0: 693f ee3c e0bd e5bd a4c7 a73d 1cb5 693d
000003f0: 153a a6bd 1fc5 933d 6fa7 473d 5db7 d53d
