saved_models/gin_Mutagenicity.model (torch, 117823 bytes, 28 tensors)

conv1.nn.0.weight f4 [64, 14]
00000000: 45ff 483e 8951 7f3e 76be 5c3e 3542 003e
00000010: c502 733e 1452 493e 5602 c83e ce79 ddbc
00000020: ced8 1dbe 3b51 de3d 248b 793e 544c 72bd
00000030: 8271 a03d 332a a5bc 223b ff3d 5d56 02bf
00000040: e43a 19bf c020 343e b91a c3be eac2 00bf
00000050: 4b72 0ebf afbc 193e 5908 8e3e 56f2 c5bd
00000060: 7a3c c0bd 9508 d33d 3d03 2b3e 3056 d7bd
00000070: 8e52 033f 7880 443e acd9 0bbe d1cb 92be
00000080: 3fa5 d53e d225 07be 28ee 37be fd07 f9bc
00000090: 4a70 9e3e ee06 b8bc 7d54 243d b7ad fabd
000000a0: 3e5d d93d ef2e 083e 1a9e d7bd 0d2e c8be
000000b0: 8ad4 35bf 401f eb3e f7e7 c2be a031 32bf
000000c0: 2083 95be 6965 343e 110b e83e 6567 7f3d
000000d0: e581 9c3c d7ab 7a3d f51f 25be cf63 11bd
000000e0: a8f6 703d 0843 42bd 2e38 483e 7e87 743e
000000f0: 0ef8 c1be 2ed6 babd 7b31 9dbc dbcb c83e
00000100: 3c1a 453d 84d6 37be 9b0d 0dbe 86ed 943c
00000110: 022c e23c 69a1 0d3d aeee b8bd 154f 83be
00000120: a17d a0bd 7048 42bf 01d7 b3be 5a84 a73c
00000130: 2976 973d 03c2 0f3f 4f73 a8be cca6 46be
00000140: fba7 6e3c 2061 da3d 12eb a8bd 5913 983d
00000150: 201a 5dbe 49d5 d13e c110 63be af47 ecbe
00000160: ee4a 36bf f6dc cebd 0298 6ebe de2e 94bf
00000170: fb5b 603e ffbf e5bd 7290 09be c416 bc3e
00000180: 10ea bebb fc6e 65be 5153 2abf 34cf 953e
00000190: 5130 f3be 9ba2 ba3e 025c 06bf ce24 09bd
000001a0: 9dd3 55bf 90e7 1fbb 52bf 8dbb e784 253e
000001b0: 8fcf 24be 3f8c 6d3c b1de e9bd 4946 a0bd
000001c0: 5309 0bbf c1d1 97be 137a b73e d905 f63e
000001d0: 2d82 4ebe 4d2f 9d3e 8499 1a3f 919b 50be
000001e0: 9152 a8be 0da6 743c 33cb a3be 53d6 5abe
000001f0: c20a 80be f0e2 abbe 44be 7cbe a84d 44bd
00000200: 294e 133f a59c 18bd 5735 fbbc a5c5 7ebf
00000210: ae96 f13e c13e 10be 093a 9d3c 9726 bd3c
00000220: 3c3d 3a3e f766 24bd 5267 1a3e 8436 7cbe
00000230: e8cd dcbe 578e a4be e857 3e3e 018f f4be
00000240: 0a09 173e 365c 323f 1281 dcbe 980d d73e
00000250: 4f46 ae3d 5f95 4c3f fed4 d43e 9170 36be
00000260: d7c8 b83c 39c9 79be 0792 a73e d6dd 69be
00000270: e758 93bd 0d43 88be 1bbd e33c ef8f efbd
00000280: d074 f03e 3e42 fabe ab42 9d3e 7818 86bd
00000290: 3a2d 1b3c 1150 1dbe 6a4a a93c e8ab 3d3d
000002a0: db32 23be d28f 0abf 596d f73e ffb9 69be
000002b0: 44ed 283e 1675 1b3e 3e55 27bf 0aba a7be
000002c0: b6db 8e3e 0f85 5abe 4e7e 63be b681 2cbd
000002d0: 6a00 eebd 4447 6dbe f77b 053e 996d c2be
000002e0: 6bc5 7a3d 5672 5a3e 48d7 b2be a6ea 803e
000002f0: f285 f53e e392 b83d 5be7 a13e f979 6bbe
00000300: bc5f 10be 07e3 e8bd 75c5 e5bd f126 febd
00000310: 3d2f 07bf f7e9 4bbf 2ec1 a4bd cead 2c3e
00000320: b087 bd3e 9394 07be c3a5 6d3d e7e3 b83c
00000330: bde9 07be 46cb fdbd 2c44 0a3e be7a bcbd
00000340: 32d4 033e 9fd6 56bd d9c4 55bd be57 23bf
00000350: 8123 e33c 7442 16bf 614d bf3e 39a8 f93e
00000360: 90a9 a6bb d498 56bf e2b1 b63e bd37 a6bd
00000370: edc4 81be 60bb 03be 76a1 21be 0f40 85be
00000380: a661 32be bcc4 e53e a5f6 f93e 6dff da3e
00000390: 0ec7 cf3e f0d3 363d c48b a0be 5cce 973e
000003a0: 43ec 823e 50d2 17bf 240e 04bd 7ab7 0a3e
000003b0: 3231 cdbc b1cd 2d3e 167a 5e3e 4ccb 083f
000003c0: 677a a53e cf5e 173e 9210 f7be 9edd 0cbf
000003d0: 9cff bebe b38f 51bc 72f1 49bf 1236 f6be
000003e0: 7e77 0abd c87e 41be c1b7 05bd ca2a 743d
000003f0: cdf5 bdbc 0d15 54bf e119 3abe b73d c33e
0.19628628 0.24933447 0.2155703 0.12525256 0.23731525 0.19660217 0.39064282 -0.02703562
-0.15414736 0.10855337 0.24369484 -0.059154823 0.0783415 -0.020161724 0.124624506 -0.5091303
-0.59855485 0.17590618 -0.38106325 -0.50297415 -0.5564315 0.15013383 0.27740744 -0.096653625
-0.09386535 0.10304371 0.16700454 -0.10514486 0.51297843 0.19189632 -0.13657254 -0.28671125
0.41727635 -0.13198021 -0.17961943 -0.030399317 0.30945045 -0.022464242 0.040119637 -0.12240165
0.10613488 0.13299154 -0.10528202 -0.39097634 -0.71027434 0.4592228 -0.380676 -0.6960697
-0.29201603 0.1761681 0.45320943 0.062354464 0.019104907 0.061199035 -0.16125472 -0.035495576
0.05882898 -0.047427207 0.19552681 0.23879811 -0.37884563 -0.09122883 -0.019188633 0.3921803
0.048120722 -0.17952925 -0.13774721 0.018179666 0.027608875 0.03457776 -0.090298995 -0.25646272
-0.07836462 -0.7589178 -0.35124972 0.020448852 0.07395584 0.56155413 -0.32900473 -0.19399565
0.014566417 0.106630564 -0.08247961 0.07425565 -0.21591997 0.40983036 -0.2217436 -0.4614844
-0.71208084 -0.10100739 -0.23300174 -1.1576803 0.21910088 -0.11218261 -0.13434008 0.3673612
-0.0058262423 -0.22405618 -0.6653338 0.29259646 -0.474978 0.36452183 -0.5248414 -0.033482365
-0.8352602 -0.0024399497 -0.0043257857 0.1616398 -0.16094802 0.014498769 -0.11419428 -0.07825906
-0.543111 -0.29652217 0.35835323 0.48051336 -0.20166846 0.3070015 0.60390496 -0.20371844
-0.32875493 0.014932168 -0.31990966 -0.2137082 -0.25008208 -0.33571577 -0.24681956 -0.04792562
0.5754114 -0.037258763 -0.030665083 -0.9952033 0.47185272 -0.14086439 0.019192712 0.02308969
0.18187422 -0.040137257 0.15078476 -0.24630171 -0.43125844 -0.32139847 0.18588221 -0.47765353
0.14749542 0.6967195 -0.43067223 0.4200256 0.08509504 0.7991542 0.4156875 -0.17816378
0.022556705 -0.24393167 0.32728598 -0.2283853 -0.07194691 -0.26613656 0.027800133 -0.11697375
0.4696412 -0.48878664 0.30714926 -0.06547636 0.009471232 -0.15362574 0.020665366 0.04630652
-0.15937369 -0.541257 0.48325613 -0.22824858 0.1649676 0.15181383 -0.65364444 -0.32759124
0.27902 -0.2133982 -0.2221615 -0.04211589 -0.11621173 -0.23171717 0.1303557 -0.3797424
0.06122343 0.21332678 -0.34929872 0.25179023 0.47953755 0.090123914 0.31621823 -0.22995748
-0.1409902 -0.11371427 -0.112193026 -0.12409771 -0.52806455 -0.7965388 -0.080446586 0.16863176
0.37017584 -0.1324027 0.05801941 0.02256961 -0.13272758 -0.12392287 0.13502568 -0.09203099
0.12873915 -0.052450772 -0.05218968 -0.6380576 0.02772689 -0.5869515 0.37363723 0.48761156
-0.0050861314 -0.8382695 0.3568259 -0.081161 -0.25345555 -0.12864447 -0.15784249 -0.26025435
-0.17420062 0.4487666 0.48820987 0.42773 0.40581554 0.044635713 -0.31356633 0.29649627
0.25570878 -0.59305286 -0.032240048 0.13546553 -0.025047872 0.16972996 0.2172626 0.53435206
0.32319948 0.1478226 -0.4825483 -0.5502566 -0.3730439 -0.012790608 -0.7888404 -0.48088127
-0.033805363 -0.1889602 -0.032645945 0.05961112 -0.023188496 -0.8284462 -0.18173935 0.38133022

conv1.nn.0.bias f4 [64]
00000000: e3bf 20bf fadc 893b 6d86 22bf bd3d ad3e
00000010: 6cbc 6abd f67f 6c3e 3488 293d 13ce babd
00000020: 391e 193e d48b e5be 83dc 9e3d 5da1 91be
00000030: 457e 95be 5e2c ce3b 070a a9be ee61 58be
00000040: f0c7 e8be 469b 39be 8988 88bb 03dc 06be
00000050: b8fb 633e a2a5 2fbe 513a 26bf bed2 163e
00000060: 11f0 5f3d c617 a1bd 7ab2 873e 14f6 e4bb
00000070: cbcb bdbe cdcc 85be d014 9f3e 0045 44be
00000080: 455a 96bd 0791 07bf b284 eebd 42ca c2bd
00000090: d096 7ebe d2c5 e6bb bae4 a8be 09fa 09bf
000000a0: 274b 4ebe 7698 c6be a5f5 b33e c308 0e3f
000000b0: 9518 b13d 4507 953e d22a 5abe 3c50 a0be
000000c0: 929b bcbb ff99 64be e1e9 fd3d ee8f aabe
000000d0: aac6 0cbf 4388 5abe ee33 8dbe 67f8 80be
000000e0: 4803 c4be a8a5 133f 0395 e7bd d777 0bbe
000000f0: fd1d 6e3e 2cb3 463e 6c4d 8dbd 4d7f 19bf
-0.62792796 0.0042072507 -0.6348637 0.33836165 -0.0573086 0.23095688 0.04138966 -0.09121337
0.14952935 -0.44833243 0.07756903 -0.28443423 -0.29197899 0.00629191 -0.33015463 -0.21131107
-0.4546504 -0.18125638 -0.004166667 -0.13169865 0.22263992 -0.17153028 -0.64932734 0.1472883
0.054672305 -0.078658625 0.26503354 -0.0069873426 -0.37069544 -0.26132813 0.31070566 -0.19166946
-0.07341436 -0.5295567 -0.11646403 -0.09511234 -0.24862218 -0.007042625 -0.32987005 -0.5389715
-0.20145856 -0.38788193 0.3514835 0.5548212 0.08647267 0.2910711 -0.21305397 -0.31311214
-0.00575585 -0.2232437 0.123981245 -0.33312935 -0.5499064 -0.21341042 -0.27578682 -0.25189516
-0.38283753 0.57674646 -0.113077186 -0.13619934 0.23253627 0.19404286 -0.06899533 -0.5995987

conv1.nn.2.weight f4 [64, 64]
00000000: 0153 983e 4454 5fbb 762d 873d f177 963b
00000010: 88c9 f73d d7ff 2e3e 1870 be3d 898e e7be
00000020: d87e 9f3d 2664 d43e 9313 f83d 82bc aebd
00000030: ce3b b33c 2a33 04be 2351 b83e 4b4d 6bbe
00000040: 7715 e63e 6c52 853c b5e6 80be 6fd5 713e
00000050: d40a b43c 43df b1bc 1499 113e 4d9f 453d
00000060: 1803 9dbe e00a 4d3e 230f ef3c 9f74 893e
00000070: c2c5 093d c1f3 523d 2b7a 9dbe a216 563e
00000080: 5a7a c73d ae43 58bd cd18 733f 1342 1fbe
00000090: baa7 47bd d692 ff3b 318a 39bd e3ca 483e
000000a0: 2b16 613d 250f 993e 7973 083f 7713 64be
000000b0: 156d 22be 20a7 a23e d292 eabc f6ed ca3e
000000c0: 62a1 623e 8a0f 02bd 4f44 633b edf1 0b3f
000000d0: f224 bc3c f954 883d 1c6f 8f3e 60c6 6e3f
000000e0: 2700 963e ad76 0e3d bdfa a2bc 65d2 673d
000000f0: fb62 a83d d9ec 03bc 5668 47bd e77c d83e
00000100: 64b8 80bd ade4 18be ae3c b8bd f0fe 06be
00000110: f74d dfbd c934 5abb 2b40 3dbe 607c aa3d
00000120: 945b 173d d45e 2ebd 1c61 6abd f643 04be
00000130: 3a40 7ebd 5998 733d 6e4a a93d 8b07 a73d
00000140: 2445 c7bd d078 2c3c 06fa 2a3d 52dd a43d
00000150: 2a3d 4abd e663 3dbe 6919 aebd c6bd b63d
00000160: d021 ce3d 5f6f c2bd 7ee7 b0bd 588e 06bd
00000170: 0a7d d9bd 4036 abbc 8018 dfbc 265a ba3d
00000180: 2a46 c8bd af20 f53c 8371 2abd ca58 2dbe
00000190: a7ca 3ebd c436 57bd f600 1ebe d9ca acbc
000001a0: 6fed 383d 0fd3 01bd 225b 3ebe 1c70 09be
000001b0: a564 a5bd c0dc f6bc 5835 ba3c 1882 93bd
000001c0: e9a1 70bc cc68 8f3d 35db 0ebe 521c aebd
000001d0: bb86 a2bc befb f2bd 841c dc3d 2e39 babd
000001e0: 2a45 81bd e832 92bd e073 333d da3d debd
000001f0: 1ac2 643d 886c ffbd d097 3cbc 393f acbd
00000200: 038b 1c3d c9fd d4bd 2a51 e0bc 6e55 22be
00000210: 4692 0fbe 541b ef3d 9b6a 28be 5cca 96bc
00000220: 2328 90be e43c 12be 5e6f acbd f321 04bd
00000230: a433 1e3d d422 27be 8727 57bd 26ca 45bd
00000240: 80a3 45be 23a1 22bc 1d2c 903d f704 41be
00000250: 0ba0 39be 6d8c 30bd e99f b6bd 071e adbd
00000260: 2a72 12be 5847 a8bb 59a3 123b 5afa abbd
00000270: d7a0 e0bd 18fe e0bd fec2 2dbd e832 81bd
00000280: 9f2f 58bc 8278 303d 581e 193d 027e e2bc
00000290: fc85 15bd 711f 7b3d a54f f7bc d351 0cbe
000002a0: a625 84bd 0dab 5ebd fc06 bdbd e78d 9e3c
000002b0: 1809 27be 60dc 26bd 8292 c7bd 9f92 49be
000002c0: 42fb 58bd 88be 64bd 883d 8fbd 843e babc
000002d0: cff1 873d f4f1 bfbd 0915 093d f0dc 123c
000002e0: 6820 6b3d 045c 76bd ee64 16bd 90e2 4fbe
000002f0: 61ad 35bd 1b9c 373d d6f0 06be d0ae 14be
00000300: d462 13bd 4648 f33e 1035 76be 7370 0f3f
00000310: 631e 503d cf29 693e 4d2f 413e f012 0d3f
00000320: 7d93 843d b215 ebbd 46e3 a3be 36c0 e4bd
00000330: 8c1a 0d3e f2d6 0b3e bad2 56be 1366 44bd
00000340: e0b3 883d 958d dcbe dc93 4a3f 205d a0be
00000350: 0e43 cb3a 0592 843e bb05 e8bd 6320 303d
00000360: 1e8f 5dbd 5f47 32bd 2b38 dbbd c3de 513e
00000370: 72b0 e13e f79e 3b3e b18a 02be 60f2 3fbe
00000380: f32c acbc 817e 513d b046 ebbe 00b1 5bbd
00000390: 2e64 cd3e 0ef3 243e 77e5 06bd 5961 2abe
000003a0: a7f8 debd bf8e aabe 9a7f 87be 4837 03bf
000003b0: c434 ab3e 0f5c a3bd 89f0 19bd 07b1 953d
000003c0: 765e 523e 09ac 263e 7945 e9bd 9e5e 833e
000003d0: 4012 b03d e97c 3a3e d29f 12bf d003 16bf
000003e0: cdc8 edbd 7e75 cfbd d9c1 103f c86a e23c
000003f0: f818 12bd a5eb 013f 35e7 bf3e 14d9 183d
0.29750827 -0.0034077326 0.06600468 0.004591935 0.12098986 0.17089783 0.09298724 -0.45225933
0.077878654 0.41482657 0.121131085 -0.08532049 0.021879103 -0.12910143 0.35999402 -0.22978704
0.4493825 0.016274653 -0.25176015 0.23616575 0.02197782 -0.021712905 0.14218551 0.048247624
-0.30666423 0.2002368 0.029182022 0.26846787 0.033635862 0.051501993 -0.3075727 0.20907071
0.097401336 -0.05279892 0.9495972 -0.15552549 -0.04874394 0.0077994866 -0.045297805 0.19608645
0.05495278 0.29894367 0.533012 -0.2227305 -0.15861924 0.3176813 -0.028634463 0.39634675
0.22131875 -0.0317531 0.0034678166 0.54666024 0.022966836 0.06656832 0.28014457 0.93271446
0.2929699 0.034781147 -0.019894952 0.056597132 0.08222004 -0.008052074 -0.048683487 0.42282793
-0.0628517 -0.14930983 -0.08995949 -0.13183188 -0.109035425 -0.0033295623 -0.1848151 0.08324504
0.03695257 -0.042570904 -0.057221517 -0.1291655 -0.06207297 0.059471462 0.082661495 0.081557356
-0.097299844 0.010526851 0.041742347 0.08050026 -0.049374737 -0.1849514 -0.0850094 0.08922915
0.10065043 -0.094938986 -0.08637904 -0.032850593 -0.106195524 -0.020899892 -0.027233362 0.09099226
-0.09779008 0.029922811 -0.04161216 -0.16928402 -0.046579983 -0.052542463 -0.15430054 -0.021092819
0.04514831 -0.03169542 -0.18589452 -0.13421673 -0.08075837 -0.030134559 0.022730514 -0.07202548
-0.01468704 0.0700241 -0.13950808 -0.085014954 -0.019839635 -0.11864422 0.107476264 -0.090929374
-0.0631202 -0.07138616 0.04381168 -0.10851641 0.055849172 -0.124718726 -0.011510804 -0.08410496
0.03821851 -0.10399968 -0.027382452 -0.15852901 -0.14020643 0.11675134 -0.16446917 -0.01840704
-0.28155622 -0.1428104 -0.08419679 -0.03225894 0.038623467 -0.1632188 -0.05252793 -0.048288487
-0.19300652 -0.009926113 0.07039664 -0.1884955 -0.18127458 -0.04310267 -0.08917219 -0.08452993
-0.14301363 -0.005135458 0.0022375195 -0.0839736 -0.10968178 -0.109859645 -0.042422287 -0.06308538
-0.0131949475 0.043083675 0.037382454 -0.027647976 -0.03650473 0.06130928 -0.030189345 -0.13703088
-0.06452493 -0.054362345 -0.09229848 0.019354774 -0.16312063 -0.04073751 -0.09744741 -0.19684838
-0.052973993 -0.055845767 -0.06994158 -0.022734888 0.06637918 -0.09372321 0.033467326 0.008963808
0.057403952 -0.060146347 -0.036717348 -0.2030127 -0.0443548 0.04482661 -0.13177809 -0.1451981
-0.03598292 0.47516078 -0.24043679 0.5603096 0.05081023 0.22769855 0.188657 0.5510702
0.06473444 -0.114787474 -0.32009333 -0.11169474 0.13779658 0.13656214 -0.20978823 -0.047948908
0.066749334 -0.4307677 0.79131866 -0.3132105 0.0015507655 0.25892654 -0.11329218 0.042999636
-0.054091565 -0.043525096 -0.107040726 0.20495133 0.4407993 0.18322359 -0.12748219 -0.18744802
-0.021017527 0.051146034 -0.45952368 -0.053635597 0.40115494 0.16108343 -0.03293368 -0.16638698
-0.108872704 -0.33312032 -0.2646454 -0.5125623 0.33438694 -0.07976543 -0.037582908 0.07309156
0.20543846 0.16276564 -0.11390204 0.25658125 0.08597231 0.18211712 -0.57275116 -0.5859957
-0.11610565 -0.10129832 0.5654579 0.027638808 -0.035668343 0.5075019 0.37481084 0.037316397

conv1.nn.2.bias f4 [64]
00000000: ef0a 2abd 7adb 85bd 0ffa efbd a56f 2dbc
00000010: a274 9abe ecde 7ebd 70f5 8a3d 9558 b7be
00000020: 2ced c4be 101e 96bd f510 4fbe 8fe7 973e
00000030: 05d8 893e 5f27 ae3d d75d 193d 4bab 64be
00000040: 45d5 323c ffe1 923e 3f45 893e 49be e4bd
00000050: 382f c43d 32b9 d6bd dc80 81bc 1961 c3bd
00000060: 1bc9 333e 5379 9c3e 087f 83be 4fe6 2b3e
00000070: 540c a53d 3081 26bd 33b3 eebd 8836 d3bc
00000080: a45d 05be c37e 81bd 6375 38be e6e2 9e3c
00000090: 92e2 6d3e 5e56 2dbe 6984 7fbe 665c b2bd
000000a0: 91d4 793e 3164 a4bd a165 803e e84f 503d
000000b0: 1ecb 9abe 61b7 87be 68bd 5a3d faf0 8ebd
000000c0: 47cf 2ebe bf00 1ebe 4581 68be df58 293e
000000d0: 963f c8bd 23e1 58be 2586 e83d 5411 78be
000000e0: 04e5 3abe a4ac 083e cc03 0d3e d5e1 983d
000000f0: b404 f63c ca70 163c dff7 3c3e e008 873e
-0.041514333 -0.065360025 -0.11717617 -0.0105857 -0.3016711 -0.062224314 0.06785095 -0.3580977
-0.38462198 -0.07329953 -0.20221312 0.29668853 0.26922622 0.08503603 0.03744301 -0.22330968
0.010915105 0.28688046 0.26810643 -0.111691065 0.09579319 -0.10484542 -0.015808515 -0.09540004
0.17557184 0.30561313 -0.25682855 0.16787075 0.08058992 -0.040650547 -0.11655273 -0.025782838
-0.13024002 -0.06323006 -0.1801353 0.019395303 0.23230961 -0.16927478 -0.24952854 -0.0870903
0.24397494 -0.080269225 0.25077537 0.050857455 -0.3023309 -0.26507095 0.053403288 -0.069795564
-0.17071258 -0.15429972 -0.22705562 0.16537808 -0.09777753 -0.21179633 0.11353711 -0.2422536
-0.18251425 0.13347107 0.1377098 0.07464949 0.03003154 0.009182164 0.1845393 0.2637396

conv1.nn.4.weight f4 [64]
00000000: cad9 6d3f ad00 783f 3a8e 813f 2c27 633f
00000010: f92c a93f 9fab 583f 3fea b93e 69c6 6c3f
00000020: 6dd6 5e3f 0359 513f 9a7a 0b3f cd45 f63e
00000030: fbaf 413f 47ef 903f 53f9 3f3f c320 883f
00000040: 7cb1 873f b914 8d3f d67c 793e 9e7f 773f
00000050: 2696 973f 91c4 833f 8d9f fc3c ff59 443f
00000060: 82f8 153f 1e2f a53f ce4c 533f 4146 413f
00000070: 211d 273f 0023 713f 666d 413f c137 813f
00000080: 8950 783f 07b6 193f a063 0a40 abf0 923f
00000090: d21d 3f3f 8fda ae3f bc1e 7f3f b4f2 6f3f
000000a0: 38b3 883f bd8a 893f b4fb 933f 2e76 9c3f
000000b0: a0d3 923f 8ea4 d43f 39eb 753f 2cc8 4c3f
000000c0: 5114 ca3e 3319 b03f 602d 6f3f 8f5d 663f
000000d0: 6bc0 823f 869f 583f 8d3f ab3f cdca 873f
000000e0: 030e 663f b511 a73f 6571 413f acb2 633f
000000f0: 0497 ae3f e6e1 8c3f 3ad7 723f 50c7 663f
0.92910445 0.9687603 1.0121529 0.88731647 1.321685 0.84636873 0.36311528 0.9249025
0.8704594 0.81776446 0.5448395 0.4810013 0.7565915 1.1323022 0.74989814 1.0634998
1.0601039 1.1021949 0.24364027 0.96679103 1.1842697 1.0294362 0.030837798 0.76699823
0.5858232 1.2905004 0.8253907 0.75497824 0.6527882 0.9419403 0.75557554 1.009514
0.96997887 0.60043377 2.1623306 1.1479696 0.7465488 1.3660449 0.9965627 0.9372971
1.0679693 1.0745465 1.1561189 1.2223566 1.1470833 1.6612718 0.96062046 0.7999294
0.39468625 1.375769 0.9342861 0.8998651 1.0214971 0.84618413 1.3378769 1.0608765
0.8986513 1.3052279 0.7556365 0.88944507 1.3639836 1.1006439 0.9485966 0.90147877

conv1.nn.4.bias f4 [64]
00000000: 45de e93d fa94 003c 436d 2fbd 549b 9a3e
00000010: ee56 0a3d 7871 f9bd cabe 82bd a26d 703d
00000020: 248f 3a3e 8c7f dabd 962f 5d3e c721 113e
00000030: 633c 033e c755 a2be a083 5a3d 09fa 96bd
00000040: 1bd1 6fbe 17d3 913e 897d 033e c031 1e3c
00000050: e558 18bd b506 8d3d 17d4 37bc 9288 9dbb
00000060: 8260 81be 0b68 92be 353a b93d 32f1 8f3c
00000070: 0629 70bd 8ae2 503c 0f13 81bd 1a51 853c
00000080: aca7 eaba 0ec3 d93c 5b98 1e3e 3188 98bd
00000090: bdc2 dd3c f64a edbd 5c1d c63b 6b3a a13d
000000a0: f072 1cbd 2a5a a2bd 7131 77be b48f 5e3d
000000b0: 957f ac3d 4bbb 9b3b 2787 493d 1aea 27be
000000c0: 42e2 ce3d a1ca 6cbd beca 8abb b277 513e
000000d0: 9b26 15bd ce80 31bc 75a9 38be fb16 00be
000000e0: ef0a 16bd 6e29 2ebe a0ce 37be ca5e 3a3e
000000f0: 0864 ab3d 4adb a13e 8c3d 3dbe 3818 3ebd
0.11419348 0.007848019 -0.04282881 0.3019663 0.03377431 -0.121798456 -0.063840464 0.058698304
0.18218666 -0.10668859 0.21600184 0.14173041 0.12816004 -0.31706068 0.053348184 -0.07371909
-0.23419611 0.2848136 0.12840857 0.009655416 -0.03719415 0.06886045 -0.01122 -0.00480754
-0.25268942 -0.28595003 0.09044305 0.017571066 -0.058632873 0.012749324 -0.06302463 0.016274024
-0.0017902753 0.026582267 0.15487806 -0.074478514 0.027070398 -0.11586563 0.0060459804 0.078724705
-0.03819555 -0.07927354 -0.24139954 0.054336265 0.08422772 0.0047525517 0.049201157 -0.16397896
0.10101749 -0.05781043 -0.0042355945 0.20455816 -0.03641377 -0.010833932 -0.18033393 -0.12508766
-0.03663152 -0.17007992 -0.17949915 0.18200222 0.08368689 0.31612617 -0.1848051 -0.046409816

conv1.nn.4.running_mean f4 [64]
00000000: 2480 f63e 0400 0000 0400 0000 c213 8c3f
00000010: 0202 ef1a 561a b23f 10b8 3c3f 0400 0000
00000020: 048a 9f3f 6e3e d83e 3c49 863f 40d6 b83f
00000030: bdde a23f cd24 923f 7a77 a93f 0400 0000
00000040: 0400 0000 ee94 b73f 0170 0d3f 0400 0000
00000050: 07bc 6f3d ca48 9839 8fde 0d3d 0400 0000
00000060: 8aac 4c3d 844d f63e d9e1 733b d443 073f
00000070: a6d9 bc3f eb3f 3117 6cb2 853f 0400 0000
00000080: 0400 0000 72b7 d63f 8fab a93e 651d 663e
00000090: d6db 923f 621a 073c 0400 0000 0400 0000
000000a0: 3ce7 333f 0400 0000 7600 e03d 73cd 483f
000000b0: 8e03 4a3f db11 653e 7f2c 4817 bd13 993f
000000c0: 6602 d43a e2f7 273d 1524 113d fab7 ae3f
000000d0: 0400 0000 a79a 393f e05d 963c 0400 0000
000000e0: 0400 0000 1378 de3e 4c09 713f a9e7 c33f
000000f0: 2e5a 6f3e d3e8 2e3f 47ff a73c 449d 743f
0.4814464 6e-45 6e-45 1.094353 9.885133e-23 1.3914287 0.7371836 6e-45
1.2463994 0.4223513 1.0491099 1.4440384 1.2724224 1.1417481 1.3239586 6e-45
6e-45 1.4342325 0.5524903 6e-45 0.058528926 0.0002904593 0.034636077 6e-45
0.049969234 0.48106015 0.0037213473 0.5283787 1.4753921 5.727246e-25 1.0445075 6e-45
6e-45 1.6774733 0.331387 0.2247215 1.1473339 0.008246036 6e-45 6e-45
0.7027471 6e-45 0.10937588 0.7843849 0.78911674 0.22370093 6.4679647e-25 1.1959149
0.0016175031 0.041007884 0.0354348 1.3649895 6e-45 0.72501606 0.01835531 6e-45
6e-45 0.43450984 0.9415481 1.5305072 0.23374245 0.6832401 0.020507468 0.9555247

conv1.nn.4.running_var f4 [64]
00000000: 9991 923e 0400 0000 0400 0000 5546 663f
00000010: a625 931a 4e32 9f3f c415 703f 0400 0000
00000020: f143 1b3f cf1e 0d3f fc5b 2d3f 8f3b 2c3f
00000030: 81ed eb3e 05d3 2e3f 970c ea3e 0400 0000
00000040: 0400 0000 b3ee 033f f3b7 593e 0400 0000
00000050: f744 243d 4361 1039 c2d9 563c 0400 0000
00000060: 39de de3c befa 243f a315 9b3b 1d73 fa3d
00000070: b069 b73f 0398 3413 c9f3 c53e 0400 0000
00000080: 0400 0000 9cfd 803f dd66 7a3e ac07 e23d
00000090: 1859 f73e 33ba e83b 0400 0000 0400 0000
000000a0: 3e6e 963e 0400 0000 ee25 c93d 883d 1e3f
000000b0: 93bb 993f 2b6f a13e 3563 5114 8777 693f
000000c0: bb8c a53a e909 fe3c ff8f b43c 50c5 0e3f
000000d0: 0400 0000 4e4e 793f 6a4c 853c 0400 0000
000000e0: 0400 0000 dcc1 473e 734d 563f 54e5 3f3f
000000f0: ad2f 0d3e 3905 a73e c857 263c 01ff 093f
0.28626707 6e-45 6e-45 0.8995107 6.08586e-23 1.2437227 0.9378321 6e-45
0.60650545 0.55125135 0.6771848 0.6727838 0.4607964 0.6829074 0.4571273 6e-45
6e-45 0.515361 0.21261577 6e-45 0.040104833 0.00013769143 0.013113441 6e-45
0.027205573 0.644451 0.004732804 0.12228987 1.4329128 2.2794142e-27 0.38662556 6e-45
6e-45 1.0077395 0.24453302 0.110366195 0.4831016 0.007102275 6e-45 6e-45
0.29380983 6e-45 0.09821688 0.6181264 1.2010368 0.31530127 1.05713686e-26 0.9119801
0.0012630442 0.031010585 0.022041319 0.55769825 6e-45 0.9738511 0.016271789 6e-45
6e-45 0.19507545 0.8371193 0.749593 0.13787718 0.32621172 0.010152765 0.5390473

convs.0.nn.0.weight f4 [64, 64]
00000000: 403c 44be 8da6 0b3d 9103 343d d2c1 153d
00000010: 2b42 383e 3dde ac3d b87a 493e 05d8 d1bd
00000020: eb94 29be e3e2 eb3e 5c24 25be c24a 55be
00000030: 8abc c6bc 1588 23be 20fd 93bd 0856 873c
00000040: dd95 96bc 0d81 23be 3791 303e 7bab 26be
00000050: ddb1 2bbe 03cf a1bd 9853 6e3e ae3d a73d
00000060: dc58 27be 36a9 fe3d 228e 32be 2a9a fbbd
00000070: cac0 51bd 9e86 213c 6860 57be f6c2 0abe
00000080: 090a 2a3e 09fb 75be f908 273f 451b 8f3d
00000090: 6a3e 20be 7761 cebe f465 66bb 9781 2d3e
000000a0: 11f8 24be 5488 04be 1ccc b6bd f16d babd
000000b0: d14b 593e 7041 1d3f eca1 f63c 1059 e13b
000000c0: a027 23be 5842 abbc 77bc 803e 8fcb 053d
000000d0: 9c59 18be 3fb6 8b3e 68e9 71bf 3586 723d
000000e0: 3dba 76bd dbaf 2d3e e3b4 11be 0b43 2ebe
000000f0: adfd 8a3e 6ffa 623d dbce ba3e 884d 12be
00000100: 57fa 593e 2217 1abe 638e cabc 4c53 c1bc
00000110: 2664 bbbd 7fea 2f3e 406d 74be 9ca1 353d
00000120: 3dff 003e d6c0 2ebd 1a61 a4bd 5dd4 253e
00000130: 2267 58be 183f bebd 75d6 b83c 14a6 a4bd
00000140: 4826 83bd d3b3 0f3c b2b4 23be 958c 02bd
00000150: d827 16bf 3e2e 223f 694b 25bc 7dc2 2b3e
00000160: 926e 403d 80ad efbd b0a7 a8be 31c9 a0be
00000170: 9bd8 503e 2c0d 1cbe 0720 20be aa3e 0ebd
00000180: f7cf a0bd 6b02 603e 0ae6 a43d dc5b b5be
00000190: 4372 9bbe 8746 303e 330a 723d 51b1 00be
000001a0: b61b 64be ea72 26bd 37d4 a8bc 2ca9 81be
000001b0: c823 5e3e 64c4 203e 236b 17be 0810 d53d
000001c0: 980b ab3e b8ca c4be 4a5b 1dbe 001c 603e
000001d0: bd34 e4bc 1618 21bc 1e89 113e ee1a fc3c
000001e0: d53f 933c b2d2 f1be f3a0 463e 9ff2 68bd
000001f0: ea11 013f d590 36be 9db1 f5bd d220 e03d
00000200: 3fb4 c0bd 80c5 ac3d 8339 bdbc 832e a43e
00000210: 58c2 243d 5635 30be f5ad 32be d418 0d3e
00000220: 00df 31bd 1b3d 6fbe 5416 f73c 6e6c 92bd
00000230: d443 b53e 6b67 32bf b78c 1fbe 779a b03c
00000240: d84d e63c 0dc7 8abc 829f b63d 74b4 a2bc
00000250: 797d a3be 29fc dfbe 3c7f 47be 93d4 4ebd
00000260: 7e9c e6be 2485 1dbf aaf8 c43e 89d8 c8be
00000270: fcf0 31be b4f2 da3c 8788 9e3e 8639 a2bd
00000280: 1794 da3d 1843 c63d 0f53 12be 1351 0d3e
00000290: 77b9 403e 2384 163f 380f 213d 295e 41be
000002a0: 48b7 62be 013f 5f3e 8370 f3bc fce5 113e
000002b0: e437 82be 117c 81be 5824 3fbd 0c16 45be
000002c0: ded3 64bd c522 14be 4384 52be 52a4 e33e
000002d0: 0bb5 163d 2150 2dbe 2996 26bd 5477 413e
000002e0: 2c6a b23d d37c 35bd 6b42 15bf 1af8 563e
000002f0: c8b5 9bbe ffa6 2d3f 4deb ffbe a76d 0ebf
00000300: b025 91bc e15a 87ba 281d f33d 7b25 d93e
00000310: 8ebd 90bd 213c 9abc 0511 b03c aeb4 bc3d
00000320: 613a c93c 89c8 903d 2251 2a3e a651 a6bd
00000330: c404 1e3e e8d8 27be f9a7 373e 77f9 b33d
00000340: 405c 6fbd 932b bdbd 1e3c 583e f348 81be
00000350: 06f3 9f3d c498 663c 7ece 513e e015 403e
00000360: 0dfa 1dbd 43a8 aabd c08a a5be 6e65 fcbd
00000370: 1058 f8bc 60bf 903d 31e5 e5bd 2a84 21bd
00000380: ca6a b4be 1410 c43e f7af 943e e2b1 603e
00000390: 7b71 b33d dc2d 883e da3b c63d b3bb 543d
000003a0: f1e7 6a3b facf 303c 1c7f d53e 02f1 943e
000003b0: ec6b 8e3e 5a17 853e 5a76 f9bc 1570 d3bd
000003c0: d6f9 213d 8343 fdbd 932e b4bd 7da3 1e3e
000003d0: 469c 9cbd dafe 9e3e e3d1 58be 5d2f 57bc
000003e0: 8d33 30be 0ebe 933e cefd 9ebe 9b6b 993e
000003f0: 78d4 813e d8a0 ee3e ff67 433e 787b 35be
-0.19163609 0.034094382 0.043948714 0.036561795 0.17993991 0.08440826 0.1967572 -0.102462806
-0.16560714 0.46071538 -0.16127151 -0.20829299 -0.024259824 -0.1596988 -0.07226014 0.016520515
-0.018382007 -0.15967198 0.17242895 -0.16276352 -0.16767068 -0.079008125 0.23274076 0.08166061
-0.16342491 0.12434618 -0.17437032 -0.12285264 -0.05120925 0.009858755 -0.2103287 -0.13550934
0.1660539 -0.24021544 0.65248066 0.06987623 -0.15648809 -0.40308735 -0.0035155984 0.16943966
-0.16110255 -0.1294263 -0.089256495 -0.09103001 0.21220328 0.61427975 0.030106507 0.006877072
-0.15933084 -0.020905659 0.25143787 0.03266483 -0.14877933 0.2728748 -0.94496775 0.05921002
-0.060236204 0.16961615 -0.14229159 -0.17017762 0.27146664 0.055414613 0.36485943 -0.14287388
0.21286903 -0.15047887 -0.024726098 -0.02359929 -0.09149961 0.17179297 -0.238698 0.044343576
0.12597366 -0.04266437 -0.08026333 0.16194291 -0.21133092 -0.09289378 0.022563199 -0.080394894
-0.06403786 0.008770901 -0.15986899 -0.03187235 -0.58654547 0.6335181 -0.01008878 0.1677341
0.046980448 -0.117030144 -0.32940435 -0.31403497 0.20395128 -0.152394 -0.15637217 -0.03472773
-0.07852166 0.21875922 0.08051689 -0.35421646 -0.30360612 0.17214404 0.059091758 -0.12567641
-0.22276196 -0.040636934 -0.020609004 -0.2532438 0.21693337 0.15699917 -0.14786963 0.10403448
0.33407283 -0.38435912 -0.15366855 0.21885681 -0.027857179 -0.009832403 0.14212462 0.03077456
0.017974773 -0.4723106 0.19397335 -0.056872007 0.5041796 -0.17828687 -0.11996768 0.1094376
-0.09409379 0.08436108 -0.023098713 0.32066736 0.040224403 -0.17207846 -0.17449172 0.13779002
-0.04342556 -0.23363154 0.030162014 -0.071495876 0.3540331 -0.69689053 -0.15581022 0.02155803
0.02811329 -0.016940618 0.089171425 -0.019861437 -0.31931666 -0.4374707 -0.1948213 -0.050495695
-0.4504127 -0.6153128 0.38470966 -0.39227703 -0.17377084 0.026727058 0.30963537 -0.07921128
0.10672777 0.09680766 -0.14289497 0.13800459 0.18820749 0.58795375 0.039321154 -0.18883575
-0.22140229 0.21801378 -0.029716736 0.14247888 -0.25433266 -0.25289968 -0.04666552 -0.19246691
-0.055866115 -0.14466389 -0.20558266 0.44461304 0.03679375 -0.16925098 -0.040670548 0.18893176
0.08711657 -0.044308495 -0.5830447 0.2099308 -0.30412126 0.6783294 -0.49984208 -0.55636066
-0.017718166 -0.0010326767 0.118707955 0.42411408 -0.07067405 -0.0188275 0.02149249 0.092141494
0.02456397 0.07069499 0.16632512 -0.08121042 0.15431505 -0.16391337 0.1793517 0.08787816
-0.058437586 -0.09236827 0.21116683 -0.25250968 0.07810025 0.014074508 0.20488927 0.18758345
-0.038568545 -0.083328746 -0.3233242 -0.12324034 -0.030315429 0.07067752 -0.112253554 -0.039432682
-0.35237724 0.38293517 0.290405 0.21942857 0.08761879 0.26597488 0.096793845 0.051936816
0.0035843814 0.010791773 0.4169854 0.29090124 0.27816713 0.25994378 -0.030451942 -0.10324112
0.039544903 -0.123663925 -0.08797946 0.15492053 -0.07646994 0.3105381 -0.21173815 -0.013133851
-0.17207165 0.28855938 -0.31053013 0.2996491 0.25357413 0.4660709 0.1908264 -0.17722881

convs.0.nn.0.bias f4 [64]
00000000: cbf1 43be 5c2b cf3b 9c01 843b 71a6 43be
00000010: 6583 4e3d cb5c b93d 616c adbb dc5e c6be
00000020: bbe6 fbbe 2df1 40bf ab7d 0dbf 5a40 31ba
00000030: 7941 43be c0a3 0d3d b3a1 8c3d 8757 d3be
00000040: 6187 e7bd e784 07bf bf04 28be b9ce 14bd
00000050: 776d 2e3e d354 07be 4f9c 903e 1db7 bd3c
00000060: 3fd1 70be 6264 93be 25df c5be 3242 d6be
00000070: d3c5 8f3c a120 1dbd 2c6c 77bd b346 38be
00000080: 9bb8 ebbd 621a 67bd d66d d9bc 9050 05bf
00000090: 1ced d4be b110 933d fa4b cabe 12c8 fbbe
000000a0: 6b8c dfbd 33d2 8d3d a4da abbe e5f7 ddbe
000000b0: c1b3 50be 6bb4 e93e 04c1 abbe 1f52 06bf
000000c0: dc4b a5bd f44c bdbe 3bba 05bf aef1 98bb
000000d0: ec8b 48bc c5b5 dfbe d92e 03bf 4eb6 9bbb
000000e0: 0bab f3be 33d1 283c a83c 33be 29f9 91be
000000f0: ddb4 afbd a626 bd3e c960 b8bd 2737 f5be
-0.19135205 0.0063223075 0.004028512 -0.19106461 0.050418276 0.09050902 -0.005292461 -0.38744247
-0.4919947 -0.75368005 -0.5526988 -0.0006761603 -0.19067945 0.034579992 0.06866779 -0.41277716
-0.11305118 -0.5293717 -0.1640806 -0.03632996 0.17033945 -0.13215952 0.28244254 0.023158604
-0.23517321 -0.28787524 -0.38646808 -0.41847378 0.017550385 -0.038361195 -0.060405895 -0.1799572
-0.1150982 -0.056421645 -0.026541632 -0.52076054 -0.4158715 0.07180918 -0.3951109 -0.4917608
-0.109154545 0.06924858 -0.33565247 -0.4335319 -0.2038107 0.4564546 -0.33545697 -0.52469057
-0.0807111 -0.36972773 -0.5223729 -0.0046674823 -0.012240391 -0.43693367 -0.5124336 -0.004751957
-0.47591433 0.010303783 -0.17503607 -0.28510407 -0.08579419 0.3694355 -0.09002835 -0.4789364

convs.0.nn.2.weight f4 [64, 64]
00000000: 9b87 ed3e 4752 b93d fbac 103e ab00 753e
00000010: 9397 553e bcc9 8dbe 5839 693e b3a6 a0bb
00000020: dc0b 443d 4609 433e 9909 9a3b aa34 b13d
00000030: 1d62 83be 5dea 78be bf83 013e 2535 81be
00000040: 8aa2 41bc f922 7d3e e936 9abd 02c7 103e
00000050: e30f 8ebd 8392 53bd 7418 c3be 600d 03bd
00000060: f737 47be 5d96 1ebe 57f6 b43e 1faf 863e
00000070: 2c53 bbbc 8eb4 143e 775c 91bd 8906 6b3d
00000080: fbce c13d 29e9 b23b 72b1 1a3e 6051 933e
00000090: 2dd8 59be ca3a 433e 360e 8bbd c0cb bdbc
000000a0: 15be e93d 2d9d 96bc eb05 99be 5ae8 0d3e
000000b0: 45cd 93bd 3172 b23e 1019 c13e 0a96 07be
000000c0: a197 973d 9264 063e c304 fb3e 312c 343d
000000d0: 739a 85be 4513 3b3e 3e9f 483d 8b61 903e
000000e0: f658 123e 4ac8 b83c 7901 19be ceee 03be
000000f0: 60f1 a33d dcb1 0ebe c7a7 00be 8e99 2cbd
00000100: d467 31bd ea27 bfbe 24e2 ccbd 243a c1be
00000110: 1147 edbe f111 bebe a5e1 ed3e 3cb5 bb3e
00000120: c7d3 a0be a07e bbbd c959 893e 8710 eebd
00000130: 5157 533e 8d7d 19bf 29e2 d9bd ea23 5e3e
00000140: c118 c03d 6fd0 28bf 2c71 5cbc 88b7 bc3d
00000150: 8207 bd3e 35ee dbbd b65a d4bd a094 283f
00000160: 361f 52bd 3731 b7be d74a 5e3e 96d0 883d
00000170: 7cd4 f5bd dfb7 18bc 90c5 18be 0433 083e
00000180: df05 fa3d 865b 613e 7849 f7bd e083 343e
00000190: ffcf 293e 18f8 00bf 2096 75be b74b 2abe
000001a0: a439 fc3c bfb0 d9be 3ee3 97be 0a9f 863e
000001b0: c8d4 00be eac2 ccbe 1317 1abd c539 1d3e
000001c0: beb8 2abe 6e21 103e 4fcf 853e 8b5e efbd
000001d0: ccc7 73be 60f2 15be 6ea9 bf3b 3e28 b3bd
000001e0: 8e0f 6ebe afbf e73e b1f9 273c 62d6 1d3d
000001f0: 9d61 56bc 8a55 95be 6b25 bbbc 6c7c fe3b
00000200: c6f4 ac3e a7d0 683e d77a e4be dfc7 01bd
00000210: 4f7b b7be f68a bc3c e793 02bf d870 7dbe
00000220: 5c39 b6bd 993a 9cbd 5c84 b93c 4028 38be
00000230: e761 abbe c2dd 28bf 4923 a0bc 3db0 29bf
00000240: 7d01 90bd 7ccd 893d ae18 623d 87de 293e
00000250: 7770 4d3e 7f37 54bf 933f 823e 7025 dfbe
00000260: a4e7 94be c358 213d 6090 843e be02 d83d
00000270: 0221 c7be f953 563e 77fa 083e d7f6 c0bf
00000280: f1d7 8c3e df8d 793d 0609 053f dbaa 14be
00000290: 730f 903e f37b 073f 03da 9cbe d9ea 603d
000002a0: 7cac dabd ef0d 403e ea91 adbe 7aef 0dbe
000002b0: d750 0ebf 0918 cd3e 72d7 20bd 87dc 433e
000002c0: 5995 c6be 30e4 84bd d5f0 993e 7d45 fcbe
000002d0: 13b2 f3be 3b27 24bc d9ba 153c 9b05 a33d
000002e0: 745d 75bd 3c95 15bd 893e 93be 4aa4 72be
000002f0: ae30 95be 2be2 b5be 29e9 8b3e df63 4abd
00000300: 7e17 8a3d b091 063d b87a f3be b509 a33c
00000310: 66b8 e6bc da1c efbd 015a 17bf 0646 29be
00000320: 8fa3 8ebd 6ce6 e83d 366b d7be 8ff6 ccbe
00000330: 7fe0 eb3b 55a1 8bbe 30d8 183d 112c 03be
00000340: 48b6 d43c 9067 913e f642 82bd 58a1 913d
00000350: 0266 8ebe c9e9 00bf 26e6 d9be 961c 16bf
00000360: 7b12 a33b 7c03 cebe f40d bd3e ba45 143d
00000370: dac6 6e3e 26cd 9f3e 06d2 c63d 9631 d4be
00000380: 3793 4d3e 3599 44be 664b 603e 3c51 abbd
00000390: 59a1 b43d e0eb 6a3e 6791 80be 8c26 4a3d
000003a0: d71a 53be c0e9 80be 026a d4be fbfd 023d
000003b0: f821 e6be d406 643e fc1d 963d 5f9d 30bc
000003c0: 5446 cb3e 4711 4a3c f345 813e d4c1 953e
000003d0: 8bef 3fbe bfb8 013e 5509 ff3c c935 a33d
000003e0: 6b79 ad3d 179d 5e3d fbf5 30be 4bdb 373d
000003f0: eb95 923d ce69 44be 591a a23e 659b 0cbd
0.4639252 0.09048896 0.14128487 0.23926036 0.20858602 -0.27692974 0.22775781 -0.0049026846
0.047862872 0.19046506 0.004700851 0.08652623 -0.25660792 -0.24308152 0.12647913 -0.2523586
-0.0118185375 0.24720372 -0.075300045 0.14138415 -0.06936624 -0.051653396 -0.38104594 -0.031995177
-0.19454943 -0.15487047 0.35344192 0.26305482 -0.022866808 0.14522001 -0.070977144 0.05737928
0.094633065 0.0054599238 0.15106753 0.28773022 -0.21273871 0.19065395 -0.0678982 -0.023168445
0.114132084 -0.018385494 -0.29887328 0.13858166 -0.072168864 0.34852746 0.37714434 -0.13240829
0.07401968 0.13124302 0.4902707 0.043987457 -0.26094398 0.1826907 0.04897999 0.2819942
0.14291748 0.022556443 -0.14941968 -0.12884066 0.08005023 -0.13935035 -0.12564002 -0.04213863
-0.04331191 -0.3733514 -0.100040704 -0.3773967 -0.46343282 -0.37123063 0.46461216 0.36661708
-0.31411573 -0.09155011 0.26826313 -0.11624246 0.20638777 -0.599572 -0.1063884 0.21693388
0.093797214 -0.65943044 -0.013454717 0.09214693 0.3691979 -0.10738794 -0.10368864 0.65851784
-0.051299296 -0.35779735 0.21708237 0.066804096 -0.12003419 -0.009321182 -0.14919114 0.13300711
0.12208151 0.2200757 -0.1207456 0.17628431 0.1658325 -0.5037856 -0.2398305 -0.16630445
0.030789204 -0.4251766 -0.2966556 0.26293212 -0.1258117 -0.39992458 -0.03761966 0.15354069
-0.16672036 0.14075252 0.26134726 -0.116879545 -0.23806685 -0.1464324 0.005849055 -0.0874791
-0.23248121 0.4526343 0.010252402 0.03853453 -0.013084796 -0.29166824 -0.02284499 0.007766297
0.33780497 0.22735845 -0.4462497 -0.031684753 -0.35836264 0.02301548 -0.5100693 -0.24750078
-0.08897659 -0.07628364 0.022646122 -0.17984104 -0.3347313 -0.65963376 -0.019548075 -0.66284543
-0.07031534 0.06728646 0.055199318 0.16588794 0.20062433 -0.8289718 0.25439128 -0.4358325
-0.29082978 0.03939129 0.258914 0.10547398 -0.3889237 0.2093047 0.13376795 -1.507533
0.275085 0.060926314 0.51966894 -0.14518301 0.28136787 0.52923506 -0.3063508 0.05491147
-0.1067743 0.18755315 -0.33900386 -0.13860884 -0.555921 0.400574 -0.039267965 0.19127093
-0.38785818 -0.06488836 0.30066553 -0.49271765 -0.47596797 -0.010019119 0.009138786 0.079600535
-0.059903577 -0.036519274 -0.28758648 -0.23695484 -0.29138702 -0.35524115 0.27326325 -0.04941165
0.06742762 0.032853782 -0.47554564 0.01990209 -0.0281641 -0.11675425 -0.5912171 -0.16530618
-0.0696479 0.113720745 -0.42073983 -0.4003186 0.007198393 -0.27271524 0.037315547 -0.12809779
0.025965825 0.28399324 -0.06360428 0.07110852 -0.278122 -0.5035673 -0.42558402 -0.5863737
0.0049765683 -0.40237033 0.36924708 0.03619931 0.23318043 0.31211203 0.097080275 -0.4144408
0.2007569 -0.19199069 0.21903762 -0.083651036 0.08819837 0.22941542 -0.25110933 0.049353167
-0.20615707 -0.25178337 -0.41487128 0.031980496 -0.4494779 0.2226823 0.07329938 -0.010779708
0.39702094 0.012333221 0.2524868 0.29249442 -0.18743722 0.12668131 0.03113238 0.07969243
0.08470424 0.05434903 -0.17281334 0.04488687 0.07157501 -0.19180986 0.31660727 -0.034327883

convs.0.nn.2.bias f4 [64]
00000000: e500 353e 4acb a0be 3d3c 0abe e87b ecbd
00000010: 060a 2fbf 7d2f c23d 0611 943d ca37 f0bc
00000020: b8bd 9bbc d536 2ebe ef7a 283e 09bf 19be
00000030: db60 f5bd eb4c ecbc 6c44 063e 8be8 80bd
00000040: 1e44 813d 07dd 0bbd 9160 71be 1bae 5f3e
00000050: ce8d 9cbb 5167 7c3c 5d86 1ebd 4d25 63bd
00000060: 9111 9bbe 1655 66bd 94bb 343c e388 16be
00000070: 2793 c6be 61b9 eb3c 597f 4f3e e27a 883d
00000080: d267 f1bd 8911 67be 2579 273c 1e7f 2abd
00000090: a06e 833e 6553 82be 6f63 8d3e e619 39bd
000000a0: f739 673d 247a 5fbe f453 013e a5ac 82bd
000000b0: 15de 193e 538f 20be f4d6 8dbc a7c1 11bf
000000c0: 8708 20be 0271 20bd 9e07 83be f66a 4fbe
000000d0: 08cd a2bd 2adc 12be f8a4 c03a 274c 8c3d
000000e0: 8bfc 79be b533 a43d 1955 563d 4557 ab3c
000000f0: 037e 5e3e fb3e d5bd 403b 87be 306f c7be
0.17676122 -0.31405097 -0.13499542 -0.11547071 -0.6837467 0.09481714 0.072298095 -0.029323477
-0.019011363 -0.17013104 0.16453145 -0.1501428 -0.11981364 -0.028845271 0.13112038 -0.06294354
0.063118204 -0.034146335 -0.23571993 0.2184376 -0.0047776466 0.015405492 -0.038702358 -0.055455495
-0.3028684 -0.056233488 0.01103105 -0.14700656 -0.38784143 0.028774919 0.20263423 0.06664063
-0.1178738 -0.22565283 0.010221754 -0.041625135 0.25670338 -0.2545425 0.27614924 -0.045190714
0.056451764 -0.21823937 0.12629682 -0.063805856 0.15026124 -0.15679674 -0.017314412 -0.56936115
-0.15628253 -0.039170273 -0.2559175 -0.20255646 -0.07949263 -0.14341798 0.0014697602 0.068504624
-0.24412744 0.08017675 0.05232725 0.020915637 0.21727757 -0.10412403 -0.26412392 -0.38952017

convs.0.nn.4.weight f4 [64]
00000000: 3701 063f 5380 7a3f 0679 a33f f394 623f
00000010: 60fe 933f 2c91 9c3f 6912 c53f 3948 143f
00000020: b678 273f 53aa 943f cc0e 853f d39b 533f
00000030: ed0a 933f 9853 103f ddb2 5b3f 0e5b a53f
00000040: 1082 473f cdd5 7f3f 936e a33f acd5 b13f
00000050: 4989 403f da12 4d3f be97 863f d4cd 063f
00000060: 7448 823f 4802 a13f b127 a03e c133 833f
00000070: 9942 b03f eb00 423f e254 7d3f cd8b 7a3f
00000080: 5237 553f da5c 863f 3253 8c3f 7838 cb3f
00000090: a064 cb3f a4ff 8c3f b435 313f 24b1 6e3f
000000a0: 8705 883f b26f 6b3f 8bed 393f cfad 5c3f
000000b0: 0932 aa3f 5f5b 883f ce3c 733f 9a45 8d3f
000000c0: bb49 843f 5e90 6a3f 15f9 a23f 2497 293f
000000d0: 9752 5d3f 47b0 a43f c1f2 a43f 99dd 8a3f
000000e0: 3f3d 773f c650 803f d073 8d3f 5041 5b3f
000000f0: 5d86 643f 7c8b 843f ddee 833f 9175 863f
0.52345604 0.9785206 1.2771308 0.8850853 1.1562004 1.2231803 1.5396243 0.57922703
0.65418565 1.1614479 1.0395141 0.82659644 1.1487709 0.56377554 0.858198 1.2918413
0.77932835 0.9993561 1.276812 1.3893332 0.7520948 0.8010689 1.0515058 0.5265782
1.0178361 1.2578821 0.31280282 1.0250169 1.3770324 0.7578265 0.98957646 0.9786957
0.8328754 1.0497086 1.0962889 1.5876608 1.5890083 1.1015515 0.6922257 0.93239045
1.0626687 0.9196731 0.72628087 0.8620271 1.329652 1.0652884 0.95014656 1.1036866
1.0335001 0.91626537 1.2732264 0.6624625 0.8645415 1.2866296 1.2886583 1.0848876
0.9657783 1.002465 1.1050968 0.85646534 0.8926752 1.0355067 1.030727 1.0504628

convs.0.nn.4.bias f4 [64]
00000000: 6205 d7bd ff1e 6a3d 8201 84be b44f 0ebe
00000010: ae57 4dbd 3327 843e 9864 1c3e 8e04 13be
00000020: 1fe8 86bd 21cb 163e b398 7fbd 5d81 0ebe
00000030: 367f 9bbe 6f6a f4bd e77a 58bd 692b ec3c
00000040: 823a 903e e131 02be 41d5 c83d 1210 c33d
00000050: 1156 9cbd 376f e83d 18d3 273e ac21 15be
00000060: 27cc cd3b a0b6 0a3e bacf 65bd 94fe 9e3d
00000070: 857c 26be 8084 1a3e 1e4a 193e 5f9b cf3d
00000080: e31e 353e c5ce 043d 3853 88be e06d 883e
00000090: b3ec cfbc e0a5 cc3d 1ca1 ecbc fd4a 8dbd
000000a0: b43f 0abe 0e3b 21be c668 0f3e 4d5a 58be
000000b0: c0c4 66bd f3da 3dbe ac56 8e3d ffc4 cbbd
000000c0: 30ba 843c 0fa0 52be 4078 87bd 5478 8c3a
000000d0: 7ed3 ccba c4b5 c53e 558f d5bc 2922 68be
000000e0: cab7 9a3d daae 023e 89d7 103e 4d13 053e
000000f0: 76ef 3b3e 3912 383e 9850 19bd 343b 0cbd
-0.104990736 0.057158466 -0.257824 -0.13897592 -0.050132446 0.25811157 0.15272748 -0.14357206
-0.06587242 0.14725925 -0.062401485 -0.13916536 -0.30370492 -0.11934363 -0.052851584 0.028829293
0.28169638 -0.1271434 0.098063 0.095245495 -0.07633603 0.113493375 0.1638912 -0.14563626
0.0062804404 0.13546228 -0.056106307 0.07763401 -0.16258438 0.15089607 0.1496968 0.101370566
0.17687564 0.032423753 -0.2662599 0.26646328 -0.025381422 0.09992576 -0.028885417 -0.068990685
-0.13500863 -0.15745184 0.14004812 -0.21128197 -0.05633998 -0.18540554 0.06950125 -0.099496834
0.016202062 -0.2056887 -0.06614733 0.0010717013 -0.0015626994 0.3861524 -0.026069323 -0.22669281
0.07554586 0.12762013 0.1414472 0.12995644 0.18353066 0.17975701 -0.037430376 -0.034236148

convs.0.nn.4.running_mean f4 [64]
00000000: 283f 8b41 50b5 6a3f c59d e740 1069 e840
00000010: c8d0 873e 294e e740 91d1 a440 7be9 6141
00000020: 87d1 be41 2572 cd40 d29b 3d3f 2d21 0e41
00000030: 3c6a f53e 0fda 3241 a961 ea40 0400 0000
00000040: 7cbd c341 ac52 a140 7d33 9b3f 0c1e 0041
00000050: 809e 5341 29fb b23d 0400 0000 a8aa ba41
00000060: fab1 3014 adda e93e ce41 8b41 0400 0000
00000070: 97c8 3b3e 7d4c c73e 5896 c840 73e2 9d40
00000080: abfa 4541 c12c f625 eef3 d740 28d0 ae3f
00000090: 88d9 0a3f fa73 4736 f7ce 7740 3486 1841
000000a0: 66a0 633f 4307 a03e d1db 2441 81ad 863e
000000b0: 5083 893e 9378 fd3f 4e82 5f41 f29e 293f
000000c0: 0400 0000 be9d 7640 d318 2840 7b2d e940
000000d0: 2708 0441 3b8b 8f3f a856 043f c3f2 b940
000000e0: daa8 9640 dfce 4c40 074a ab3d 2585 fb40
000000f0: 7f43 de41 0400 0000 8f07 cd30 c436 3e3f
17.405838 0.9168291 7.238009 7.262825 0.26526475 7.228291 5.150582 14.119502
23.852308 6.4201837 0.7406589 8.8831 0.47932613 11.178237 7.3244214 6e-45
24.467522 5.041342 1.2125088 8.007336 13.226196 0.08739311 6e-45 23.333328
8.920829e-27 0.4567465 17.407131 6e-45 0.18338238 0.38925543 6.2683525 4.9338927
12.373698 4.2704524e-16 6.7485266 1.3657274 0.54238176 2.9720818e-06 3.8720071 9.532764
0.88916624 0.3125554 10.303666 0.26304248 0.26857996 1.9802421 13.969313 0.66258156
6e-45 3.8533778 2.6265152 7.286802 8.25199 1.1214365 0.51694727 5.810884
4.708112 3.2001264 0.08363729 7.860003 27.782957 6e-45 1.4917861e-09 0.74302316

convs.0.nn.4.running_var f4 [64]
00000000: c544 f543 af99 a241 888e 1f43 a4b5 1a43
00000010: cee0 9640 3bab 9542 18f5 af42 5d66 c643
00000020: 5daa 3943 c174 be42 d6f1 1d41 7208 6643
00000030: 41b5 c140 2d64 b943 3802 bf42 0400 0000
00000040: f923 7443 f974 c942 2c2d ae41 4c72 4e43
00000050: b64f ec43 ed48 3a3f 0400 0000 e3cc 5b43
00000060: 6d6a dc13 4ad3 c840 b637 a343 0400 0000
00000070: 10a4 5940 995d 6440 ee61 3a42 348d 8842
00000080: d307 7b43 1164 1925 bcc6 1543 c75f 2c41
00000090: e55a e140 19de 8636 d344 1542 873e 6f43
000000a0: 9ce9 1e41 505d 8440 b781 a943 8819 8b40
000000b0: 35a8 a93f f448 6242 94de 3343 82ee 2641
000000c0: 0400 0000 8a28 5d42 c668 3842 515f 0c43
000000d0: 0d53 3843 65ab 0741 0497 c340 fe01 0b43
000000e0: 0c67 b642 7f5e 3442 9479 203f 1d58 4943
000000f0: ed82 a743 0400 0000 bd79 2431 d61c 7241
490.53726 20.32504 159.55676 154.70953 4.714942 74.834435 87.9787 396.7997
185.66548 95.228035 9.871542 230.03299 6.0533757 370.78262 95.50433 6e-45
244.14052 100.72846 21.772057 206.44647 472.62274 0.72767526 6e-45 219.80034
5.564075e-27 6.275792 326.43524 6e-45 3.4006386 3.5682127 46.595634 68.27579
251.03056 1.3304538e-16 149.7763 10.773383 7.0423455 4.0193668e-06 37.31721 239.24425
9.932034 4.1363907 339.0134 4.3468666 1.3254458 56.571243 179.86945 10.433229
6e-45 55.28959 46.102318 140.37233 184.32442 8.479344 6.1121845 139.00778
91.20126 45.09228 0.62685513 201.3442 335.02286 6e-45 2.3934341e-09 15.13204

convs.1.nn.0.weight f4 [64, 64]
00000000: 38c9 5ebd 39d2 23bf 3ade dabd 4f34 203e
00000010: fb10 ddbd a777 57bd 8384 c43e 4c9b 9c3d
00000020: 5e71 0ebe df31 c03d 44bc fdbd 9431 c83d
00000030: 0c9a e5bd 8173 0c3e 93db 37bf 4250 7f3e
00000040: 4064 42be af40 573e b2e0 e13e 716e a13d
00000050: 41d4 89bc 4974 1abe ab94 23be 8239 74be
00000060: 270c 4b3e cb33 543e 877b 1abe 7a53 d03d
00000070: 4368 033e 16d0 3ebe da2d 6dbe 259e d3bd
00000080: 53cb 23be 392e 4a3e 044a dc3d 9d26 983e
00000090: ee96 f13d c02a d0bd 31f6 07be d3fd 2f3e
000000a0: f021 863d 88d1 bc3d 3fa7 193e ca51 3d3d
000000b0: f2c2 72bc 3683 e03d 5beb 393d e654 0f3d
000000c0: 993f f5bd 99ac 593e 37e8 92be acf1 2dbe
000000d0: 1437 41bd e399 8e3e 309d 233e 99f4 32be
000000e0: 1ad6 603e 7d66 b23e ba52 dbbc 881a 2c3e
000000f0: 816b 3cbe 572c 04bd f197 f2bd e326 aebc
00000100: 22a2 90be 2cba 353e 50a7 68bd bd56 9fbe
00000110: 4551 c03e 06b4 a2be e021 1bbf 1f1c b3bd
00000120: e793 5cbc 36c0 d0be 4245 ad3e 64d9 1bbe
00000130: 9619 a33e 526a 87bd 18c0 94bd 1914 85be
00000140: a906 26be 345f d4bd b579 09be 489f 36bf
00000150: 45fa edbd aff6 8e3d c883 8e3d 0150 f2bd
00000160: 77ce 463e 544d 003e 139a 67bd 1124 45bd
00000170: 472e 88bd 1bca d83d 566e 86be feb0 963d
00000180: 0785 24be 9115 acbd d3c3 a8bd 6da6 c4be
00000190: 5a94 ff3d 59e6 ba3d 418f ad3e 1333 dbbe
000001a0: 0ab1 b73c ce92 263e 08b5 8ebd 2640 28be
000001b0: c6d1 f4bd 28c2 a3be 0534 0dbf d773 c33c
000001c0: a414 51bd 829d f5bd 525e 5fbe 2e3f cdbd
000001d0: c5e8 62be 7e2d 25be 1752 e8be ac94 813c
000001e0: 6173 ccbe ed01 18bf 0d84 13be 4eea e3be
000001f0: ed41 4dbe 24af 3f3b 6389 3c3d 5efb 9c3e
00000200: e5a6 f2bd 6590 dfbd 9093 cbbd b92c 953b
00000210: 27da ddbe 0523 fd3a c74c 3ebd 9456 b8bd
00000220: 0549 ca3d e74a cb3e 63c9 89bd e401 7cbe
00000230: 0d16 40bf 3219 fabd 9c0b b9be f0d4 093e
00000240: d564 623e 0275 c93d 5227 243f 3942 99be
00000250: 4201 87be 9877 903e 1a0d 10be 8e8d 44be
00000260: ad33 fdbd 10fd 0fbf 5658 8b3d 802f 953d
00000270: 99cb bd3e 6692 1abe 7131 3bbd 3d4f e73d
00000280: 9648 9c3e 4d4e ab3d 7898 0cbf f392 0e3f
00000290: d051 ccbd 995b eebd e656 f33d 61c3 9cbc
000002a0: d500 d5be 1626 1a3e 516e b5be cf79 45be
000002b0: 279f d03e e3ba a03d 639d edbc 973b 073f
000002c0: 5071 5bbe 4124 b43e db78 413f 0f9e 63bd
000002d0: 97b6 4abe 4af4 733e 6161 933e b980 e4be
000002e0: 2f1b 28be c1ea 87bd 6391 ef3c 7960 09be
000002f0: 87bf b23e 452f b8bd 187b 84be 8004 1cbf
00000300: 4c38 25bd b164 d63d 601b 7c3e 9450 f4bc
00000310: a9cd 853d 4e1d bf3d 9663 50be ab16 6f3d
00000320: 97a4 1dbe 4604 abbd 8bf4 b6bd 777b 2dbe
00000330: 832e 4d3e efbe 1f3c 9ffa 6ebd 3815 1e3d
00000340: 21b9 3ebe 2ac8 a2be 26d4 f33c 546a d1be
00000350: efac f6bd 9377 a1bd 1d04 9fbe 8211 35be
00000360: 148e 853e ab8d 043a 0ae7 673d 3222 763d
00000370: 335e c1bc a61d b23d deb0 28be 369e 99bd
00000380: 8481 2dbd 7253 05bd 707f a23d 2c29 9dbe
00000390: 6365 bdbe de48 0c3e 2ddf 9a3d 44d9 6ebe
000003a0: bc7b cf3d 5ec3 053b fed9 6dbe d0a9 cdbe
000003b0: a7b9 9bbd f898 8d3d fb16 99be a586 12bd
000003c0: ee02 c93d 61db 803d 7ab9 c1be a68b 603c
000003d0: ce60 61be dbda a0be d3c3 17be 9d00 913e
000003e0: c06e 8bbd a539 19bf abc7 69bd 994a a1be
000003f0: 726a 86bd a0b1 4ebe 3561 5b3e 0809 9ebd
-0.054391116 -0.6399265 -0.106869176 0.15644954 -0.107942544 -0.052604344 0.38382348 0.07646808
-0.13910434 0.09384512 -0.123894244 0.09775081 -0.11211023 0.13715936 -0.7181942 0.2493296
-0.18983555 0.21020769 0.4411674 0.07882393 -0.016824843 -0.15083422 -0.15974681 -0.23850062
0.19828855 0.20722882 -0.15086184 0.10172172 0.12832741 -0.18634066 -0.23162022 -0.10332898
-0.15995531 0.19744195 0.10756305 0.2971696 0.11796366 -0.10164404 -0.13277508 0.1718667
0.06549442 0.092196524 0.15005206 0.04622058 -0.014816986 0.109625265 0.045390468 0.034993075
-0.11975021 0.21257247 -0.2869279 -0.16986722 -0.047171667 0.2785178 0.15977931 -0.17476119
0.21956673 0.34843817 -0.026772846 0.16806996 -0.18400384 -0.03226885 -0.11845387 -0.021258777
-0.28248698 0.177468 -0.056800187 -0.31120864 0.37562004 -0.31777972 -0.60598564 -0.08745598
-0.013462997 -0.40771645 0.33841902 -0.15219647 0.31855458 -0.06612076 -0.072632015 -0.25991896
-0.16213478 -0.10369721 -0.13425334 -0.71336794 -0.11620001 0.06980645 0.06958729 -0.11831666
0.19414698 0.12529498 -0.05654342 -0.0481301 -0.06649452 0.105854236 -0.26256055 0.07357977
-0.16066371 -0.08402551 -0.082404755 -0.38408223 0.12479468 0.091259666 0.33898357 -0.42812404
0.022423286 0.16266939 -0.06968123 -0.1643072 -0.119540736 -0.31984067 -0.551575 0.023858948
-0.051045075 -0.11992933 -0.21813324 -0.10021816 -0.22159107 -0.16130635 -0.4537513 0.015817963
-0.39931777 -0.5937794 -0.14405842 -0.44514698 -0.2004468 0.002924868 0.04602946 0.30660528
-0.11848239 -0.10916213 -0.09940255 0.0045524505 -0.433305 0.0019312805 -0.04645994 -0.090008885
0.098772086 0.39705583 -0.067278646 -0.24610096 -0.75033647 -0.12211837 -0.3614167 0.13460135
0.22108777 0.098367706 0.641225 -0.29933336 -0.26368147 0.28216243 -0.14067498 -0.19194624
-0.12363372 -0.5624552 0.06803958 0.072844505 0.37069395 -0.15094909 -0.045701448 0.112944104
0.3052413 0.08364544 -0.5492015 0.55692977 -0.09976542 -0.116385646 0.11881809 -0.019136133
-0.41602197 0.15053591 -0.35435727 -0.19284748 0.40746424 0.07848146 -0.029005712 0.528253
-0.21429944 0.3518391 0.75575036 -0.05557066 -0.19796215 0.23823658 0.28785232 -0.44629458
-0.1641662 -0.06636573 0.02924413 -0.13415708 0.3491175 -0.08993391 -0.25875163 -0.60944366
-0.040336892 0.10468424 0.24619818 -0.029823579 0.06533367 0.09331761 -0.20350489 0.058371227
-0.15394817 -0.083504245 -0.089333616 -0.1694163 0.20037274 0.009750112 -0.05834448 0.038594455
-0.18625309 -0.31793338 0.029764246 -0.40901434 -0.12044703 -0.07884135 -0.31057826 -0.1768246
0.2608496 0.00050565106 0.05661682 0.060091205 -0.023604488 0.08697061 -0.1647372 -0.075008795
-0.042359844 -0.032550283 0.07934463 -0.30695474 -0.36991414 0.13699672 0.07562099 -0.23325068
0.10131022 0.0020410637 -0.23227689 -0.4016862 -0.0760377 0.06913942 -0.29900345 -0.03577294
0.09815012 0.06291843 -0.3783682 0.01370517 -0.22009584 -0.31416973 -0.14820795 0.2832078
-0.06808233 -0.59853584 -0.057075184 -0.31502226 -0.065632716 -0.20184946 0.214238 -0.07716566
