saved_models/gin_ba_shape.model (torch, 39359 bytes, 28 tensors)

conv1.nn.0.weight f4 [32, 10]
00000000: 2cef 6a3e d13b f3bd e7e0 833e 8539 74be
00000010: e9fa d8bd 9466 383e 248b f53d 46ff 0cbe
00000020: 8fe4 c2bd 417f 93be 6f2b 0c3e 4c36 e23c
00000030: 5f11 6a3d d8fc 74bd 669f fcbd c7e3 143e
00000040: 820b aa3b f276 a8be 613f 63bd e7da 67be
00000050: 45bf b83e 0054 f43c f5db b33e 0af3 993d
00000060: 496a e8bd 15fc 0e3e f70f 0cbc d25c 8abd
00000070: 835a 003e dde3 c33d 504e 59bc e92b 8c3e
00000080: ce8d 053e e26c bebc 70d2 51be 440c 703e
00000090: 1999 75be ae61 3fbe 2fb2 d93d 5253 dabd
000000a0: 7fcf 55be 0f81 ebbd 9509 0a3e a3cf 65be
000000b0: d0aa 9abe 47be 6cbe 662d a13b 8ae3 a0be
000000c0: e57e 1cbb 7064 573d cee3 81bd 6d44 8c3e
000000d0: 74b8 893d 71b4 2bbe 1db2 14bc e5f7 b7bd
000000e0: fdf8 ba3d 74b2 0bbd b62f 7d3c 04d4 78be
000000f0: 5a47 aebd 2d6b 773e e6df 273e 007b 59be
00000100: 2b33 04bd 5daa 35be 7c52 343e be86 093e
00000110: ceed e8bc e53b 93be 8f4d 9dbe 72ed 8c3e
00000120: 0f21 163a 0971 b5bd 96fc 78be 3ace 84be
00000130: 3bce 663e 475b 82bd 8ae9 873e 82a5 2bbe
00000140: 487e b43e 98cd db3c f91d b23d dc92 af3d
00000150: 5040 913e 5ecd 7b3d 082d 0d3e a411 153e
00000160: 88a0 943d 3e2c 643d 35de 943e a807 83be
00000170: 300b 6bbe 893e 7a3e 8548 423e b0da fb3d
00000180: f84b 933e dd1f 5a3e ce91 353e 7064 2abe
00000190: 2f60 85bd f210 75be 64dc 853d c863 2a3d
000001a0: ec69 8a3e 4d8d cb3d 36af 833e 508d 7b3e
000001b0: 3fa6 273e 6f04 4f3e 938c b6be 35cc dc3d
000001c0: 121c b9bd ca37 ccbd 2fbd 58be 891e 47be
000001d0: 1af1 5f3e cba8 b5bc 4f97 3e3e a0b5 4c3e
000001e0: 11a2 11be 8d4e cfbd af30 98be 8fc2 8dbe
000001f0: b9ff a3bd 2ab6 8a3b a176 25bd b678 65be
00000200: 68e0 2b3d d536 183e 775a 523e f1eb b7bc
00000210: cc5d 47be 66de fa3d f71f 81be cc8d 5ebe
00000220: 45bb a1be 873c 9fbd 2932 3c3e bd8e 913d
00000230: f4c7 0a3d f9b8 95be c83b ca3d 1e92 6ebe
00000240: d828 39bd 1de0 81be 8323 0abd 5fbe 8bbd
00000250: 57de edbd a776 1abe a662 55bd 1b46 cb3d
00000260: a33c 913c fe68 90be dac3 e93d 6da0 fe3c
00000270: 08f8 94be 301f a4bd 5952 93be f488 82be
00000280: ca1e 3fbc 8a1a a73e 8809 e5bd 7214 0b3e
00000290: 4f44 a73c 7286 983e ce11 03bd 565f 803e
000002a0: 886c 1fbe aeb9 1a3e 81e5 21be e2e2 463c
000002b0: 9fc4 853b bb0c 11be 2aec 503e ea10 8dbd
000002c0: 7a4d 503e ced0 e73c 883e 5fbe ce28 50bd
000002d0: c8cf aebd 9fe1 7abd 0ea8 41be b108 88be
000002e0: 0f8c d93c 4442 473e 259d 44be b3c3 b0bd
000002f0: 3f63 433e d6ef 69be 6691 873e 6def 5abd
00000300: c717 2e3e e7ac 543e eaca b7bc c817 7fbe
00000310: 55fe 8e3e 93b1 75be 6e0c a8be d351 6bbe
00000320: 8c7b 9ebe 542c 9e3e bd1d fa3d e401 8fbe
00000330: db19 6f3e f6e6 00be c3f5 23be 3088 21be
00000340: 90ed 4abe 28dd 15be ba49 05bd a201 13bd
00000350: fd52 c1bd 3293 0e3e 81ed 92be dab3 9dbb
00000360: b074 73be db8b 00be 99b0 cfbd 8fe2 75be
00000370: c284 723d cc28 96be fc40 013e 270d 243e
00000380: f3d4 83be 5ee0 d5bd 9403 04be 22bd a0be
00000390: a768 82be aa91 04be 5aa6 ad3d 13f1 b93d
000003a0: a45a 5dbe 6a2e 02be a234 213e 47f4 58be
000003b0: 1d58 40be 0c7f 65bd 762a 3f3d 4aeb 423e
000003c0: 81df 8c3d 1bb8 8dbe 058d 96be aec3 b33c
000003d0: 63e4 43bd 092f 8d3e c164 47be 0353 23be
000003e0: a060 9bbe c42a 3a3d eab8 99be 91f9 b9bd
000003f0: 2176 2d3d 9c7b 83be 23ea 1e3c 741e 4d3d
0.229428 -0.118766434 0.25757524 -0.23850067 -0.10594732 0.1800788 0.119894296 -0.13769254
-0.0951625 -0.28808025 0.13688444 0.027613781 0.057145473 -0.059811443 -0.1233509 0.14540015
0.00518936 -0.32903248 -0.055480365 -0.22642098 0.36083427 0.02982521 0.3512875 0.07517059
-0.11348397 0.13963349 -0.008548728 -0.06755985 0.12534527 0.09564946 -0.0132633 0.2737725
0.13042375 -0.023245279 -0.20490432 0.23442179 -0.23984183 -0.18689606 0.10629689 -0.10660423
-0.20879935 -0.11499225 0.13480218 -0.22442488 -0.30208445 -0.2311946 0.004918742 -0.314236
-0.0023879346 0.05258602 -0.063422784 0.27395955 0.06724635 -0.16768052 -0.009075669 -0.08982829
0.09129522 -0.034105733 0.01545327 -0.24299628 -0.08509703 0.24161978 0.16394004 -0.21238327
-0.03227536 -0.1774077 0.1760959 0.13430306 -0.028433707 -0.28756633 -0.30723235 0.27524906
0.0005726972 -0.0885945 -0.24315104 -0.25938588 0.22539608 -0.06365066 0.26545364 -0.16762355
0.35252595 0.026831433 0.08697123 0.08572933 0.2836938 0.06147515 0.1378671 0.1455751
0.072571814 0.055706255 0.2907578 -0.2559178 -0.22953486 0.24437918 0.18972977 0.12297571
0.28768897 0.21301217 0.17731401 -0.16639876 -0.06512486 -0.23932245 0.06536177 0.041599065
0.27033937 0.0993906 0.25719613 0.24565625 0.16372012 0.20216535 -0.35654125 0.10781137
-0.09038557 -0.099715784 -0.21165918 -0.19445242 0.21869317 -0.022175213 0.18612407 0.1999116
-0.1422198 -0.10122404 -0.29724643 -0.276875 -0.080077596 0.0042331414 -0.040396336 -0.22409329
0.041962057 0.14864667 0.20542322 -0.022451373 -0.19469374 0.122494504 -0.252197 -0.21733779
-0.31588188 -0.077752165 0.1837851 0.07107303 0.033882096 -0.29242685 0.098746836 -0.23297927
-0.045204967 -0.25366297 -0.033725273 -0.0682342 -0.116146736 -0.15084325 -0.05209603 0.09925481
0.01772911 -0.28205103 0.11414309 0.031082356 -0.29095483 -0.08013761 -0.28773764 -0.25495112
-0.0116650555 0.32637435 -0.111834586 0.13582018 0.020418314 0.29790074 -0.0319994 0.25072736
-0.15568745 0.15109894 -0.15810205 0.012139054 0.004082277 -0.14165013 0.2040259 -0.06887992
0.20342055 0.028297808 -0.21801198 -0.050820164 -0.08535725 -0.061250325 -0.18911764 -0.2656913
0.026556043 0.19458872 -0.19200571 -0.08631077 0.19080828 -0.22845396 0.26478118 -0.05345099
0.17001258 0.20769082 -0.022435624 -0.24911416 0.27928415 -0.2399352 -0.32821983 -0.22980432
-0.30953634 0.30893195 0.122127034 -0.2793113 0.23349707 -0.12588105 -0.1601172 -0.15774608
-0.19817185 -0.14635146 -0.032541014 -0.03589023 -0.09439657 0.13923338 -0.28696826 -0.0048126997
-0.23774981 -0.1255335 -0.10141105 -0.24012206 0.05920864 -0.29328 0.12622446 0.16020642
-0.25748405 -0.10443185 -0.1289199 -0.31394297 -0.25470468 -0.12946191 0.08478995 0.090791844
-0.21616608 -0.12713018 0.15742734 -0.21186934 -0.18783613 -0.056029364 0.046671353 0.19035068
0.068785675 -0.27679524 -0.29404464 0.021943893 -0.04782523 0.27574947 -0.19472028 -0.15949635
-0.30347157 0.04545094 -0.3002389 -0.09080804 0.042348985 -0.25680244 0.009699377 0.05007787

conv1.nn.0.bias f4 [32]
00000000: bfec 9ebe 4742 e6ba 4f56 9a3c f2af 40be
00000010: c63b 9dbe 9a26 443d e823 74be db3e 7cbe
00000020: 95f2 2fbe 2c1f 4fbe 4d95 38be 5891 abbe
00000030: 7987 66be 2041 653e d901 8b3e 668d 843e
00000040: 5ea7 37be 2d46 e0bd 2611 89be a6c7 87bd
00000050: 69e1 aebd 0186 bb3d 8af0 14be 7331 97be
00000060: 3f95 923d 4c76 a3bd ff01 7c3e 0980 ccbd
00000070: c8c9 d93d 5794 a0be 9d65 b23d ddff 79bd
-0.31039998 -0.001756736 0.018839983 -0.18817118 -0.30709666 0.047888376 -0.23841822 -0.24633352
-0.17182381 -0.20226735 -0.18025704 -0.33509326 -0.22512616 0.22388124 0.27149847 0.25889128
-0.1793494 -0.10950885 -0.26770896 -0.06629877 -0.08539087 0.091564186 -0.14544883 -0.29529914
0.07157373 -0.07981548 0.24610136 -0.09985358 0.1063419 -0.31363174 0.087107874 -0.061035026

conv1.nn.2.weight f4 [32, 32]
00000000: aaf2 9f3d 369a 96bd 3dc9 393c 4ae8 f7bd
00000010: 10ed 8ebd 792b 81bd 8910 55bd ef1c 05bd
00000020: 4636 b03c 4ba7 22be b25d 6f3d cc40 f03d
00000030: e78e 703d 4282 2d3e 6a26 dfbd 7939 d33d
00000040: 856e bfbd 3d06 6abc ab2a 5b3d d8c9 34be
00000050: 154d 553d 3b5a 093d b28d ad3d 73f2 63bd
00000060: 05db 063e 8bb1 193b 14d4 253e a0ef 97bd
00000070: 14e3 073e 671a f53c 9ee3 81bd 0c5b 73bd
00000080: 768a 11be f2d0 d33d 253f 2abd 4d17 f23d
00000090: d63d dbbd d891 9d3c 8e85 fabd a542 1c3e
000000a0: 7771 d73c 2b29 ddbb 5dd6 023e 2f4d 17bd
000000b0: f82f e03c 8288 1fbe c7bd b1bd 73f9 113e
000000c0: 4f2a 50bd 9ee4 13bb 3e74 a2bd 34dd 63bd
000000d0: 63d9 e43b 77b7 ed3d cff2 29be 8a08 b13d
000000e0: 8b49 453d e592 d53d 6877 f93b 6daf 1a3e
000000f0: 0110 283e 9b56 debd b60d 203e d70c e63d
00000100: 299a ee3d 82bc c63d c704 2c3d 46b7 393d
00000110: c658 9abb 1449 1f3b 3675 62bb b0a6 2f3d
00000120: f26a cf3c 50f5 b03d 11a2 8e3c 0259 28be
00000130: cf2e 94bd 8c9f 38bd 5bf3 09be c836 edbd
00000140: 56b3 183b 1ed7 4e3d fe39 1a3d e00b c4bc
00000150: 7e7b 7e3d e0c1 2c3e 1bfa 133e 1b67 743c
00000160: 2cc9 0dbe e036 853d d87a a5bd 8804 f4bd
00000170: 993b a83d 3a60 25bd 7809 16be 21d9 18be
00000180: 2e41 343e bb83 b2bd 2ad8 a8bb 054b b93b
00000190: e785 f93a f749 09be d2c6 27be b6d7 a23d
000001a0: 1cb9 6fbd 936f 2d3e 4428 dabd 8313 533e
000001b0: f3d2 d93d b1a9 bcbb dda7 ed3d ea79 5ebc
000001c0: 6f74 8dbd 8b55 babd 40b2 31be d2aa 6a3c
000001d0: 693e 2b3d aeb3 fb3c 2668 453d 147d 963d
000001e0: eea6 f03d 708d 283e 5536 cfbd 2600 533e
000001f0: 1480 5abd 2099 e53d e1ad ecbd 2918 cd3d
00000200: c2fe e3bc eb6d 0cbe c1c1 cbbd 8569 1fbe
00000210: 8175 08be 1a81 2b3e 20d5 573d 03e1 5bbd
00000220: 12ff b5bd ed69 ea3d a2da be3c 2a05 0c3e
00000230: 3a8a 0dbe f2d7 24be 0705 37bd ab62 243e
00000240: 46ed 373e d7ae 01bc f3c7 1bbe ed3f a73d
00000250: d080 873d 8468 003e 9855 113d 80bc dd3d
00000260: f4e6 133e ecf3 77bd 8aa7 56bc fc73 4d3e
00000270: d510 e0bd c223 1dbe acef ffbd 3d87 3a3d
00000280: 6a1f fe3b d6ee 8fbd 642a 7b3d 0a89 c53d
00000290: c417 c83d 8d10 f0bc 2f69 5f3d 735d e5bd
000002a0: c67c 15be 79a1 443d fd10 cbbc 94ab d8bd
000002b0: 6a13 fa3c 3d9b 3cbd 08d8 ca3d 520a 23be
000002c0: 8878 5c3d ae96 cabd d215 933d c22d debd
000002d0: 0eba 033e 6bd5 84bd c7cc ebbc 8d13 14bc
000002e0: b5a8 003e 0741 2ebe 3f33 993d 1f26 8c3d
000002f0: 03e4 153d e120 1cbd 7a4d 8abd fcd8 25be
00000300: 9ce0 583a 8669 12be 6d25 083e 722b 28bd
00000310: 7b57 1cbc 751b e93d 132a 013e 2cd6 a93d
00000320: b1b2 04be 76ed ddbc 0020 e8bd bf66 e33d
00000330: 9ac0 a83c 6f96 d93d e640 783d 0645 323e
00000340: 4850 b73d c13a 0dbe 1fcc 59bd 35ec a8bc
00000350: bd78 bdbd e12b 103c 2aae 2abe 711e dabd
00000360: 3de6 213e 82f9 a0bd a743 183e ed9b ddbd
00000370: 4eb0 163e 0935 f63d 8bf7 f8bd c004 34be
00000380: 9ecc ec3d 2f83 18be 20c9 afbd d40e bb3d
00000390: eb75 83bd 77ad 2a3e f1e6 b03d 764e 0b3e
000003a0: a97b 32be be65 2bbe 50e1 e3bd a24f 13be
000003b0: f0a7 a0bc a318 8f3c 0f58 283e b917 16be
000003c0: 473f bdbd eb8d 303e 5be0 17bd b83d 1b3d
000003d0: 4665 2f3e 2fd8 24be b28b eabd 8f36 0cbe
000003e0: 1c98 82bd 9c31 8f3c 041b a63d 91c5 68bd
000003f0: ab9a c63d 877b 8abd a61e df3d 53cf 403c
0.07809956 -0.07353632 0.011339483 -0.121048525 -0.0697881 -0.0630712 -0.052017722 -0.032498296
0.021510255 -0.1588413 0.058438964 0.11731109 0.058730032 0.1694422 -0.10895999 0.103136964
-0.09347252 -0.014283714 0.05350749 -0.17655122 0.052075464 0.033533316 0.08474292 -0.05565114
0.13169487 0.002345177 0.16194183 -0.07418752 0.13270217 0.029919816 -0.06342243 -0.059413
-0.14212975 0.103425875 -0.041564126 0.118208505 -0.10705154 0.019234583 -0.12232505 0.15259798
0.026299221 -0.0067492924 0.12777086 -0.036938842 0.027366623 -0.15579417 -0.08678775 0.14255314
-0.0508216 -0.0022566686 -0.07932328 -0.055630878 0.0069839223 0.11607259 -0.1659653 0.08644207
0.04816584 0.104284085 0.0076131113 0.15105982 0.16412355 -0.108563624 0.1563023 0.11232918
0.116504975 0.09703924 0.041996744 0.0453408 -0.0047102896 0.0024305033 -0.0034554726 0.042883575
0.02531955 0.0864054 0.017411264 -0.16440204 -0.072354905 -0.04507403 -0.13471739 -0.11582714
0.0023300252 0.05049812 0.037652962 -0.023931444 0.06212949 0.16870832 0.14450876 0.01491716
-0.13846272 0.06504607 -0.08080071 -0.11914927 0.08214492 -0.040374972 -0.1465205 -0.14926578
0.17602989 -0.08716532 -0.005152722 0.005654695 0.0019037098 -0.13407122 -0.16384438 0.079513
-0.058526143 0.16937093 -0.10652211 0.20612912 0.106359385 -0.0057575335 0.11604283 -0.013578871
-0.069069736 -0.09098347 -0.17353153 0.014322953 0.041807566 0.030725326 0.048195027 0.073480755
0.11750589 0.16460204 -0.10117785 0.20605525 -0.0533448 0.11210847 -0.11556602 0.10014374
-0.027831439 -0.13713805 -0.09949065 -0.15567596 -0.13326074 0.16748467 0.052693486 -0.053681385
-0.088865414 0.11445985 0.023297612 0.13673845 -0.1382226 -0.16098002 -0.04468253 0.16053264
0.17961606 -0.00791522 -0.15212993 0.0816649 0.06616366 0.1253987 0.03548202 0.10826969
0.1444357 -0.060535356 -0.013101468 0.20063776 -0.109407105 -0.15345672 -0.12496886 0.04553913
0.0077552097 -0.07027976 0.061319724 0.09645279 0.09770158 -0.029304767 0.05454367 -0.11199465
-0.14598379 0.048005555 -0.024788374 -0.10579601 0.030526835 -0.046046484 0.09904486 -0.15921906
0.053825885 -0.09892021 0.07181896 -0.10848571 0.12863943 -0.06486019 -0.028784169 -0.009037864
0.12564357 -0.17016993 0.074804775 0.068432085 0.036594402 -0.038117293 -0.06753059 -0.16196054
0.00082732155 -0.14298066 0.13295527 -0.041057058 -0.009542341 0.1138219 0.12613706 0.08292803
-0.1295879 -0.02709077 -0.113342285 0.11103582 0.020599652 0.10624396 0.060608767 0.17409143
0.08950859 -0.13791944 -0.05317318 -0.020620445 -0.092515446 0.008799524 -0.16668001 -0.106503375
0.15810485 -0.0786009 0.14869557 -0.10820756 0.14715692 0.120218344 -0.1215659 -0.17579937
0.11562465 -0.14893793 -0.085832834 0.091336876 -0.064189754 0.16667734 0.086377986 0.13604149
-0.17429985 -0.1673803 -0.11126959 -0.14385846 -0.019611329 0.017467802 0.16439842 -0.14657487
-0.09240585 0.17241637 -0.037079196 0.037900656 0.17128477 -0.16098092 -0.11452426 -0.13692687
-0.06376669 0.01747971 0.081106216 -0.05682904 0.09697469 -0.06761842 0.108945176 0.01176818

conv1.nn.2.bias f4 [32]
00000000: 694a 053c cd30 cc3c f22d e0bd d196 42bd
00000010: b644 d73b aec1 f2bd 05ae e8bd 1b29 8abd
00000020: 3ea5 d3bd 635e 31be 9be7 8e3d 4f1f afbd
00000030: bc69 e93d 5f93 53be de29 71bd 3b6a 183d
00000040: c7fe 353d ef9a 4f3d 6a88 cd3d b24f 2c3d
00000050: 6e39 5b3d 673a 5f3d e71d 2bbe ade6 89be
00000060: b8ad 303e 47ff dbbd d7f7 3abe da82 6cbd
00000070: 6572 a73d 8f92 163e 469e 23bd e85c d1bd
0.008135417 0.024925614 -0.109462634 -0.04750711 0.0065694703 -0.11853348 -0.113613166 -0.067461215
-0.10334252 -0.17321162 0.06977769 -0.085508935 0.1139712 -0.20661686 -0.05887782 0.037210684
0.044432428 0.050684866 0.100357845 0.04206819 0.053521566 0.054499056 -0.16710626 -0.26933804
0.17253768 -0.1074205 -0.18258606 -0.057741977 0.08176116 0.14704345 -0.039945863 -0.102227986

conv1.nn.4.weight f4 [32]
00000000: 0000 803f 83b6 593f 0000 803f e2b9 663f
00000010: ebb0 7b3f 0000 803f bee4 783f 0000 803f
00000020: b5de 743f 0000 803f a29c 8a3f 0000 803f
00000030: c4e1 4f3f 5208 803f 0000 803f 5bc5 7c3f
00000040: 9e0a 7b3f 2e96 653f 9ae3 6e3f 1b02 6e3f
00000050: 9187 833f 0000 803f c325 793f 3567 783f
00000060: 0000 803f 6d93 793f 554d 823f e399 6d3f
00000070: 2ca2 8b3f 2155 6a3f 56f7 7c3f c8bb 643f
1.0 0.85044116 1.0 0.90127385 0.9831683 1.0 0.9722403 1.0
0.95652324 1.0 1.082905 1.0 0.81203866 1.0002539 1.0 0.9873864
0.98063076 0.8968228 0.9331604 0.9297196 1.0275747 1.0 0.97323245 0.9703248
1.0 0.9749058 1.017985 0.9281294 1.0908866 0.91536146 0.98814905 0.8934903

conv1.nn.4.bias f4 [32]
00000000: 7137 153e c492 3a3d fcb9 f7bd 49f9 973c
00000010: 362e 18be deb8 ca3d 9d6f f63d 3abf 3fbd
00000020: 006a 1f3e 3a21 863d 1840 cd3c 9734 083e
00000030: a87a 14bd cd4f 833d 1bc1 44bd 576b 0d3e
00000040: 1a40 593e 14d8 bd3d c772 00bd b2d2 ec3d
00000050: d3ca 24bd f50c 9e3c 01ad 093d cb53 c83c
00000060: bddd 14bd fb7b e13d 35de c93d dc48 5fbd
00000070: b0cc bcbc 7608 b4bc 2d75 cb3d c14b 84bd
0.1457193 0.045550123 -0.120960206 0.018551486 -0.14861378 0.09898542 0.12033007 -0.046813227
0.1556778 0.06549306 0.025054976 0.13301311 -0.036249787 0.06411705 -0.048035722 0.13810478
0.21215859 0.09269729 -0.03135946 0.115636244 -0.04023249 0.019293288 0.033612255 0.024454018
-0.03634428 0.110099755 0.09856836 -0.054512843 -0.023046821 -0.02197669 0.09934459 -0.064597614

conv1.nn.4.running_mean f4 [32]
00000000: 0000 0000 4e5a 6d40 0000 0000 0c13 4040
00000010: 0cdf 6540 0000 0000 b425 5522 0000 0000
00000020: 159b df39 0000 0000 1773 0540 0000 0000
00000030: 0abd d840 d59d 0f28 0000 0000 a1dd 8028
00000040: 1f46 8c40 5bda a439 9ebb f932 1eef 0934
00000050: c3db 3140 0000 0000 f18d d33f 874b 4839
00000060: 0000 0000 9660 df34 31db 8340 cb58 3b35
00000070: 4265 7c40 59f5 2640 7f85 6e39 fd89 cd40
0.0 3.7086368 0.0 3.0011625 3.5917387 0.0 2.8886843e-18 0.0
0.0004264942 0.0 2.0851495 0.0 6.773076 7.972319e-15 0.0 1.4306971e-14
4.3835597 0.00031443205 2.9072734e-08 1.284611e-07 2.7790382 0.0 1.6527692 0.00019101622
0.0 4.1607262e-07 4.120507 6.979214e-07 3.9436803 2.6087248 0.0002274718 6.4230943

conv1.nn.4.running_var f4 [32]
00000000: 0a9d 192b 90af 4141 0a9d 192b b091 0341
00000010: 4ba8 3a41 0a9d 192b 0a9d 192b 0a9d 192b
00000020: 78ba 7d3a 0a9d 192b baf7 6d40 0a9d 192b
00000030: 584b 2142 58c0 1a2b 0a9d 192b 0add 192b
00000040: dbcb 8b41 6fa5 1b3a 0e2f e22e 97ca 2f2f
00000050: 6a7d d940 0a9d 192b 4fac 4040 1d77 0339
00000060: 0a9d 192b dad0 1232 58f7 8441 76bf 5730
00000070: f35f 5641 a524 b140 822c eb39 6c25 1942
5.4574455e-13 12.105362 5.4574455e-13 8.223068 11.666087 5.4574455e-13 5.4574455e-13 5.4574455e-13
0.000967897 5.4574455e-13 3.718245 5.4574455e-13 40.323578 5.497872e-13 5.4574455e-13 5.466327e-13
17.474539 0.0005937432 1.0285649e-10 1.5988132e-10 6.7965593 5.4574455e-13 3.010517 0.00012537507
5.4574455e-13 8.545806e-09 16.620773 7.8488627e-10 13.398425 5.535723 0.00044855854 38.286545

convs.0.nn.0.weight f4 [32, 32]
00000000: 4696 fabd e06f f53c ed2b 203e 8b31 12be
00000010: 40bb 70bc 6aa5 1bbd 5532 40bd f0ff a53e
00000020: cf2a a8bd b83b 44bd 0016 91bb 3d7a 79be
00000030: 5794 303d f78e 93bd 4cf9 b73d 1619 71bd
00000040: 0aa9 7abe fd8c 30be 1bff c93d 4885 96bd
00000050: 77bc 323d 1b67 ea3d f4a7 61be f6f5 8dbd
00000060: 9274 773d 28d8 83be 72e3 b5bd 9970 e73c
00000070: 58cc 1d3e 17b1 5dbc 720e 8d3c 770e 0fbe
00000080: d1a4 52bd 7b1c 66bc cd76 913e 36b1 7dbd
00000090: edc3 493e dbe9 38be 216f 97be 1378 ee3d
000000a0: 390b a2bd bebb 513d 49c1 69bc 01c3 15be
000000b0: 5698 8a3d 68e3 f73d badd 643c b5fc 8dbe
000000c0: 91d4 0bbe e60a ab3c a98f f93d c83a d7be
000000d0: 28c6 4b3e 49a1 633e 2b65 bb3d ed0b 9f3d
000000e0: 41b0 213e f074 33bd c074 dcbd 31fb c63d
000000f0: 17ec 95be 6fd2 5e3d f09a b63c 3914 dd3d
00000100: c975 efbb 0557 a83c fe5d 803d 90de 7dbd
00000110: 0d8e 42be 60f1 57be c550 013e 3d00 8e3d
00000120: b0cc 65bd 3880 dcbc 1219 5c3d 7133 6bbe
00000130: ba8c 8bbd c47c 2e3e ef4f 49bd d2e4 183e
00000140: 1516 21bd a0f9 c8bd 1628 2ebd 9240 b43c
00000150: 337a 93bd 5545 123e a0c6 143d c35d 183e
00000160: 1223 2e3d 7301 803d 7863 353d c5a3 673e
00000170: a251 653c f654 a93e 1035 1bbd 7d9a 423d
00000180: 898a 8e3d 20e0 413e 2931 373e 9bc4 5a3c
00000190: dda0 f73d 9cfa 72bd dfb5 88bd 06de f63d
000001a0: 23c6 273e 4ec8 a53d 9827 c43d ebb4 2c3e
000001b0: a0c7 0a3e 5882 15be e19d 903c d967 6ebe
000001c0: 82b7 1e3e 9998 813d 396a d53c acf5 36bc
000001d0: 10ed 453d 2797 ce3d d392 743e d098 01bc
000001e0: f94d 2abd b486 54be 039b 883d 55a2 3dbd
000001f0: 21d6 09be a1c5 4b3d 8cd4 ff3d 1971 03bd
00000200: 994f 69bd 99ad 103e 73bb f9bd 93c2 3a3e
00000210: 92b8 333c 4a8e 49bd 9292 8f3c 50c7 2ebe
00000220: 5b60 ad3c 3ff2 95bc 21d9 8d3e c403 6e3d
00000230: 2f85 abbc 77a0 d5bc a2ff 0d3e a062 88bc
00000240: a245 963d 1fa3 7cbd e089 423e cecb babc
00000250: 7829 883e 37f7 52be ecf0 7f3e e249 803a
00000260: 99a1 49be 2940 c23d ad22 0f3e 2b6f 7ebe
00000270: 5441 363d 78b5 56be 3929 1e3e 7c06 05bd
00000280: bf2d 3abe 653d f8bc 0a06 a43e 58c1 c5bd
00000290: e4b6 b9bd 1d84 74be c6d9 26be 6d47 573e
000002a0: ba3c efbd d712 29be aee8 a5bd 1b01 9fbd
000002b0: 9f94 f9bd e434 b9bd bd7c 65bd 397e 83be
000002c0: 3477 abbd 9b41 40be a394 193d d54d 98be
000002d0: 4e42 103b 1a14 993d e778 12be 29d6 de3d
000002e0: a24d 8e3e 039f c7bd 278f 3fbd 6128 5f3c
000002f0: 2018 08be 8802 583d 34d9 0fbe b782 743e
00000300: f477 b03d 1d19 a63d 5e0d 2e3d 1e01 603d
00000310: ed92 833d 7e7a 8bbd 207f 17be c7b3 223e
00000320: 4239 7ebd 7d2a 103d 0d4e 093e ba86 33be
00000330: 52e4 d83d 0417 b23d 31fa 2dbe c9ab e63d
00000340: e985 063e f987 8a3c 23a5 3abe 9b00 9ebc
00000350: 49dd 193e 3524 f3bc 234d a93c 8397 983d
00000360: ed56 153d 4be7 d9bd 15a0 933d 6d77 68bd
00000370: 2ae9 44be bda9 d0bd d71d 33be 0a94 003e
00000380: 002b b3bb 6ee3 4abd c198 d5bd 3e9a f4bc
00000390: 9b62 f8bd c112 94bc c8cb 8b3c 5d87 753d
000003a0: 2703 bfbc 7830 a73d 2626 73bd 2833 c63d
000003b0: 95ae d13d a714 9d3d fdac 0dbe fd7b 1f3d
000003c0: 0fc9 29be 9414 f43d 88c0 24bd 2650 7ebd
000003d0: 776a 07be 1965 2cbe ef93 43be 0c80 e53d
000003e0: af35 14be 1188 9b3d 82c9 453c c77d d0bd
000003f0: af88 9a3e 3f17 2c3e 0285 a83d ab3f 0fbe
-0.12235694 0.029960573 0.15641756 -0.14276712 -0.014693081 -0.037999548 -0.046923 0.32421827
-0.0821129 -0.047908515 -0.0044276714 -0.24363036 0.043110218 -0.07205003 0.089830965 -0.058861814
-0.24478546 -0.17241283 0.09863111 -0.0734964 0.043636765 0.11445447 -0.22036725 -0.06931679
0.060413904 -0.25750852 -0.088812724 0.028251933 0.15409982 -0.013530991 0.017218802 -0.13970362
-0.051426712 -0.014044876 0.2841095 -0.06193658 0.19703646 -0.18057959 -0.29576972 0.11643996
-0.07912297 0.051204436 -0.014267274 -0.1462517 0.06767337 0.12103921 0.013968879 -0.27731863
-0.13655306 0.02087922 0.12185604 -0.42037034 0.1989981 0.22229494 0.09150156 0.077659465
0.15789892 -0.043812692 -0.10764456 0.0971588 -0.29281685 0.054399904 0.022290677 0.10794873
-0.0073077423 0.020549307 0.062679276 -0.06197983 -0.189995 -0.21088171 0.12628467 0.06933639
-0.05610341 -0.026916608 0.053734846 -0.22968842 -0.06813951 0.17039782 -0.049148496 0.14931038
-0.0393277 -0.09813237 -0.042518698 0.022003446 -0.07201042 0.1428426 0.036322236 0.14879517
0.042513914 0.062502764 0.044284314 0.22621067 0.013996514 0.33072633 -0.0378924 0.047510613
0.06960017 0.18933153 0.17889847 0.013352538 0.12091229 -0.05932103 -0.06675314 0.12054066
0.16384177 0.08094846 0.095778644 0.1686589 0.13552713 -0.14600503 0.017653408 -0.23281802
0.1549969 0.06327934 0.026051627 -0.011166971 0.048321784 0.10087424 0.23884134 -0.0079099685
-0.041578267 -0.2075451 0.06670191 -0.04629739 -0.1346059 0.04974902 0.12491712 -0.03209028
-0.056960676 0.14128722 -0.12193956 0.18238287 0.010969298 -0.049207963 0.017525945 -0.17068219
0.02116411 -0.018303989 0.2770472 0.05810906 -0.02093753 -0.026077492 0.13867047 -0.01664859
0.073375 -0.061679002 0.18997908 -0.02280226 0.26594138 -0.20602117 0.24994248 0.0009787644
-0.19690551 0.09484894 0.13978072 -0.24847095 0.044495896 -0.20967662 0.15445413 -0.032476887
-0.18181513 -0.030302713 0.32035857 -0.09656018 -0.09068087 -0.23878522 -0.16294011 0.2102334
-0.116815045 -0.16511093 -0.08101021 -0.07763883 -0.1218655 -0.09043291 -0.056027163 -0.25682238
-0.083723456 -0.18775027 0.037495267 -0.2974688 0.0022012177 0.07474537 -0.14303933 0.108806916
0.27793604 -0.09747126 -0.04676738 0.013620467 -0.13290453 0.05273679 -0.140477 0.23877989
0.08616629 0.08110259 0.042493217 0.054688565 0.06424508 -0.06810473 -0.14794588 0.15888892
-0.062066324 0.03519677 0.1340868 -0.17531863 0.10590424 0.08695796 -0.16989972 0.11263234
0.1313702 0.01691054 -0.18227057 -0.019287398 0.1502582 -0.02968035 0.020666664 0.074507736
0.036459852 -0.10639819 0.072082676 -0.05675452 -0.1922957 -0.10188625 -0.17491852 0.12556472
-0.0054677725 -0.0495333 -0.10429526 -0.029858705 -0.121281825 -0.018075349 0.017064944 0.059943546
-0.023316933 0.081635416 -0.059362553 0.09677726 0.10238377 0.07669955 -0.13835521 0.038936604
-0.16580604 0.119179875 -0.040222675 -0.062088154 -0.13224207 -0.1683544 -0.19099401 0.11206064
-0.14473604 0.07594312 0.012071969 -0.1018024 0.30182406 0.16805743 0.08228494 -0.13989131

convs.0.nn.0.bias f4 [32]
00000000: b925 da3c 8481 63be 053f cc3a 65ff 13be
00000010: 62c4 193c 3106 603e 1f79 ecbd 91e8 edbd
00000020: db35 0abd aeba aa3c d4f0 313e 2b84 89bd
00000030: c4fe 393d 18b1 033b ee33 ed3d a5f3 8dbe
00000040: cbd7 12be 03bf 10be fe1e 64be d24f 1cbe
00000050: 4f7a 36be c474 983d 6c8a 113d 15ee 0c3e
00000060: 308c 81bd 4b34 813c 629b 983d ba31 183e
00000070: 908e bdbd 6509 4b3e 06ac 57be 6972 25bd
0.026629316 -0.22217375 0.0015582746 -0.14452894 0.0093852 0.21877362 -0.115465395 -0.11616624
-0.033742767 0.020840969 0.17377025 -0.06714662 0.04540898 0.002009457 0.115821704 -0.2772495
-0.14340131 -0.14135365 -0.22277448 -0.15264824 -0.17820095 0.07444146 0.0355324 0.13762696
-0.06325567 0.015772006 0.07451512 0.14862719 -0.09255707 0.19827802 -0.21061715 -0.040392313

convs.0.nn.2.weight f4 [32, 32]
00000000: 2223 57bb 2832 8a3d 885d 07bd 1094 edbd
00000010: 1203 06be af73 a1bd cc65 21be 211f eabc
00000020: 5cba 52be 916e d0bd 35c0 1b3d a482 c03d
00000030: 8571 dd3d 6362 13be 9008 2abd f56b 743d
00000040: f153 e93d de0b 1ebe 4c12 11bc 0625 073e
00000050: 2b44 ba3d 39f8 a7bc 4cd5 403d 69d7 7bbe
00000060: 0a8b f8bd ded9 61bd d7ad 043e aa1e 9bbd
00000070: e0c6 d43d da60 21be 0968 113d a486 38bd
00000080: bea4 b13c b2b2 99bd e362 b1bd 83b4 d53d
00000090: 76bc ae3c 2d6a 6cbe a863 c13d 37a6 043e
000000a0: d23a d93d 2b22 c23d 8eff c33b 7aff 063e
000000b0: 1dd3 17be 83a7 9d3d 59e6 fb3d 2bd1 6c3e
000000c0: a194 b5bc d5c0 e43c f5ce ac3d 6748 a0bc
000000d0: 9017 37be c0fa 933d a83b c23b 8c8a 853e
000000e0: 8ecf b4bd 11ea af3b 7fbf af3c 7b2b 723e
000000f0: e653 3f3e f22a b93b 01b6 aebd 7915 a33d
00000100: 8cce d93d 613c 103d 8803 5dbe 934d 623d
00000110: 9076 61be 1c85 0a3e d6f8 cbbd 2281 27bd
00000120: 8430 cf3c 0f17 ccbd ae60 f03d 8c1e 31bd
00000130: 6cbf 533d 711a 0dbe 4068 7ebd aec5 15be
00000140: a2a7 bc3c 9443 00be 2427 223e bc5f 8cbd
00000150: 2a09 1e3d 09a0 9dbd e2bd 623c 54c8 02bd
00000160: 52e4 4bbd 87aa b03d 8fa8 cfbd 5c03 00be
00000170: 3245 d43c 3da5 103b 0c23 52bd 4134 f13d
00000180: 29e4 a13c 076d 4abe 1862 323d 68db 303e
00000190: 5d27 bd3d 923a 9ebc c2d5 923d 0cc5 c2bd
000001a0: 348d ca3b 0292 3cbe 920c 0c3d 9770 3a3e
000001b0: e2ee f1bd 9b52 063e 38b0 323b cc05 17bd
000001c0: aa6a 253e 33c0 d33c 1bf8 c8bd a399 073e
000001d0: dd3b 173d c85d afbd 1bf8 373e 9043 9d3d
000001e0: 038b fbbd c1b4 d3bd 7aec 113b 1662 b8bd
000001f0: fdcb 033e 78cd d1bb b953 603e 3dfc 5e3e
00000200: adad ac3d 138a 943c a339 ae3b 6873 afbc
00000210: 8024 d1bc 8a19 673d 55fb 76be 02f8 30be
00000220: 13dc 593e 181e 893d c336 e73d 6af0 853d
00000230: 327a 583e ddec 503d c9e2 2cbe ccec 87be
00000240: 1e8b b13e 0b35 d1bd e5d0 223d ad1b 19be
00000250: 0e06 81bc a843 c53c 2d46 193d f170 833e
00000260: 045a 3b3d c12a de3d 33ab 103e 9409 97be
00000270: c5dc 3e3e 4d9c 9abd 1ab3 54be 42f4 713d
00000280: 5feb 693e 7869 a53d 6652 843e 7d95 40be
00000290: b39c 89bd 5526 bb3d 8466 f2bc 0f41 d6bd
000002a0: f147 0cbe a020 7b3e 4331 98bc e6fd a6bd
000002b0: b6d0 773d 485f 283e 4f76 1c3e a06b 8239
000002c0: 52f5 9bbd 9728 7bbd 0c99 32bc 6fe0 9b3b
000002d0: a30d bb3d 0352 53bd 7f2b 85bd 012d dcbd
000002e0: 5741 46bc c61c 273e a489 e2bc 7485 353e
000002f0: e092 1ebc fec3 8d3e 7c13 0c3d b5e5 a8bd
00000300: 51f2 57be 49b4 29be e6dc ce3d 2850 12be
00000310: 1ef5 43be 29e5 c3bd b7bc 20be 610d 1dbe
00000320: d1ac 0ebe b481 dd3d 3e63 2abe 787a dabc
00000330: bd3e 273c e808 043e c3dc 6c3d b72d 483e
00000340: a3af a03d 7d95 c13d b1ef e83c 0518 583d
00000350: 5589 79ba c4ad a13d 94a7 4fbe 5f74 69be
00000360: 7dcc e2bd 5ebb fbbd a032 833e 137e 263e
00000370: 1dfa cabd 18ac af3d 4c8e 01be cb12 87bd
00000380: a618 493e b869 44bc 84e1 6c3d 1a92 bfbd
00000390: 9603 c4bd ce74 f63d 5902 bbbd 1be8 c5bd
000003a0: 5317 e33d d14d a43a 37dc a83b 2f7a cf3d
000003b0: 1259 523e 087e 4b3d 5a46 aebd f5f1 203e
000003c0: 61b2 4f3e 7372 b6bd 232f debd 4dbd f6bd
000003d0: 500a 19be 7ca1 87bd 6fe0 333d 5155 66be
000003e0: c57a 38bd cacd 57bd 1e0b 943e 34a6 ce3d
000003f0: 94b2 913d 28f3 82bd b2e4 ff3d 8947 e63d
-0.0032827337 0.06747848 -0.033048183 -0.11600506 -0.13087109 -0.07883393 -0.15761489 -0.028579297
-0.20578903 -0.10177339 0.0380251 0.09399918 0.10812668 -0.14393 -0.041512072 0.05967327
0.11392964 -0.15434214 -0.00885446 0.13197717 0.09095033 -0.020504104 0.047078416 -0.24593891
-0.121358946 -0.055139415 0.1295694 -0.07574208 0.10389495 -0.15759602 0.035499606 -0.04505028
0.021685 -0.075047866 -0.08661439 0.104348205 0.0213301 -0.23087378 0.09442836 0.12954031
0.10606922 0.09479173 0.005981392 0.13183394 -0.14826627 0.07697966 0.12299795 0.23126666
-0.022165598 0.02792398 0.084379114 -0.019565774 -0.17880082 0.07225561 0.0059275217 0.26082265
-0.088286504 0.005368479 0.021453617 0.23649399 0.18684348 0.0056508714 -0.08530808 0.0796308
0.10635099 0.03521383 -0.21583378 0.05524976 -0.22017884 0.1352734 -0.09959571 -0.040894635
0.025291689 -0.099653356 0.1173719 -0.043242022 0.051696226 -0.13779618 -0.06211114 -0.1462619
0.023029152 -0.12525779 0.15835243 -0.068541974 0.03858296 -0.0769654 0.013839217 -0.03192933
-0.04977829 0.086262755 -0.10139572 -0.12501281 0.025911901 0.0022071146 -0.051302955 0.11777545
0.019762116 -0.19768153 0.04355058 0.17271197 0.092360236 -0.019315038 0.07169677 -0.0951024
0.0061813835 -0.18415073 0.034191675 0.18207012 -0.118131414 0.13117449 0.002726568 -0.036870763
0.1615397 0.025848484 -0.09812947 0.13242202 0.036922324 -0.08562809 0.17965738 0.07678902
-0.12282374 -0.103372104 0.0022266195 -0.090030834 0.12870784 -0.0064026676 0.21906938 0.21775909
0.084315635 0.018132245 0.0053169294 -0.021417335 -0.0255301 0.05642084 -0.24119313 -0.17282107
0.21275358 0.06695193 0.11289742 0.06539996 0.21140364 0.05100714 -0.16883387 -0.2654785
0.3467645 -0.10215195 0.03975 -0.14951964 -0.015749957 0.024080113 0.03742044 0.25672105
0.045740142 0.108479984 0.14127807 -0.29499495 0.18638904 -0.07549343 -0.20771447 0.059070833
0.22843693 0.08076757 0.25844115 -0.18807025 -0.06719341 0.09138171 -0.029589899 -0.10461628
-0.13699318 0.24524164 -0.018578177 -0.08153896 0.060501777 0.16442597 0.15279506 0.0002487572
-0.076151505 -0.061318006 -0.010900747 0.004756979 0.091334604 -0.051591884 -0.06502437 -0.10750771
-0.012100539 0.1631957 -0.027653523 0.1772669 -0.009678572 0.27688593 0.03419827 -0.08246938
-0.2108853 -0.1657268 0.10100727 -0.1428839 -0.19136474 -0.09565193 -0.15696989 -0.15337135
-0.13933112 0.108157545 -0.1663942 -0.026669726 0.010207829 0.12894022 0.057827722 0.19548689
0.07846 0.09452341 0.028434606 0.05275728 -0.000951906 0.07894471 -0.2027877 -0.22798298
-0.11074159 -0.12291597 0.2562456 0.16259031 -0.099109866 0.08577746 -0.12651938 -0.06595381
0.19638309 -0.011988096 0.057832256 -0.093540385 -0.095709965 0.120339975 -0.09131307 -0.09663411
0.11088433 0.0012535398 0.005153205 0.101307265 0.2054179 0.04968074 -0.08509512 0.157173
0.2028289 -0.08908548 -0.10848834 -0.12047825 -0.1494534 -0.066225976 0.04391521 -0.22493483
-0.045038957 -0.05268649 0.28914732 0.100902945 0.07114139 -0.063940346 0.12494792 0.11244113

convs.0.nn.2.bias f4 [32]
00000000: 458e 5ebe 1e0b a2bd b5b9 4a3d e56f d53c
00000010: e6aa 933c 9f0d 963d ca91 05be 09d5 363e
00000020: a7a9 04bd 9d49 8a3d f913 6f3e 53a7 78bd
00000030: ceea c73d a240 d9bd b7b3 793e 14b2 c8bb
00000040: 0f12 253d 7631 833e d76f 34be 7d28 52be
00000050: e5d7 663d de51 a2bd a5f6 e63d a165 cb3c
00000060: 8733 15be b849 2ebd 5cad fcbd 4cf1 31be
00000070: 62c4 8b3d 011d 053e e3a8 7fbd 9763 c0bd
-0.21733959 -0.07912277 0.04949351 0.026054332 0.018025827 0.07326817 -0.13043895 0.17854704
-0.032388356 0.06752322 0.23347463 -0.060706448 0.09761582 -0.10608031 0.24384962 -0.006124744
0.040300425 0.25623673 -0.17620789 -0.20523258 0.056358237 -0.07925771 0.112775125 0.024828734
-0.14570437 -0.042550772 -0.12337753 -0.17377204 0.068245664 0.12999345 -0.062416922 -0.09393995

convs.0.nn.4.weight f4 [32]
00000000: 70b7 573f 4df6 573f 5793 823f 4ac5 573f
00000010: 9768 5a3f 52c5 6b3f adb2 823f 6125 693f
00000020: 3550 783f 53c2 823f c774 6c3f a0a7 663f
00000030: ec5d 723f f31b 683f a429 483f 2350 783f
00000040: 347a 7d3f f5e2 9c3f e4f7 6e3f d793 8f3f
00000050: 2f23 6c3f 162d 553f ae82 903f e526 543f
00000060: eef1 7c3f 3fc1 823f 0599 7a3f 1a50 613f
00000070: 622e 663f 6dde 6c3f a048 803f b34d 5a3f
0.8426428 0.843602 1.0201215 0.84285414 0.8531584 0.9209796 1.0210778 0.9107266
0.96997386 1.0215553 0.9236569 0.90099525 0.94674563 0.9066765 0.7818854 0.9699728
0.9901459 1.2256762 0.93347 1.1216992 0.92241186 0.8327192 1.128988 0.8287185
0.98806655 1.0215224 0.9788974 0.8801285 0.89914525 0.92526895 1.0022163 0.8527481

convs.0.nn.4.bias f4 [32]
00000000: d4d9 6bbd 340e cdbc 5506 463d e5eb 383d
00000010: 26ec 03bd 7726 0a3d 4c3e 5e3d bde6 f1bd
00000020: 34bd 4cbe 5fad 5bbd a17a 14be 9a4d bd3d
00000030: 5acf 1c3e 02ff 3b3d 2ae3 fd3d 5a86 60be
00000040: 3a66 28be 8582 febd 4472 7c3e cd64 9fbd
00000050: 48e6 253e 3972 7ebe a83d 943d a0dd 0fbe
00000060: 02f0 8abe ca15 1ebd 7741 94be 7afd a0bd
00000070: 23fc f3bd 7bab 2abe 006a 6cbd cd00 8e3d
-0.057580784 -0.025031187 0.048345882 0.04514684 -0.03220763 0.03372809 0.05425863 -0.11811588
-0.1999405 -0.053632136 -0.14499904 0.09243317 0.15313473 0.04589749 0.12396844 -0.21926251
-0.16445246 -0.124272384 0.24652964 -0.07782898 0.16201127 -0.2484826 0.072383225 -0.14049387
-0.27136236 -0.038595 -0.28956196 -0.07860847 -0.11913326 -0.16666977 -0.057718277 0.069337465

convs.0.nn.4.running_mean f4 [32]
00000000: df82 2a35 9e7a ad40 84be 112f 9492 8e40
00000010: dc4b e53f 3582 ce3e 15f1 e73e 8d42 fb3e
00000020: d397 5c22 71bc e72d 2472 c140 7a01 0035
00000030: e86a 9540 a285 5540 0c22 823c 418a b322
00000040: 403d 9737 e9ab ec3d 7db4 0732 817b 0b3f
00000050: c163 9440 810d d840 da5e 9e38 74d0 d740
00000060: 0389 d035 c42e 552c f342 2028 37a8 5137
00000070: 2e5d 9440 b407 0440 6c5d 0b35 6c55 2e40
6.352038e-07 5.421218 1.3255358e-10 4.455393 1.7913775 0.40333715 0.45301118 0.49074212
2.9895935e-18 2.6345344e-11 6.045183 4.7685865e-07 4.6693 3.3362813 0.015885375 4.866443e-18
1.8029124e-05 0.11556227 7.8990725e-09 0.54485327 4.637177 6.7516484 7.5516946e-05 6.744196
1.5537083e-06 3.029508e-12 8.8963015e-15 1.2496536e-05 4.6363745 2.0629702 5.191748e-07 2.7239637

convs.0.nn.4.running_var f4 [32]
00000000: 40b3 8b34 ac74 8142 b7cf 692d de7b 5a42
00000010: 396a 0f41 83fc 133e 0341 423e 3191 d83e
00000020: 0a9d 192b 2911 942c 8949 c042 641a 6f32
00000030: 5077 6242 4ec8 fc41 e25a 643b 0a9d 192b
00000040: 0334 c537 4a48 473c 717d 0430 4e22 873e
00000050: 0e24 3142 f054 fd42 22a9 9c37 54ca bf42
00000060: d2c7 8d35 ff98 5c2b aec4 1a2b a82f 6c37
00000070: f4f9 6942 bd82 0d41 c9cc df35 6049 9541
2.602119e-07 64.727875 1.32906386e-11 54.620964 8.963433 0.14451794 0.18970113 0.42298272
5.4574455e-13 4.208318e-12 96.14362 1.39176315e-08 56.616516 31.597805 0.003484421 5.4574455e-13
2.350845e-05 0.012163231 4.8199583e-10 0.2639336 44.28521 126.66589 1.8675408e-05 95.89517
1.0563474e-06 7.8372026e-13 5.498474e-13 1.4077792e-05 58.494095 8.844419 1.6674395e-06 18.660828

convs.1.nn.0.weight f4 [32, 32]
00000000: 5ebb 94bd b79c da3d 9ab8 7b3d dce0 053e
00000010: 6dc9 ee3d 715b 22be d179 49be e6c2 c8bd
00000020: e721 7dbc 35a3 4dbe 42b6 bc3d 2813 c83b
00000030: 1739 47bb df0a 7c3d 689e 4bbe 3fb3 c23c
00000040: e747 7abc f949 26be 0bcc ba3d 867d a6bd
00000050: cad6 adbc 1ff4 dc3c 4f20 66be b508 143e
00000060: 33c5 003d d0d0 45be 052d 95bd 723b dfbd
00000070: fbc4 803d dff7 b43d ded2 eb3c 94c7 4fbd
00000080: f2bc 85bc f4ae 8e3c 063d 1abd 01a3 8f3d
00000090: b2f0 01be 0fc4 2c3c b8a0 06be 6e88 0ebd
000000a0: 33c8 a93e 1962 ea3d 33b8 c3bd 0ad1 dd3d
000000b0: ae1f 4a3c 579c bc3d b873 61bd 3221 803e
000000c0: f79f f6bd 193e 08be 6a3c 90be 8422 2a3d
000000d0: 0d9e d3bd 1c6c 693a 9350 39be 91d3 983c
000000e0: d102 b3bc 289b 09be 3407 ca3d d028 51be
000000f0: 9ce3 603d 1724 81bd 0db9 1abc a131 25be
00000100: f399 803d daf7 923d c423 c6bc 8962 e63d
00000110: 6b35 913d 43cb ef3c 72be ac3d 371f 6b3e
00000120: 103c 663e ccd4 bdbd eb0a 91bd 168c 07be
00000130: cc57 083e 274e 9abd d561 31be a922 083e
00000140: 6655 c8bc 45e9 e13d db99 0bbe 05a2 b83d
00000150: 3773 593d fec7 d43d 3101 06bd 2b55 2ebd
00000160: bc4e 473e c203 9b3c d4ee d43d af9c 203e
00000170: 909f 2c3e 4cb4 093d 5b14 583e 6e2c 88bd
00000180: afc6 c9bd 8e66 363d ee6c 5d3d bb81 a5bd
00000190: d6f8 9a3c 60e0 3c3e d646 d6bd fd71 00be
000001a0: 6b34 863e dbdb 133e 9c2e 91bd 87bd 1fbd
000001b0: ebd5 4cbe 92b2 09be 2c5c 54be 4efa 2e3e
000001c0: 3a54 8a3d bae1 173d 50e8 69be 3f61 ac3d
000001d0: d8a3 4ebd 6d7a adbd d995 2dbd 8f57 bd3c
000001e0: 4769 4a3c 6743 f63d 0b80 513e 4393 0abd
000001f0: 6dda a7bd a198 0b3e b882 76bd 381a 61be
00000200: 0a61 16bd 5df0 55bc d419 b53c 50da 3fbe
00000210: 619d b23d 7132 213e d853 003e 3b62 743d
00000220: 7f98 4bbe d6ee 4b3e ce15 5cbe 82ec 803d
00000230: 2352 333e 13d0 c93c 60a3 ba3d 02c2 d9be
00000240: 1d35 a0bd 6b88 643e 0a82 ac3e 3bc7 85bc
00000250: 7d5d 5e3d 99af 2ebe d242 18bd 09a5 14be
00000260: c17f 42be 31f6 1dbe 54d5 7dbe 360f 83bd
00000270: e645 fdbd e526 8e3d 801d 35be 9334 12be
00000280: 7c5a 6f3d b530 473e b2ab 40be d7ad c93c
00000290: 8760 703d 3c2b b6bd bf5c 253e d239 b1bd
000002a0: 3785 433e 6e41 42bd 9069 013d de8b 7d3d
000002b0: b9ed ea3d 777a 9abd 071e eb3d 1c3c 2a3e
000002c0: 2065 4dbd 3801 3b3d adc3 58be 76ec 14be
000002d0: d604 bdbd 7a9e b73d 594b 2ebe 73ba fb3d
000002e0: b4fd 503e 456a bc3d b5f0 aa3d 9a72 e4bd
000002f0: 97f1 123e e282 f53d 0f98 e4bd 7526 583d
00000300: 9a87 693d 51b1 c3bd 2d5f 46be 6dd4 783c
00000310: c195 113e dc5a 54be b41e 68be 5a7e 223e
00000320: fe35 973d 257a 313e 3b5f 033c fb95 58bd
00000330: 6ef1 f63c db03 333e 961c 61be c214 e33b
00000340: 8987 c13d 2fe4 123d 1260 80be f344 a8be
00000350: 98e4 b8bd 38e5 e63c e3c0 ecbc a14a 883d
00000360: a256 74bd c44e 9c3c a2f2 973e 770a b63d
00000370: 14b6 5cbc bfa7 173e 4faa 12be 2944 b2bd
00000380: d45b 68bd c676 bbbb 488a e03d 2bbc 643e
00000390: 90ac c6bc a856 f5bd 73bf 793d abe9 0cbe
000003a0: e0f8 9fbe 6737 30be 434d 183e dee4 dabd
000003b0: e02e 863d 667e bf3d 11a5 0dbe 625b b4be
000003c0: 62df adbd b07c 81be a982 763e 4cda 213d
000003d0: d188 3d3e 518a 56bd 8915 4cbe 3330 61bd
000003e0: a4e1 9abe 4866 11bd ae34 58be a64e d3bd
000003f0: eaea 1b3e 1713 3e3e ea2f 5d3e 06a7 ff3d
-0.072623 0.10674422 0.061455347 0.13074058 0.11659513 -0.15855195 -0.19675376 -0.09802799
-0.0154499775 -0.2008179 0.092144504 0.006105799 -0.0030399018 0.061533805 -0.19884646 0.023767112
-0.015275932 -0.16239156 0.09120949 -0.081294104 -0.021220583 0.026971875 -0.22473262 0.14456446
0.031438064 -0.19317937 -0.072839774 -0.1090001 0.06287571 0.0883634 0.028787073 -0.050727442
-0.016325448 0.017417409 -0.037655853 0.070135124 -0.12689474 0.010544791 -0.13147247 -0.03479808
0.33160552 0.11444492 -0.095566176 0.10830887 0.012336655 0.09209507 -0.055042 0.25025326
-0.120422296 -0.13304938 -0.28171092 0.041536823 -0.1033288 0.0008904354 -0.18097143 0.01865557
-0.021851929 -0.13438094 0.09864655 -0.20425725 0.054904565 -0.06305712 -0.009443534 -0.16132213
0.062793635 0.0717618 -0.024186976 0.11249263 0.07090267 0.029271727 0.08434762 0.22961126
0.2248385 -0.092691034 -0.070821606 -0.13237032 0.13314742 -0.075344376 -0.17322476 0.13294472
-0.024454784 0.11030821 -0.1363291 0.09015278 0.053088393 0.10389708 -0.03271598 -0.04256169
0.19463629 0.01892269 0.10397115 0.1568477 0.16857743 0.03361921 0.21101515 -0.06649099
-0.09852349 0.044531398 0.05405896 -0.08081385 0.018917482 0.18444967 -0.1046273 -0.12543483
0.26211867 0.14439337 -0.07088968 -0.038999107 -0.20003478 -0.13447025 -0.20738286 0.17087671
0.06754346 0.037080504 -0.22842526 0.08416986 -0.050449222 -0.084706165 -0.042379234 0.02311304
0.012354202 0.12024575 0.20459001 -0.033831846 -0.08195958 0.13632442 -0.060183257 -0.21982658
-0.036713637 -0.013057795 0.022107042 -0.18735623 0.08721424 0.15741898 0.12531984 0.059663992
-0.19882391 0.19915327 -0.21492693 0.0629511 0.17511801 0.02463535 0.091131926 -0.4253083
-0.078226306 0.22317664 0.33692962 -0.016330352 0.054288376 -0.17059173 -0.0371731 -0.14516081
-0.18994047 -0.15425946 -0.2478841 -0.06399386 -0.12366848 0.06941012 -0.17687035 -0.14277868
0.058435902 0.19452174 -0.18815497 0.024619026 0.058685806 -0.08894965 0.16148661 -0.086536065
0.19093786 -0.04742568 0.031594813 0.061900966 0.11471123 -0.075428896 0.11480337 0.16624492
-0.05014527 0.04565546 -0.21168394 -0.14543328 -0.09229438 0.08965774 -0.1702093 0.12291422
0.2040928 0.09199957 0.083466925 -0.11154671 0.14349972 0.119878545 -0.111618154 0.05277105
0.057014085 -0.09555305 -0.19372244 0.015187365 0.14217283 -0.20737785 -0.22667962 0.15868512
0.07383345 0.1733175 0.00801831 -0.052877408 0.03014442 0.1748194 -0.21983561 0.0069299648
0.094496794 0.035862144 -0.25073296 -0.32865104 -0.09027976 0.028185472 -0.02890057 0.06654859
-0.059652932 0.019080527 0.29677302 0.08888715 -0.013471145 0.14810084 -0.1432278 -0.08704407
-0.0567282 -0.005720946 0.10963875 0.22337405 -0.024252206 -0.11979419 0.060973596 -0.13761012
-0.31244564 -0.17208634 0.14873223 -0.10688184 0.065519094 0.093502805 -0.13832499 -0.3522597
-0.084898725 -0.25290442 0.2407328 0.039514825 0.18509223 -0.052378003 -0.1993009 -0.054977607
-0.30250275 -0.035497934 -0.21113846 -0.103177354 0.15226331 0.1856197 0.21600309 0.12483029

convs.1.nn.0.bias f4 [32]
00000000: 5de5 20be 8563 943b 5d0f 4ebe 6045 853e
00000010: a61a c3be 98bf 95bd d9c7 013e c3b9 b43e
00000020: fec1 73be bde6 acbd e41a b5be ca7c b4be
00000030: 68db 403e 5baf a3be 9ff2 70be 9d9c 89be
00000040: 7ac8 533b 3d81 b53e b080 65be bf4a 01bd
00000050: a45d 2d3e 68c0 8cbe 43df 10be b9db 433e
00000060: d673 ffbd 7805 b23d 3b41 45be 3e50 063e
00000070: 2b3e 33be c9fe 9a3e 1489 a03e b41d c03c
-0.15712495 0.004528465 -0.20123048 0.2602949 -0.3810627 -0.07311934 0.12673892 0.35297975
-0.23804471 -0.08442447 -0.35372078 -0.35251456 0.18833697 -0.31969723 -0.23530053 -0.268773
0.0032315538 0.35450163 -0.22412372 -0.031565424 0.16930252 -0.27490544 -0.14147668 0.19126786
-0.12473266 0.08692449 -0.19263165 0.13116547 -0.17504184 0.3027251 0.31354582 0.023451664

convs.1.nn.2.weight f4 [32, 32]
00000000: 72d3 4d3e cc21 323e f7b3 093e 91c6 e3bd
00000010: 6806 003e 3a6e 65bd 9953 adba 23c3 c5bc
00000020: a6a3 ca3d 29a4 413e 98b9 903d 44a7 083e
00000030: 9341 07be c491 4dbe a144 b63e 545c 723e
00000040: fe9f a9bd 57c4 a7be 2f0e c3bd 2e89 9c3d
00000050: 4e44 93be 3b63 853b 8c00 cb3e bcbe 5d3e
00000060: da83 923c bcb4 0fbd e4b3 e2bc 5942 833d
00000070: 5b9d ab3e 96dd 7b3d a537 ab3d 8336 c23c
00000080: 7aca 93bd a5b3 d7bd 95ab d03d 6ff6 58be
00000090: fdce 1e3d 2df3 193e bede 24be 99ae 083e
000000a0: 83c9 b2bd 3655 1c3c 1bec 8bbd 4ea9 eb3d
000000b0: 381b 513e f308 15be 643e 843c e325 d03d
000000c0: 5ba1 293e d84b 75be c4e9 01be de2a 9d3c
000000d0: f82c fe3d d14a c23d b07f 68bc 9bae c4bd
000000e0: 0ff7 38be 91c9 11be d01c 46be c68a 4dbe
000000f0: dff2 d0bc aeb5 053e 2ed6 1dbe cfd5 5b3d
00000100: 352d a83d cf8e 823e e81c dcbc 1ab0 3bbe
00000110: 68c6 913d eda4 d2bd 1b45 113e b5f6 603e
00000120: be75 0d3d 9486 ee3d 43f9 9abd aaf0 0a3e
00000130: 2214 0abe 62c2 c23d 167a 713e 3ebc d33c
00000140: ecb4 51be 67a3 fabd f5af 96bd e1c4 21bd
00000150: 5a53 16bd 07fa 5ebb 33a4 b23e 7712 413e
00000160: 0505 513e 10d1 97bc 4c77 f23d a122 dcbd
00000170: 8b1c b73e 8999 68be 5a4b 533e 69f1 6f3d
00000180: 57ab f4bd c37f 4e3d e69c cd3c 87fe 18bd
00000190: 0769 30be f73f 723d 76a8 5cbd 4dbd 24be
000001a0: fed8 273c a883 30bb b229 17be ed44 0c3d
000001b0: d5f0 01be 343d e4bd 3ef4 1bbe eb01 11be
000001c0: cc73 6e3d 1892 d33d ac03 b6bd 85b8 e83d
000001d0: d206 913d b8f3 30be ae64 2fbd e180 553d
000001e0: 6c26 5cbd eaa9 82bd e9e8 15be 42f6 773d
000001f0: 1447 e6bc 286f 903b d2b0 51be 1f1e c73c
00000200: f799 24be b3de 96bd 0ab4 b0bd 58b3 de3d
00000210: 5bba 5fbd 4a4c 2cbe 6c80 02be a176 5bbe
00000220: 54bf d1bc d60d c7bd 94ef 863b 07be dcbd
00000230: 513b 45be 1dc2 15bd 6c7f dd3d 60a2 5cbd
00000240: ae8b a73c 56b9 c3bd 0545 ee3d fa03 19bd
00000250: 08d2 47be a19a 11bd a63f 2f3d 5b31 b73d
00000260: 1b88 1fbe f31d a6bd 5c4c 19bc 66ac 3ebe
00000270: d14f e9bd 8519 363d 3768 ec3d 9fd9 5bbe
00000280: 4786 c4bd fd4b 8d3d 6a60 443d 3fcf ecbb
00000290: a4e7 58be b6be e8bc 9691 0dbd 2d7e ae3d
000002a0: b815 4cbe 527d 15be aa30 7ebc e38f 15bd
000002b0: d682 603c 7d32 4a3e 1983 b43d 5f9d 343e
000002c0: a4f5 97be f433 9fbd 7af5 a8bb 9ee6 c23d
000002d0: 45fe f63d 9e85 153d 5e4a f5bd b2d7 3ebd
000002e0: 5df0 20be 51d7 02be 0cbf f13c 9983 d13d
000002f0: ba68 89be 2cfc 053e 0d31 47be 6b0e eabd
00000300: d95d 81be 5c61 1b3c e555 86bd d512 993d
00000310: 02d4 38be be9b 19be 6064 103e db7a 09be
00000320: f210 3cbd 7971 3fbe 9e54 8ebd d9b4 0abe
00000330: c588 66bc aa6b 80bd d0ea 5a3d fa86 14be
00000340: b070 1e3e 4d1b 2d3d 40df 4b3d fff6 54be
00000350: a774 303d 1845 0dbd 3eba 19be bf11 ed3d
00000360: 7879 e8bd d3e6 17be 575f a83d df91 b3bb
00000370: d2a2 dabc 972f 11b5 c0e3 9abd 67c1 f63c
00000380: 0e44 583d d531 383d 026c 33be 4561 d3bc
00000390: 8ffd 93bd c89d 1ebe 6ead f23d 671b 36be
000003a0: 876c 413c 3da5 6d3d 081d 18bd 33d7 9fbd
000003b0: df76 5abe eee1 4dbd 1200 ff3d ef9a 08be
000003c0: 7539 083d d2b7 eebc 0718 ffbd 8cab 18be
000003d0: 4796 18be 5f09 5d3c 2b6b 013e ae19 c33c
000003e0: 3ef8 c2bd b770 c23d 4f59 c5bd 6fd4 4cbe
000003f0: 6590 69bd fc68 03be 536d 903d bd5c ffbc
0.20100191 0.17395705 0.13447557 -0.11121858 0.12502444 -0.056013323 -0.0013223767 -0.0241409
0.09894495 0.18910278 0.07066649 0.13345057 -0.13208608 -0.20075136 0.35599235 0.23668033
-0.08282469 -0.32766983 -0.0952419 0.076433524 -0.2876305 0.004070667 0.39648855 0.2165479
0.017885137 -0.03508447 -0.02767367 0.06409139 0.3351849 0.061490618 0.08360223 0.023707634
-0.07216354 -0.10532311 0.10188977 -0.21187757 0.03877162 0.1503417 -0.16100594 0.13347854
-0.087298416 0.0095418 -0.06832143 0.11506902 0.2042054 -0.14554195 0.016143031 0.10163476
0.16565458 -0.23954713 -0.12686831 0.01918548 0.12410921 0.09486926 -0.014190599 -0.09603616
-0.18062995 -0.14237048 -0.19346929 -0.20072469 -0.025506435 0.13057587 -0.15413734 0.0536707
0.082117476 0.2549958 -0.026869252 -0.18328896 0.07117921 -0.10285363 0.14186518 0.21969111
0.034536116 0.116467625 -0.07567074 0.13568369 -0.13484243 0.09509732 0.23581728 0.025846597
-0.20479172 -0.12238198 -0.0735778 -0.0394944 -0.036700584 -0.003402354 0.348909 0.188547
0.20412071 -0.018532306 0.1183916 -0.107487924 0.35763964 -0.22714819 0.20634213 0.058579836
-0.11946743 0.05041481 0.025099229 -0.03735211 -0.17227565 0.059143033 -0.053871594 -0.16087838
0.010244606 -0.0026933942 -0.14761999 0.03424542 -0.12689526 -0.11144486 -0.1522989 -0.14160888
0.0582159 0.103305995 -0.08887419 0.11363319 0.07081379 -0.17280471 -0.042820625 0.05212486
-0.05374758 -0.06380065 -0.1463963 0.060537584 -0.028110065 0.004407782 -0.20477608 0.024306355
-0.16074358 -0.07366695 -0.0862809 0.10874051 -0.05462108 -0.16825977 -0.12744302 -0.21431972
-0.025603928 -0.09719436 0.0041179154 -0.10778432 -0.19260909 -0.036562074 0.108153194 -0.05386579
0.020452347 -0.095568344 0.11634258 -0.037357308 -0.19513714 -0.035547856 0.04278531 0.08944961
-0.15579264 -0.08111181 -0.009356584 -0.18620452 -0.11392177 0.04445793 0.11543315 -0.21469735
-0.09595924 0.06899259 0.04794351 -0.007226854 -0.21182114 -0.02841125 -0.03456267 0.0852016
-0.1993016 -0.14598587 -0.015514532 -0.036514174 0.013703069 0.19745822 0.088140674 0.17638157
-0.29679596 -0.07773581 -0.005156216 0.09516643 0.12060217 0.03650438 -0.11977075 -0.04659242
-0.15716691 -0.12777449 0.029510044 0.102301784 -0.26837713 0.13084477 -0.19452305 -0.11428531
-0.25266913 0.0094836615 -0.06559352 0.07474295 -0.18049625 -0.15000817 0.1410079 -0.13425772
-0.045914598 -0.1869563 -0.06949733 -0.1354555 -0.014070694 -0.06270535 0.05344659 -0.14504614
0.15472674 0.042262364 0.049773455 -0.20797347 0.04308 -0.03448972 -0.15012452 0.115756504
-0.11351293 -0.14834146 0.0822131 -0.0054800357 -0.026688967 -5.408596e-07 -0.07562971 0.030121518
0.052799277 0.0449694 -0.1752167 -0.025803218 -0.07226097 -0.15489876 0.11849485 -0.1778389
0.01180566 0.05801891 -0.03713706 -0.07804718 -0.21334408 -0.05026429 0.12451185 -0.13340352
0.03325792 -0.029140387 -0.12455755 -0.1490919 -0.14901076 0.013491004 0.12638538 0.023815956
-0.09520005 0.09494155 -0.09636175 -0.20002912 -0.05702247 -0.12833017 0.07052102 -0.03117215

convs.1.nn.2.bias f4 [32]
00000000: 4e00 133b 6e26 963d 404d 96bc ee5d 51be
00000010: 336d 82bc dc7a 6dbe 7655 a83e 1bbe 373d
00000020: 372d a8be a30c 193e 8a97 8f3d 1725 eb3d
00000030: ffe6 1dbf c98c 213e a7e8 e33e c896 193e
00000040: edd5 95be 7b77 013e 624c f13d ea8d 3f3e
00000050: d162 3fbe ab4b 8cbe 5ff6 77be cd3d c73d
00000060: 0ddb a0bd 5a8c 073e 3e2b c33e b4dd 36be
00000070: 772b 563d f7d3 e13d ac74 a0bd d080 943e
0.0022430602 0.07331549 -0.018347383 -0.20445988 -0.01592121 -0.23191398 0.32877702 0.044859033
-0.32846996 0.14946227 0.07011326 0.11481684 -0.616806 0.15776362 0.44513437 0.14998925
-0.29264775 0.12643234 0.11782147 0.1870648 -0.18690039 -0.2740148 -0.24215077 0.097285844
-0.078542806 0.13237134 0.3811893 -0.1785801 0.052287545 0.11026757 -0.078347534 0.29004526

convs.1.nn.4.weight f4 [32]
00000000: b757 b03f 966a cb3f 98fe af3f 2dd0 773f
00000010: e77e 743f 6ebf af3f 0a2b 953f f990 733f
00000020: f88b c03f aaf1 993f b3c9 923f 7034 783f
00000030: 05f2 9a3f 95cf a53f c24e ad3f 9d9a 973f
00000040: a456 a43f 8605 a93f 956e a73f 69be b73f
00000050: a9fc bd3f c1dd aa3f 25ad 9e3f bfe3 a33f
00000060: 0c9b b23f eac8 973f f26a af3f dd84 923f
00000070: a4e6 9c3f 40e3 a33f cf12 a33f 42ad a63f
1.3776768 1.5891902 1.3749571 0.96802026 0.9550614 1.3730295 1.165376 0.95143086
1.5042715 1.2026875 1.1467804 0.96955013 1.2105108 1.2953974 1.353966 1.1844059
1.2838941 1.3204811 1.3080622 1.4354984 1.4842731 1.3348924 1.239659 1.2803878
1.3953567 1.1858189 1.3704512 1.1446797 1.2257886 1.2803726 1.2740115 1.3021624

convs.1.nn.4.bias f4 [32]
00000000: 16d0 83bb 63f5 043e 949b 663d 398b 263e
00000010: 39c4 69be 9a3d 18bd f735 84bd 0c45 303d
00000020: 695e 3bbe 235f 863e 79c0 23be 3ab3 b93d
00000030: 71cb e7bd de65 79bc 78b1 a83d 04cb 13be
00000040: 242a f9bd 23e2 e83d 6c97 963d b1eb e73d
00000050: 7d77 2ebe 2a94 1bbe e6aa b5bd abcf 013e
00000060: ea16 273e bd4b 6cbe 9ec1 04bd b3ce 22bd
00000070: 6309 ba3d f2fe 483e c401 28be bff9 ed3d
-0.0040226085 0.12984233 0.056300715 0.16264047 -0.22828759 -0.037168123 -0.064556055 0.0430346
-0.18297733 0.2624446 -0.15991391 0.09067388 -0.113181 -0.015222041 0.082369745 -0.14432913
-0.12166241 0.11371257 0.073531 0.113242514 -0.17037769 -0.15193239 -0.08870487 0.12676875
0.16317335 -0.23075767 -0.03241121 -0.039747905 0.090838216 0.19628504 -0.16406924 0.11619901
