saved_models/gin_ba_2motifs.model (torch, 39103 bytes, 28 tensors)

conv1.nn.0.weight f4 [32, 10]
00000000: 1200 263e 4806 153e 7dd9 23be 38bc 9f3e
00000010: 7b8d d9bc 3069 78be 79b3 383e 52b0 7cbe
00000020: a779 5dbe 696c 77be befd d9bc c758 00be
00000030: f1b1 d2bc bbba 693e 6c51 97be 7996 8e3e
00000040: 4ba0 88be 2002 96be 89b8 93be 90f5 84be
00000050: 483b 3e3e 9cfb 923e 9b64 9bbd b5d9 c33c
00000060: 9f00 413e 2445 ed3c efc9 9bbe d6bb 843d
00000070: d20d 053e d0f5 c8bd 2bf3 4b3e 2a8c 05be
00000080: f249 28bd 6ae4 8e3e b718 2e3e 2767 733e
00000090: 34f1 a1be e23b 2c3e 3da6 3d3e 430e dcbd
000000a0: d265 10bd ef11 713c f766 513e 8435 f83d
000000b0: f813 38be 2b79 5abd 69eb 16be fe6f 81bc
000000c0: a83b 38be 6179 82be fe6c 27be 80be 4cbe
000000d0: 452e 883e 4692 52be c134 933d 89e9 2abe
000000e0: bb56 72be 18c8 8dbe 0051 893e 4aee 373e
000000f0: 5f7b d7bd 54ed 233e 19fd c73c aeff 9a3d
00000100: 3315 3cbe 90a2 993d 3fbe 9ebe 448d 3d3e
00000110: bd25 3e3e 0cab 993e 2705 863d 4cc3 cfbd
00000120: 91fd c0bd 6473 00be 9cd9 85be 57bb 30be
00000130: d921 913e d165 d63d 1d95 893d e811 63be
00000140: 53ca 73be a87d 52be 8757 92be 6630 9abe
00000150: a489 603e 218c 583e 1e58 94be 3818 0d3e
00000160: a62d 96bd be92 353e 605f 97be 2d8e eabd
00000170: c848 d93b 43dd 97be ba05 8cbe bb78 78be
00000180: a92e 073e 2eeb f23d f98d 923d a74b 3abe
00000190: 6a02 0b3d e689 653e bd5c fcbd 7404 cf3d
000001a0: cabf 3abe a621 39bd 0e71 b8bd 8c99 843c
000001b0: 3528 8dbe 34aa 7f3e 4518 5c3e e1f1 383e
000001c0: 9f9b 4a3e ee50 62be 59d7 eabd d333 583e
000001d0: 6dc9 a93d 32fd 8cbe e686 83be 591d 1abe
000001e0: de56 95be b360 573c 5b6c 4cbc 251e 5fbc
000001f0: 1b0a f3ba c3d2 86be 0817 e23d 7292 9b3e
00000200: 27df f7bd 3d71 a6bd eafa 913e 9afd 95be
00000210: 27ee 7abd 8d1c 23be ef8c f7bd ea63 ccbc
00000220: 0bfa 9abe 5134 ee3d 037f 1f3e cc97 90be
00000230: eef6 233e e679 75be f9ad d7bc 8db4 523e
00000240: 5032 803e b72e 18be 2a3d d83d 07fa 813e
00000250: ecb5 143e 575d 0dbe dc26 83be 42a7 653e
00000260: da3a a0bd ab7f 873e f3d4 273d c90c 413e
00000270: 90f6 18be 1739 a3bd 002a 09be e2a2 92bd
00000280: 1b3a 603e b720 393e 92a9 17be 6b6f 67be
00000290: 58bd 7fbc 6a6f 8a3e 3933 513e 0589 313e
000002a0: e96b 143e 56ab 5fbe f024 4cbe aa23 56bc
000002b0: 7b38 28be ea64 4fbe 0a67 9b3e b33e f93d
000002c0: cbdf 5d3e 6d98 283d 1d91 06be 52e5 adbd
000002d0: 2b19 3cbe 701a 16bc 3fc0 533e 3da3 0ebe
000002e0: 1f0f 8f3a 1f7d 6a3d 0758 90be 543a 2a3e
000002f0: 4116 3b3e 3a9b 1fbe 77f8 bdbd 18ad 1dbe
00000300: 467e 3e3d e007 53bd 5c1b 733b 46fc 153e
00000310: 7a75 d5bd 0cf0 6c3e 330c 09be 7805 493e
00000320: 3d50 10be 202d 903e 8c6a 61bd 6752 963d
00000330: 29bd 8f3e ddcb 9d3b 5724 95be 520f 853d
00000340: 5933 803e 0670 d83d ac23 0bbd 356a c13d
00000350: 2705 89be 3a3c 3c3e 40dd bd3d cb71 3fbe
00000360: 2dd7 3a3e 40b7 2c3e bca0 64be d675 34be
00000370: b36b 4a3e dc02 83bd 2ab8 dbbd bcac 803d
00000380: 20c3 16be 090c 373e 71af 033e 0c64 4ebe
00000390: eb3b 23be a18b 13bd 8272 2b3e a491 76be
000003a0: 12a0 4e3e 0afe 63be 4d2e 013c 3602 c93d
000003b0: b688 43be a3e2 33be 14a6 863d efde e5bd
000003c0: 03b0 a9be 63a6 3c3d ce13 9fbe e619 07be
000003d0: d988 3a3e 7de2 f23b 0c15 d63d 6a00 133d
000003e0: 870f 22be 192b b2bc 29ca 253e 775a 85be
000003f0: 66fd 3abe 7a0b edbc bd50 853e 8506 89bd
0.16210964 0.14553177 -0.16000934 0.31198287 -0.026556721 -0.24258876 0.18037213 -0.24676636
-0.21628438 -0.24162449 -0.026610252 -0.12533866 -0.025719615 0.22825138 -0.29554307 0.27849177
-0.26684794 -0.29298496 -0.28851727 -0.259686 0.18577302 0.28707588 -0.07587548 0.023907522
0.18847893 0.028963633 -0.304275 0.06481139 0.12993553 -0.0981251 0.1991698 -0.1304175
-0.041086145 0.2790864 0.17001615 0.23769818 -0.31629336 0.16819718 0.18520446 -0.10744908
-0.035253353 0.014713748 0.20449434 0.12119582 -0.17976367 -0.05333821 -0.1473824 -0.015800472
-0.17991507 -0.2548323 -0.16350171 -0.19994545 0.265978 -0.20563611 0.071877964 -0.16690649
-0.23665898 -0.27691722 0.2681961 0.17961994 -0.10521578 0.16008502 0.024412679 0.07568298
-0.18367462 0.075017095 -0.3100452 0.1851092 0.18569084 0.3001331 0.065439515 -0.10144672
-0.09423364 -0.12544018 -0.26142585 -0.17258964 0.28346136 0.10468639 0.06717894 -0.221748
-0.2380765 -0.20555747 -0.28582403 -0.3011505 0.21927506 0.21147205 -0.28973478 0.1377877
-0.073329255 0.17731759 -0.29564953 -0.11452899 0.0066309907 -0.29660997 -0.2734812 -0.24264805
0.13201393 0.11861263 0.071559854 -0.18192922 0.03393785 0.22415885 -0.12322376 0.10108271
-0.18237224 -0.045198105 -0.090059385 0.016186498 -0.27569738 0.24967271 0.21493633 0.1806102
0.19785927 -0.22101185 -0.114668556 0.2111352 0.08290372 -0.27536923 -0.25688857 -0.15050258
-0.29167837 0.0131456135 -0.012477006 -0.013618027 -0.001854244 -0.26332673 0.11039549 0.30385166
-0.1210311 -0.08127067 0.28511745 -0.29295045 -0.061262276 -0.1592886 -0.12087428 -0.024949986
-0.30268893 0.11631072 0.15575795 -0.28240812 0.16012165 -0.23972282 -0.026328074 0.20576687
0.25038385 -0.1486157 0.10558541 0.25386068 0.14522523 -0.13805138 -0.25615585 0.22427085
-0.07823725 0.2646459 0.04097457 0.18852533 -0.14937806 -0.079698734 -0.13394928 -0.07159974
0.21897165 0.18078886 -0.1481078 -0.22601096 -0.015609108 0.27038127 0.20429696 0.17337425
0.1449429 -0.21842703 -0.19935966 -0.013070026 -0.16427796 -0.2025334 0.3035205 0.12170162
0.21667401 0.04116099 -0.13141294 -0.08491005 -0.18368976 -0.009161577 0.20678805 -0.13929458
0.0010914541 0.05724823 -0.2819216 0.16623813 0.18270208 -0.15586558 -0.092759065 -0.15398061
0.046507142 -0.051521182 0.0037095165 0.14647016 -0.104227975 0.23138446 -0.1338356 0.19630992
-0.14093108 0.28159428 -0.05503325 0.07339936 0.28074005 0.004815562 -0.29129288 0.06497063
0.25039175 0.10568242 -0.033969566 0.094440855 -0.26761743 0.1838235 0.09270716 -0.18695752
0.18246146 0.1686678 -0.2232694 -0.17623076 0.19767646 -0.0639703 -0.10728486 0.062829465
-0.14722872 0.17875685 0.12859894 -0.20155352 -0.15940826 -0.036021832 0.167429 -0.24078995
0.2017825 -0.22264877 0.007884574 0.09814875 -0.1909512 -0.17566924 0.06574646 -0.11224162
-0.331421 0.046057116 -0.31069797 -0.13193473 0.18216266 0.0074122534 0.10453233 0.035889067
-0.15826236 -0.021749066 0.16190399 -0.26045582 -0.18260726 -0.028936137 0.2603816 -0.066906966

conv1.nn.0.bias f4 [32]
00000000: 4c0f 90be 0790 88be e3d9 4c3e 7f8b 413e
00000010: 38fd 463e bbe5 6d3e e415 893d 3d05 89be
00000020: 235b 353d f232 163e a279 15be 22e4 09be
00000030: 111c d53d cc16 9dbe 4ee2 743c d6d3 373e
00000040: 127d 9bbe 8d11 d1bc 43ae a63e 94b5 883c
00000050: afa1 313e 272e 6abe 5855 3bbe 3f80 ec3d
00000060: 1307 a73e d831 353e fb1a 773e f3ca 41be
00000070: 5968 c8bd 3f89 043e d33f 1ebe 6ff5 43be
-0.2813667 -0.26672384 0.20004992 0.1890087 0.19432533 0.23232166 0.066936284 -0.2676181
0.044276368 0.14667872 -0.1459718 -0.13465932 0.10405744 -0.30681455 0.014946533 0.17951903
-0.3036886 -0.025521064 0.32554826 0.016688146 0.17346834 -0.22869168 -0.18294275 0.115478985
0.32622585 0.17694795 0.24131386 -0.18925075 -0.09785528 0.1294298 -0.15454035 -0.19136594

conv1.nn.2.weight f4 [32, 32]
00000000: 9f97 76bd 7142 ea3d cd03 3abe dd2c bb3d
00000010: 2d6f 03be 582e 7f3d 4482 863d a783 70bd
00000020: 7ae8 b8bd 92ba 04be 3d39 2ebe 201f 3cbe
00000030: 108e 05be b56f e63d 6a6b 0cbe ecc0 cd3c
00000040: cf9f 9c3d 3fe8 b8bd 0795 47be 63d7 d0bd
00000050: 006b a7bc 1c88 ecbd 78f1 febc 6f47 333d
00000060: 323e 793d 494a 83bc 8911 ea3d 9fae 20be
00000070: ca8f ec3d e5da a1bc 4982 fcbd d1ba 163c
00000080: 19b5 ccbb cf39 da3c 90f8 97bd a828 013d
00000090: def0 14be 436f 05be 0a99 fb3d 2f7f 07be
000000a0: 4f07 e23d 90d8 f0bd 1474 1bbd 8d6b 823d
000000b0: 5bf9 0e3e 9d9b babd 3a9a 263d 9fde 10be
000000c0: 7b89 96bd 1c55 803c 2916 203d a8f6 613d
000000d0: ae4e 443d 66cb 3b3e e509 2abe 471a 0a3e
000000e0: 19d8 a4bd 39cf 32be adb1 43be 9ef4 173e
000000f0: 12be aa3d cf72 183e 5a68 15be 2ae6 fc3b
00000100: 80b0 1d3e 1594 eebc b1e0 19be 1a07 28be
00000110: ae5f df3c b9a7 24be 8b2e a93d 472e 0e3d
00000120: d102 afbb 55d7 27be 283e b33d d5ee 11be
00000130: ed57 6bbd 37e1 f4bd b16c 00be 133e c93c
00000140: d237 9b3d bd77 13be bf0c 263e 5fa8 9bbd
00000150: fe8f 96bd 6654 a2bc c164 eb3d 1c52 4fbc
00000160: 700d b23d 0295 013d 9af3 6f3c 6658 72bc
00000170: 703d ffbd f390 3f3d c6e1 853d 0aab 623d
00000180: 4e75 10be 734f f6bc a644 82bd 7923 e2bd
00000190: cd9c cd3c 1651 233d b63b 093d 8f2b 24be
000001a0: 41b4 02be eb41 e3bc 42be f43c 82d9 0dbe
000001b0: c5b0 f83b f78c 9a3c 4336 c33c a322 a7bd
000001c0: 016b 94bd 70cb 26bc 66f9 a73c 271d 6dbd
000001d0: 313c 283e 37d1 083e f58d 1bbd 486e 36bd
000001e0: 588d 3bbd 5c8a ad3d d42c 12bd f344 c7bd
000001f0: a42a d7bd 48a4 e73d cd74 643d 9755 89bd
00000200: 42dc 263e e339 153c becf 17be a48f 83bd
00000210: 54a3 17be eb41 563c 8206 32be 3be0 22be
00000220: 3e83 873d 3c1c 233e 1109 273d db3e 273e
00000230: 2b0b 0bbe 4887 933d fbc1 233e ed60 eabc
00000240: 0c68 7a3d abe0 de3c 9fb6 0b3e d60c 14be
00000250: 680e 46bd 317b 0fbc 10fa e1bd 9861 99bc
00000260: 9aaf 94bd 2319 b9bd 3207 54bc 4c1c aebd
00000270: a06d 18be 8b4b 9dbd 2da7 a2bd f8ef dcbc
00000280: 717a d03d a7f3 4039 9e98 653d 233d f73c
00000290: e8d0 bfbd 3dd6 12be c86a d0bc 9018 eb3d
000002a0: 4d72 21bc c05b 86bc aecb eebb f40e ccbc
000002b0: c30e 343e 396d 9cbd 2259 193e 74ae bcbd
000002c0: 0e6e 273e 05b4 4b3d 2dc9 86bd c06a f4bc
000002d0: 78f5 2b3e c218 c33b 375e c9bd 64d1 f73b
000002e0: 09f2 cb3d 61ad 9cbd 7b0f 53bd e98e 1abe
000002f0: 978a 2a3d f1e9 b53c 74ab 8fbd de5b 073e
00000300: c85c 173e 728e e63d bcdb fa3d 3c1a 26be
00000310: e012 cdbd 64a1 2fbe c5b1 073d 1a99 19be
00000320: 038a 2dbe f706 97bc fc4d 31be f9e8 c1bc
00000330: be56 613d 3242 0b3e ec35 13be 2d70 143e
00000340: a92e e7bd 8f1f b6bd 509a 593d 6bb9 013e
00000350: b203 c9bb 61d6 8a3d 1fdb dc3d 599d 4bbc
00000360: 786d 893d 406a fd3d 7263 3cbd e784 263e
00000370: 0299 113e 7bf7 303e cb2c 2cba 2404 483d
00000380: 8d4f 823d a352 c3bd fb7e 033e e712 cdbd
00000390: 155a 19be 2b8d 043e 920a edbd 4b0d 00bd
000003a0: 04af 2bbc bbb7 cbbd 7965 d23d 6c75 623d
000003b0: f577 1bbe e9e4 b43d 05c2 103e 47c3 f63d
000003c0: 3d80 8b3d a8f6 c03c 4494 c4bd 5e7a 583c
000003d0: 245f 343e f8ff 1bbd edb3 1e3e c503 20be
000003e0: ef64 bd3b ebce f5bb 5539 323e 8b4e 2f3e
000003f0: 693a bf3d 6476 e43d 85cf eb3d 7815 fa3d
-0.06020319 0.11438454 -0.18165512 0.09139416 -0.12835379 0.062300056 0.06567815 -0.058719303
-0.090287164 -0.12961796 -0.17014022 -0.18371248 -0.13042474 0.11251775 -0.1371285 0.025116406
0.076476686 -0.090286724 -0.19490443 -0.10197332 -0.020436764 -0.11549398 -0.031121 0.043769296
0.06085033 -0.016026633 0.11429126 -0.15691613 0.11550863 -0.019757697 -0.123295374 0.009199814
-0.0062471745 0.026638893 -0.074204564 0.031532913 -0.14545009 -0.13030724 0.12285049 -0.1323211
0.1103655 -0.11760056 -0.037952498 0.0636817 0.13962309 -0.09111712 0.040674426 -0.14147423
-0.07350441 0.015665583 0.039083634 0.05516687 0.047926597 0.18339309 -0.16605337 0.13486587
-0.0804903 -0.17461862 -0.19110747 0.14839408 0.08337034 0.14887546 -0.14590588 0.0077178674
0.1539936 -0.029123345 -0.15027119 -0.16408959 0.027267303 -0.16079606 0.082608305 0.034712102
-0.005340912 -0.16390736 0.0875209 -0.14251263 -0.0574569 -0.11957019 -0.12541462 0.024565732
0.07579006 -0.14401145 0.162158 -0.076004736 -0.07351683 -0.019815635 0.11493827 -0.012653854
0.08693969 0.031636246 0.0146454815 -0.014791584 -0.1246289 0.046769094 0.065372035 0.055338897
-0.14107248 -0.030067181 -0.0636075 -0.11041922 0.025099183 0.03987225 0.03350421 -0.16032241
-0.12764074 -0.027741393 0.029875878 -0.13852504 0.007589432 0.018866045 0.023829585 -0.08160903
-0.07246972 -0.010180339 0.020504665 -0.05788913 0.16429211 0.13361059 -0.037977178 -0.044538766
-0.045789093 0.084736556 -0.035687283 -0.09729948 -0.1050618 0.11310631 0.055775452 -0.06705778
0.16294959 0.00910804 -0.14825341 -0.06423882 -0.14808398 0.0130772395 -0.17385295 -0.1590585
0.06616829 0.1592874 0.04078013 0.16332571 -0.13578479 0.07203537 0.15991966 -0.028610671
0.061134383 0.02720674 0.13643883 -0.14458022 -0.048353583 -0.008757398 -0.11034024 -0.018723294
-0.07260056 -0.090379976 -0.012941169 -0.08501491 -0.14885569 -0.07680424 -0.079420425 -0.026969895
0.10179604 0.00018401314 0.05605375 0.03018052 -0.093660176 -0.14339538 -0.025441542 0.11479294
-0.009853912 -0.016401172 -0.007287464 -0.024909474 0.17583756 -0.0763802 0.14975408 -0.09212962
0.16350576 0.049732227 -0.0658134 -0.029836059 0.16792858 0.005953879 -0.09832423 0.007562803
0.09958274 -0.07650257 -0.051528435 -0.15093578 0.041636076 0.022206279 -0.07015124 0.13218638
0.14781487 0.11257638 0.12248942 -0.16220945 -0.10013366 -0.1715141 0.03312852 -0.1499981
-0.16947179 -0.018435938 -0.17314905 -0.02367066 0.055014364 0.1359947 -0.14376038 0.14495917
-0.112881966 -0.08892738 0.05312568 0.12668388 -0.0061344737 0.06779171 0.107839815 -0.012427651
0.06710333 0.12373781 -0.045993276 0.16261636 0.14218524 0.17281906 -0.0006567954 0.048832074
0.06362829 -0.09537246 0.12841408 -0.10013371 -0.1497577 0.12944476 -0.11574282 -0.031262677
-0.010478739 -0.09947153 0.102732606 0.055287763 -0.15182479 0.08832724 0.14136513 0.12048965
0.06811569 0.023555115 -0.09598592 0.013212768 0.17614418 -0.038085908 0.15498324 -0.15626438
0.0057798545 -0.007501473 0.17404683 0.17119806 0.09337313 0.11155394 0.115141906 0.12211126

conv1.nn.2.bias f4 [32]
00000000: 21c0 74bd 3dfe 44be 2467 febd 8455 863d
00000010: 70ea afbc fb3a 6f3c bf91 30be 2efa 703c
00000020: e65d afbd fcc0 3a3e 6ab4 e6bc 6020 523e
00000030: 6d02 cd3d d036 3bbd a213 3b3c 22e8 253d
00000040: 8ff5 b03d ecbb 223e 6fe8 bd3d 0162 c9bc
00000050: 3e89 8b3d b963 293e bec5 0a3e 6fe2 943d
00000060: bc06 e83c 5c71 d6bd 9642 cdbd 6bf1 d1bc
00000070: 52e5 87bd 345e 283e 36a7 063e 31a7 283e
-0.05975354 -0.19237609 -0.12422016 0.065592796 -0.021474093 0.014601464 -0.17243098 0.014708085
-0.085628316 0.1823768 -0.0281622 0.20520163 0.10010228 -0.04570657 0.011418255 0.040504582
0.086405866 0.15891999 0.09272849 -0.024582865 0.06813286 0.16541947 0.13551995 0.07269751
0.028323524 -0.1047084 -0.10022466 -0.025627812 -0.06635536 0.16442186 0.13149723 0.16470028

conv1.nn.4.weight f4 [32]
00000000: 6d25 793f adce 7a3f 0000 803f a215 753f
00000010: 0000 803f 9722 833f 0000 803f e13c 763f
00000020: 0000 803f 4192 813f 40d5 823f 76b4 813f
00000030: a9e2 753f 0000 803f 0000 803f 1003 833f
00000040: 0000 803f 8dc2 833f c376 803f 0000 803f
00000050: 9a3c 7e3f a106 753f 87cf 823f b6c5 843f
00000060: 3a7e 833f 0000 803f 0000 803f 0000 803f
00000070: 7012 733f 1365 843f 0df2 853f 6761 823f
0.9732273 0.9797161 1.0 0.95736134 1.0 1.0244931 1.0 0.96186644
1.0 1.0122758 1.0221329 1.0133197 0.9604898 1.0 1.0 1.023531
1.0 1.0293747 1.0036243 1.0 0.9931122 0.9571324 1.0219582 1.0372837
1.0272896 1.0 1.0 1.0 0.9495001 1.0343345 1.0464493 1.0185975

conv1.nn.4.bias f4 [32]
00000000: 8b4b e63b cddd aa3c 2963 23bd c3e3 113d
00000010: efac f53c a246 b6bc b4c4 97bc 68e7 173d
00000020: 6b2c 7cbb 2ac0 8ebc e7b3 25bc bd24 7b3b
00000030: a0da 473d 5818 3ebd 930d 383b 518e 07bd
00000040: 104d ce3c 609f de3b 9601 ecbb b6a4 25bd
00000050: 9c73 733d 0a56 0b3c 1d9d 60bd ce99 4e3d
00000060: 1c68 12bc c1e7 943d 973c 993d ff6c 0b3d
00000070: b003 9b3c 649d aabc 3247 51bc 687f d0ba
0.0070280484 0.020857716 -0.03988949 0.0356176 0.029989688 -0.022250477 -0.018526413 0.03708592
-0.0038478624 -0.017425615 -0.010113693 0.0038321458 0.04879248 -0.046409935 0.0028084263 -0.033094708
0.02518323 0.0067939013 -0.0072023375 -0.040440284 0.059436426 0.0085044 -0.054837335 0.05043965
-0.008935954 0.07270766 0.0748226 0.034039494 0.018922657 -0.020827003 -0.012773322 -0.0015907111

conv1.nn.4.running_mean f4 [32]
00000000: 079c eb38 879a 5523 0000 0000 3504 4e3d
00000010: 0000 0000 8d08 6b3d 0000 0000 1b31 2b3e
00000020: 0000 0000 ea95 a03e 751d 973d b9ae 7f3e
00000030: d6f7 263e 0000 0000 0000 0000 3eda b63d
00000040: 0000 0000 fbea da3d 5a3d 373e 0000 0000
00000050: f404 323c dd1f 743e 7de4 743e 85b6 173e
00000060: ced2 003e 0000 0000 0000 0000 0000 0000
00000070: 7530 2b3d 05fc 673e 5f25 b03d ef37 6c3d
0.000112347356 1.15794756e-17 0.0 0.05029698 0.0 0.0573812 0.0 0.16717951
0.0 0.31364375 0.07378665 0.24968995 0.1630548 0.0 0.0 0.08928345
0.0 0.1068935 0.17894498 0.0 0.010865439 0.2384028 0.23915286 0.1481572
0.12580416 0.0 0.0 0.0 0.04179426 0.22654732 0.08600878 0.05767053

conv1.nn.4.running_var f4 [32]
00000000: 3124 7436 facd 1e29 25cd 1e29 7542 2039
00000010: 25cd 1e29 1c63 fc3a 25cd 1e29 40e3 603b
00000020: 25cd 1e29 e6e0 ea38 adb9 5a39 1476 fe3a
00000030: 780e c339 25cd 1e29 25cd 1e29 86de 7f3a
00000040: 25cd 1e29 3716 603a af46 dc39 25cd 1e29
00000050: ec4c ee38 637e a639 9e6d b739 a8bd d839
00000060: 46ab 333b 25cd 1e29 25cd 1e29 25cd 1e29
00000070: 9ebb 833a 88da fc3a 6d85 4038 4455 b939
3.63799e-06 3.5261704e-14 3.5260982e-14 0.00015283546 3.5260982e-14 0.0019255611 3.5260982e-14 0.003431514
3.5260982e-14 0.0001119988 0.0002085927 0.0019413852 0.00037204078 3.5260982e-14 3.5260982e-14 0.00097606366
3.5260982e-14 0.0008548232 0.00042014333 3.5260982e-14 0.00011363052 0.00031756153 0.0003498615 0.00041340035
0.002741532 3.5260982e-14 3.5260982e-14 3.5260982e-14 0.0010050421 0.0019291202 4.590063e-05 0.00035349478

convs.0.nn.0.weight f4 [32, 32]
00000000: 3263 8abc 9573 4c3d 48ff e13d 9e74 e33d
00000010: b272 0b3e cc93 013e 07d8 3ebd b1d7 3abb
00000020: d04a 473e 28cc 3c3b 4ae8 a03d 7c78 efbd
00000030: 86c2 b6bd 3fcb 113e cea2 d839 5b0f c43d
00000040: 2aa0 28bd 6b7c b83d c9d1 123c 4d60 ec3d
00000050: 81e8 19be e023 71bd 76f3 0bbe 4262 a13d
00000060: e8a3 253e 1677 20be 693c 47bd 97eb a13d
00000070: 9621 10bd 8533 c13c 4f6d 433d 2919 2b3d
00000080: 77e5 36bc d967 15bd 2914 383d 49f1 05bd
00000090: deaf 67bd ff61 403e f10b 023e aca2 00be
000000a0: 4ef6 91bd 09ee e93c 1222 a2bd f180 39bd
000000b0: 5963 e23d c06d 8e3c d9ba 10be 7e9e 3ebe
000000c0: ea7c ddbd b170 18be d80d 983d 486b 0b3e
000000d0: 8c8c cf3a 4446 e1bd 3c92 f63d 7f48 1dbe
000000e0: cf8e 243c e4b5 b43b a28e c9bd 2134 dfbd
000000f0: 6754 d0bd 47f3 0bbe fdd3 123e 5dee 00be
00000100: 61b7 e63d 1964 41bd 395e 8b3d 0c46 3fbd
00000110: a572 e73b bad3 fb3c 0f7a c63d eaa2 8c3d
00000120: 7881 ecbd 5a72 0c3e 4471 2ebe b150 0d3d
00000130: e78c c03d 8dbd f73d bb3e e7bd bec7 c83d
00000140: dc71 f03d ce5c febd cc23 ae3d 2e48 b9bd
00000150: c0fe cd3c 2373 efbd 920b e53d 954c 5e3e
00000160: 5753 dd3d ab10 123e 092c 8d3d 2cb1 883d
00000170: 161b b2bd 2f2d 02be ce19 8dbc c107 22bd
00000180: 50a6 26be b0d7 0f3e 9b71 b33c 57f4 873d
00000190: 21fe a9bd 03d6 a43d cd66 1bbe 577d 10be
000001a0: 7337 42be acad 863d 7d5f 213e 4255 183e
000001b0: 7187 433d 51cf 073e 701e b4bd ccb6 55bb
000001c0: f283 cf3d 28b4 0fbd 2eee 303b 8746 4a3e
000001d0: 550e aabc 9699 3b3d c394 083d f0d1 223d
000001e0: 9354 f2bd fcc8 003c 497b 10be 97f9 b33d
000001f0: 94e0 e8bd 9304 503e 04d2 023e bb51 023e
00000200: d28b c83d 9fbf c03d e625 1bb9 169b a7bd
00000210: e809 20be 4ebc 0cbd 0a77 43bd 1a23 773d
00000220: a2d2 1a3d 79cf 81bd 602e 2c3e 1457 11bd
00000230: 63c2 f13d ca7d 073e 49fb 003e 84a2 543d
00000240: 5131 8cbd e3cb 7c3d 1a79 243e ad86 de3c
00000250: e561 f4bd a816 073e f6e3 09be 5edb 0b3e
00000260: 6396 b9bc 64b4 dabd 4d09 d4bd e3ef ebbd
00000270: 588b 9dbd 959c 93bd 5b36 7c3d 6591 cd3d
00000280: d82a 9e3d 0f66 263e e1dd c23c 7dd7 133e
00000290: 4e05 b8bc 602a 493e d547 073e 5a2c e4bd
000002a0: 30ae e2bd bdeb df3d 01cc c13d 61d9 3fbe
000002b0: c815 62bd 817c 073e b901 8a3d dd64 d73d
000002c0: f270 33be 51aa 1c3e f636 253c 6379 16bd
000002d0: 7afa 303e 9cc0 a33d bb69 d83d 862d 5ebc
000002e0: 11e4 89bd a861 1cbd d0c0 353c 51ca c237
000002f0: f428 123e b981 24be ad6c 383e c274 c9bd
00000300: 0498 fbbd 7c9a 843d 3212 86bd 341e 25be
00000310: 148c 393e 5730 d8bd 4081 a3bd 280f 3b3e
00000320: cb98 2a3e 45c7 38bc b195 223e f878 833d
00000330: e00e 823c d6cf 23be 5361 a03c b352 543b
00000340: d790 a83d ec35 d4bc f6b6 633e e775 b33d
00000350: abb5 2a3e 7c8a 28bd 9e83 093e 632e 7cbd
00000360: fb3f d6bd 41ea 2b3e f9ed 173e 97d8 eb3d
00000370: a4f7 a53d 0385 d9bd d601 3bbe 6c52 d03c
00000380: fe8c c9bd ad37 e33d cf91 94bc 39fa 7bbd
00000390: d92d 993d 3750 193e 4fbf 27bd 033f 05bd
000003a0: e57a 463e 298b 6a3c 7c4f a73b b534 bf3d
000003b0: 78dd 39bd a22f 49be 22f0 e5bc 890b c9bd
000003c0: 2251 013e 09b5 60be 425e 2e3e 9401 53be
000003d0: 240a 473e 1d7c 39bc 987b 053d 2373 843e
000003e0: eb83 013e f4c0 013e f2be 843d bc32 433e
000003f0: 9559 023e 1792 40be 3cae 34be c076 40be
-0.016893003 0.049914915 0.11035019 0.11106227 0.13617972 0.12654036 -0.04659274 -0.002850991
0.19462132 0.002880821 0.078568056 -0.116929024 -0.08923821 0.14237688 0.0004132003 0.09573241
-0.04116837 0.09008106 0.0089611495 0.115418054 -0.150301 -0.058872104 -0.13667092 0.07880069
0.16175807 -0.15670428 -0.048641596 0.07906263 -0.03518828 0.023584137 0.047711667 0.04177204
-0.011163107 -0.03647599 0.0449411 -0.03270081 -0.056564204 0.18787383 0.12699868 -0.12562054
-0.07127057 0.028555887 -0.07916655 -0.045288984 0.11054105 0.017386317 -0.14133777 -0.18615147
-0.10814841 -0.14886738 0.074245155 0.13615143 0.0015834733 -0.1099973 0.12039611 -0.15359686
0.010043814 0.005514847 -0.09841658 -0.10898615 -0.101723485 -0.13667022 0.1433868 -0.12590928
0.112654455 -0.0472146 0.06805081 -0.04669766 0.0070632272 0.030740608 0.096912496 0.06867011
-0.11548132 0.13715497 -0.17035395 0.03450078 0.09401875 0.12096701 -0.11291262 0.09803723
0.11740467 -0.12420045 0.085029215 -0.0904697 0.025145888 -0.116918825 0.111838475 0.21708901
0.108069114 0.14264171 0.06893165 0.06674418 -0.086965725 -0.12712549 -0.017224219 -0.039558176
-0.1627438 0.14047122 0.021904757 0.06638401 -0.08300424 0.08048632 -0.15175934 -0.14110313
-0.18966465 0.06576094 0.15759082 0.14876273 0.04773659 0.13262679 -0.08794868 -0.0032610176
0.101325884 -0.03508392 0.0026997435 0.19753467 -0.020758787 0.045800768 0.033344995 0.039750993
-0.118325375 0.007860418 -0.1410953 0.0878784 -0.1137096 0.20314245 0.12775427 0.1272649
0.097922936 0.09411549 -0.0001479607 -0.08183877 -0.15628779 -0.03435927 -0.047720946 0.06033621
0.03779853 -0.063384004 0.16814566 -0.035483435 0.118046544 0.13231578 0.12595858 0.0519128
-0.06845344 0.06171788 0.16061822 0.027163828 -0.119327344 0.13192236 -0.13465866 0.136579
-0.022654718 -0.10678938 -0.103533365 -0.11520364 -0.07692593 -0.072076 0.061575275 0.100374974
0.077230155 0.1624987 0.02378744 0.14437671 -0.022463467 0.19645071 0.13210995 -0.11141272
-0.1106838 0.109336354 0.09462739 -0.18735267 -0.055196553 0.13231088 0.0673861 0.10517285
-0.17523554 0.15299346 0.0100839045 -0.036736857 0.17283049 0.07995722 0.105670415 -0.013560658
-0.06732953 -0.03817907 0.011093333 2.3220813e-05 0.14273435 -0.1606511 0.18010207 -0.09836723
-0.12284854 0.06474778 -0.06546439 -0.16124803 0.18119842 -0.10556095 -0.07983637 0.182675
0.16659848 -0.011277978 0.15877415 0.06419557 0.015876234 -0.15997252 0.019577658 0.0032397925
0.08230751 -0.025904618 0.22237763 0.087627225 0.16670863 -0.041147694 0.13429114 -0.061567675
-0.10461422 0.1678858 0.14836873 0.115159206 0.08103874 -0.10621073 -0.18262419 0.025429927
-0.09841345 0.11094604 -0.018135933 -0.061517928 0.07479448 0.14972006 -0.04095393 -0.032530796
0.19382818 0.014315405 0.005105911 0.09336225 -0.045377225 -0.19647077 -0.028068606 -0.09816653
0.12628606 -0.2194406 0.17028144 -0.20606071 0.19437462 -0.011321095 0.03258857 0.25869092
0.12647979 0.12671262 0.064817324 0.19062322 0.12729485 -0.18805729 -0.1764459 -0.187953

convs.0.nn.0.bias f4 [32]
00000000: 298d b73d 3687 cbbd fcac 1fbe ae64 2dbe
00000010: dae1 db3d 3642 94bd 4e95 783d 2125 fbbd
00000020: 1fca b8bc a56c 0dbe 7db7 d73d d166 5a3d
00000030: 5b2a 703c 8f1d 15be 157b 48be 9250 4a3e
00000040: e20f e23b 09ab a9bd a599 00be 04f8 d53d
00000050: 3801 1f3e 859f 2b3d 35d1 8a3d 6441 f0bd
00000060: a8d4 abbd 40ee cbbd 1d9f 9d3d 246b 903e
00000070: 1dd4 cf3d f99d b23d 3f19 20be 64b9 e53d
0.08962471 -0.09937899 -0.15593332 -0.16932938 0.10736437 -0.07239191 0.060689263 -0.12262941
-0.022557316 -0.13810976 0.105330445 0.05332071 0.014658536 -0.14562057 -0.19578202 0.19757298
0.006898866 -0.082845755 -0.1255861 0.10447696 0.15527809 0.041900177 0.06778184 -0.11731222
-0.0839017 -0.09957552 0.07696364 0.28206742 0.10147879 0.08721537 -0.1563463 0.11217001

convs.0.nn.2.weight f4 [32, 32]
00000000: 727e 373e b319 663e edb7 0fbc 1fd9 a7bd
00000010: edfb b2bd bd74 243e dfb3 d33c 174c 073e
00000020: 59f7 a4bd bb1b 073e b9d3 b7bd 293c 233e
00000030: 8ed4 eb3d 1551 32be b56f 953c 0177 b03b
00000040: 1495 30bd 2ab8 d23d 60fa 5dbd 7310 0abe
00000050: 86f7 77bd e334 2ebe d180 693d 146b 24bd
00000060: 320e 75bd 2d82 e1bc 2c0a c9bd e329 a3bd
00000070: 25fd d2bc 93ea 443e e307 c03d 93e8 383e
00000080: dddb 563c d729 0c3e 781e fbbd 0046 693d
00000090: f0ef ed3c fa7b 23be 4ca7 153e b76b 16bd
000000a0: 0e14 7fbc a7e0 0dbe 77d4 8c3d eeaa 9abd
000000b0: 1292 873d d06e 2d3d e575 b9bd cdd6 44be
000000c0: 48cf 22bd 309a c53d f70f 4cbe f47b 29be
000000d0: 6027 13be 85cb 74bd 6c1f b03d 254b c6bd
000000e0: 5859 8b3d 241c 1cbd 5536 ac3a faff 74be
000000f0: 1d5c 33bd cce8 24bd 021c a33c b6d5 1f3e
00000100: 99c4 98bd 1a8c aa3c 7f49 1e3e b094 98bd
00000110: 6b14 2ebd 4d66 1d3d 5149 a43d 0a89 adbc
00000120: f158 95bd 856f f03d 05bb 103e f2cf d0bd
00000130: 5f8c b23d 265e 5f3d 44e4 d1bc 3dc0 503d
00000140: 7754 cf3b b4f0 163e 0d67 9cbd 558d d5bd
00000150: 513a 103e 1050 50bd 97a9 603d bfd0 5bbc
00000160: 8db5 f1bd b47b 233e 0bd2 a63d 3117 b93d
00000170: 97c2 87bd 4a1a 10be 3cc4 a13d 9ffe 263e
00000180: 42f1 6b3c 0bba 96bd d99e 483c 63ea 013d
00000190: 190b 0e3e e435 b63d c379 313e 87d7 15be
000001a0: 3cd9 1fbe 41ed 9f3d b675 eabc 950b 15be
000001b0: c396 193e 0571 693d a7af 9ebd 4dd1 cb3d
000001c0: 4c43 2fbd 23c9 75bc 2a62 8a3c bdb0 40bc
000001d0: ef21 233c 1095 4bbd bb91 333e a623 94bd
000001e0: b53d 7d3d 8609 3b3e dfd8 593e 2315 6a3d
000001f0: 01a4 7b3d f21f 3ebe bdaa ccbb 9fbc 0abe
00000200: 706b 09be 1321 88bd d407 653e 3f07 2e3e
00000210: ada7 9e3d a233 a93d b3e4 b8bb ff0e 693e
00000220: af80 623d 8f07 cf3d 8f5a 24bd 60ff 263e
00000230: b1c4 ccbd 933a 5dbd ac0d cabc 6328 1cbe
00000240: 2452 983b 2e51 5fbe 251c 0fbd 9687 b7bd
00000250: 0f60 f83d b2f5 ba3d 6bcf fa3d 64b8 c03d
00000260: 1a62 86bd be81 123e d7af 28be a35d 643d
00000270: 3d18 013e db1f 42bd 8b0e 06bd ddfc c9bd
00000280: ed52 3ebc bf5e 6abd ae0f 39bd 80a5 38bb
00000290: 1937 e7bd 3d7f 6ebd 52d1 1f3e 0deb 813d
000002a0: 0a04 17be b9e7 48be a6d6 b0bd f558 b0bd
000002b0: 1f1b efbd d43c 89bd 5395 56bd f1ea 73bd
000002c0: da6c 363c a775 11be 50ec 073e 619f 2b3d
000002d0: e259 4f3d cc97 4cbd d9cb 593d c5bf 0a3d
000002e0: 7da5 923d 1fe2 b03d 36e0 a0bd eabf 26be
000002f0: 8dba 13be 1a3c 153e ebee bebd 52da a73c
00000300: e9ef 5f3d 73b6 183e 1e14 0cbe 164d 3b3c
00000310: 0ea8 b1bd 0717 50be 4508 07be 0d4c 9dbd
00000320: 71c7 0b3b efb6 f7bd 43d5 51be 6b40 e43c
00000330: be07 09be 6956 1e3e f4e4 edbd 8277 de3d
00000340: a74d 2cbe 49ed 01be 3b95 853d 42ce 063d
00000350: 0c94 0ebe b32b f2bd 3f09 81bd e8d0 0dbe
00000360: cf72 033d fe64 eebd 1e39 0fbd 9e7e c4bd
00000370: 7830 113e 03ab f5bd 7d44 d93b 1014 b13d
00000380: be67 af3c 3977 223e 7f83 26be 4e4b d33d
00000390: fce5 5dbd d904 e93d 307c e9bd ee9d 0abe
000003a0: be41 023e 36e5 743d f944 f03b 0323 cd3d
000003b0: 6d30 0abe 477d 073e 33ff cd3d 0947 b73d
000003c0: 72be 223d 2703 f63d 79c4 98bd 05c8 0f3e
000003d0: 14b7 0ebe ab88 ad3c 3388 07bd 4041 643d
000003e0: f333 95bd 66cc 19be bbc7 a0bd f471 0f3d
000003f0: f8be 37b9 b0a9 943c a6d3 b8bc 1597 b03d
0.17919329 0.22470741 -0.008771879 -0.081957094 -0.08739457 0.16060157 0.025842605 0.1321262
-0.0805499 0.13194172 -0.0897593 0.15940918 0.11515151 -0.17413743 0.018241743 0.00538528
-0.043110922 0.10289033 -0.054193854 -0.13482837 -0.06053879 -0.17012362 0.057007615 -0.04014118
-0.05982799 -0.027527893 -0.09816393 -0.07966974 -0.025755474 0.19230108 0.09376504 0.1805747
0.013113943 0.13687836 -0.12261671 0.056951523 0.029045075 -0.15965262 0.146146 -0.03672382
-0.015568746 -0.1385523 0.06876462 -0.075521335 0.066196576 0.042342007 -0.0905569 -0.19222565
-0.03974846 0.096485496 -0.19927965 -0.1655119 -0.14370489 -0.059764404 0.08599743 -0.096823014
0.0680415 -0.038112774 0.0013138751 -0.23925772 -0.043789018 -0.040261075 0.019910816 0.15608868
-0.07459373 0.020818759 0.15457724 -0.07450235 -0.04249994 0.03842764 0.080217965 -0.02118351
-0.07292355 0.11740021 0.14133842 -0.101959124 0.0871818 0.054533146 -0.02562154 0.050964583
0.0063272077 0.14740258 -0.07636843 -0.104273476 0.14084746 -0.050857604 0.054849233 -0.013416468
-0.11802206 0.15965158 0.08145531 0.090376265 -0.06628912 -0.14072528 0.07898757 0.16308068
0.014400782 -0.07359704 0.0122449035 0.03171767 0.13871421 0.088969976 0.17331605 -0.14632998
-0.15610212 0.078089245 -0.028620582 -0.145552 0.14998917 0.05699255 -0.07748347 0.0995203
-0.04278879 -0.015001568 0.016892511 -0.011760888 0.009956821 -0.049702704 0.1753606 -0.07233362
0.061826427 0.18265352 0.21274136 0.057149064 0.061435703 -0.18566874 -0.0062459395 -0.13548516
-0.1341989 -0.066469334 0.22366267 0.16994952 0.07746825 0.08261801 -0.0056424974 0.22759627
0.055298503 0.101088636 -0.040125426 0.16308355 -0.099984534 -0.05401094 -0.024664722 -0.15249781
0.004648464 -0.21808311 -0.03493895 -0.08961408 0.12127697 0.09128894 0.12246593 0.0941017
-0.0656168 0.14307305 -0.16473328 0.05575336 0.12606902 -0.04739366 -0.032728713 -0.09862683
-0.011616451 -0.057219263 -0.04518097 -0.0028174818 -0.11289806 -0.058226813 0.15607193 0.063436605
-0.14747635 -0.19619645 -0.08634691 -0.08610717 -0.11675095 -0.06701055 -0.0523885 -0.05955023
0.011134351 -0.14205037 0.1327374 0.041900042 0.05062283 -0.049949452 0.05317292 0.033874292
0.07160471 0.08636879 -0.07855265 -0.16284147 -0.14426632 0.14573708 -0.09322914 0.020489845
0.054672156 0.14913349 -0.13679549 0.011431953 -0.08674632 -0.20321284 -0.13186748 -0.07680521
0.0021328593 -0.12095439 -0.20491509 0.027862748 -0.1338186 0.1546265 -0.11615935 0.10862638
-0.16826497 -0.12688173 0.06522604 0.032911547 -0.13923663 -0.11824741 -0.06300592 -0.13849223
0.032091912 -0.116403565 -0.03496658 -0.09594463 0.14178646 -0.119955085 0.006630479 0.08646405
0.021411773 0.15865792 -0.162611 0.103170976 -0.05417441 0.11377878 -0.1140064 -0.13536808
0.12720391 0.059788905 0.007332441 0.100164436 -0.13495035 0.13231383 0.10058441 0.08949096
0.039732404 0.1201232 -0.07459349 0.14041145 -0.13937026 0.021183332 -0.033088874 0.05572629
-0.07285299 -0.15019378 -0.078505956 0.035020784 -0.00017523381 0.01814732 -0.02256186 0.086225666

convs.0.nn.2.bias f4 [32]
00000000: ce01 153e 5bf7 e2bc 5b76 8abd f0a5 4f3d
00000010: bd83 c53c 6124 853b da86 70bc bd38 13be
00000020: 3714 09be 10d4 8dbc d0cc 753e f0fd 88bc
00000030: 1961 59bd 23bc 3e3e be14 a63d 0f4a b53d
00000040: f141 cf3d d788 d53d eb7f a5bd 8a17 b43d
00000050: 1744 29bd c29c 01be e278 443c ea5b 00be
00000060: ebd3 67bc 157c bebd 1801 ab3c 91a3 92bb
00000070: 75e8 af3d 949f ec3d d28e 4fbd 5ee6 96bd
0.1455147 -0.027705839 -0.06760856 0.05069536 0.02411067 0.0040631746 -0.014680589 -0.14377113
-0.13386618 -0.017313033 0.24003911 -0.01672265 -0.053071115 0.18626456 0.08109425 0.08852016
0.10119999 0.10426491 -0.08081039 0.08793552 -0.0413247 -0.12657455 0.011991711 -0.12535062
-0.014149646 -0.093010105 0.020874545 -0.004475065 0.085892595 0.115538746 -0.050673313 -0.07368158

convs.0.nn.4.weight f4 [32]
00000000: 36be 803f 969c 873f 5d43 703f 3c69 753f
00000010: fcaf 7a3f 7115 643f dd57 8a3f f2bc 843f
00000020: 1501 753f ad56 8e3f efbd 7b3f 80ba 803f
00000030: b3d7 6c3f 454e 863f 0160 743f 8043 733f
00000040: cb8a 7b3f ea70 683f 672d 763f a7fe 8a3f
00000050: a27e 6e3f f687 6b3f 75fa 773f 25f1 8b3f
00000060: 4022 6a3f 240b 7c3f 07d5 813f b8a2 7b3f
00000070: 6403 823f 5e9f 7f3f 234d 6f3f c750 6c3f
1.0058048 1.0594661 0.9385279 0.958637 0.9792478 0.89095217 1.0808064 1.0370162
0.95704776 1.1120201 0.9833669 1.0056915 0.9251663 1.0492636 0.9545899 0.9502487
0.98258656 0.90797293 0.9616303 1.0858964 0.93161976 0.92004335 0.9686654 1.0932966
0.9145851 0.984545 1.0143136 0.98295164 1.0157285 0.9985255 0.93477076 0.92310756

convs.0.nn.4.bias f4 [32]
00000000: 075f 93bd 925f 153d d8a1 28b8 bff2 a43c
00000010: ff03 b6bd fa27 6fbc 1037 73bd 678e dfbd
00000020: 8680 d2bd 0ac6 383b c0dc 7bbd eb58 783c
00000030: 06f9 6fbd 64c1 90bd a526 afbd 4c3a 89bd
00000040: 161b 853d 214c a73c 5238 f1bd 17a6 d3bd
00000050: cca5 06bd ebb2 11bd da36 c03d cad1 8f3d
00000060: 8580 97bd b8d8 5c3d 0e68 88bd 9979 123d
00000070: 35ee 04be 43e4 c1bd 548e 6fbc fea6 cabb
-0.071958594 0.036468096 -4.020505e-05 0.020135282 -0.08887481 -0.0145969335 -0.059378684 -0.10915833
-0.1027842 0.0028194212 -0.06148982 0.015157918 -0.058587097 -0.07068136 -0.08552293 -0.06700572
0.06499307 0.020422043 -0.1177832 -0.103344135 -0.03287296 -0.03557102 0.09385462 0.07022436
-0.0739756 0.053917617 -0.06660472 0.035760496 -0.12981494 -0.094673656 -0.014621336 -0.006184458

convs.0.nn.4.running_mean f4 [32]
00000000: 4b54 2a3f c7ef 063d 0e22 d93e ae27 163e
00000010: 4c97 8c3f 38ee 123f fca7 6e3c dc19 8e3d
00000020: 8fb9 4c3d cf54 083d 3bc7 fa3d 5947 8824
00000030: 18fc f53e 1d75 fe3b 6832 613f c74f a13f
00000040: f75e 1d3e 61e0 8e26 37b6 0a3e 5cd8 4e3c
00000050: e5ba a33e c1e1 fb3e 9b22 e13e e021 403d
00000060: 58ac 1d3f c0b1 5322 f697 863f b5d8 df3e
00000070: 0b86 173c 7292 463f 2893 c838 e7ce 743f
0.6653487 0.032943513 0.42408794 0.14663574 1.0983672 0.5739474 0.014566418 0.06938526
0.04998165 0.033284005 0.122450314 5.9101466e-17 0.48043895 0.007765426 0.8796754 1.2602471
0.15368257 9.914047e-16 0.13546072 0.012624826 0.31978527 0.49195674 0.43971714 0.046907306
0.615911 2.8689932e-18 1.0515125 0.43720022 0.009248267 0.7756721 9.564153e-05 0.9562821

convs.0.nn.4.running_var f4 [32]
00000000: 1d37 8f3e 7171 093c ca94 843e cca9 c93d
00000010: e3d2 e83f 008c fd3e 90cb cf3a 9afa a83c
00000020: 0b5e 9b3c 972f 0b3c 6a98 4b3d 2fcf 1e29
00000030: 6772 b43e d81f c039 8e4b 063f 51b7 aa3f
00000040: b71f a63c 8e27 1f29 fac1 493d e93c af3a
00000050: 5141 7b3e 1152 323e 2266 553e 8047 803c
00000060: bf96 9a3e 3ccd 1e29 4838 293f 0587 463e
00000070: a107 7b3a db95 8b3e 81e8 3037 a42f 723f
0.27971736 0.008388863 0.25894767 0.09846839 1.8189358 0.49520874 0.0015853513 0.020627309
0.018965742 0.008495233 0.0497059 3.526275e-14 0.35243532 0.0003664482 0.5245904 1.3337194
0.020278795 3.53394e-14 0.049257256 0.0013369593 0.24536635 0.17414118 0.20839742 0.015659094
0.30193135 3.526106e-14 0.66101503 0.19387443 0.0009576027 0.27262768 1.05445515e-05 0.94603944

convs.1.nn.0.weight f4 [32, 32]
00000000: c37f e93d 14f6 b5bd 455a 14be 1f1b 073e
00000010: 3934 ef3b 9b27 1abd ccc5 7e3d 307f 2a3e
00000020: db84 2fbe 9089 9ebd 9057 86bd 0dc1 b53d
00000030: 9210 febd 181d 043d 6b2c a13d f64f 2cbe
00000040: ec0d c93c a5d1 cb3b 8348 d7bb 557b 2c3e
00000050: d2a7 2e3c 5432 f03d 4e2e a0bd 37fb eabd
00000060: db7a db3d 6213 e13d 5768 23bd 4121 a1bd
00000070: f55f e4bc 052b 1c3e 0315 debc b925 a23d
00000080: 51cb 143e 0c9a 95bc 7841 093e 54a8 41be
00000090: b91d 24bd fb6f 533d 0bd2 093e dff2 833c
000000a0: 97b6 133e a6d7 d6bd a8bb c2bd d8cf 1abe
000000b0: 283b 633b a7ad 303d bddf a0bd 81d9 e23d
000000c0: e808 0abd 0bf6 d8bc 9de6 303d 723a e03d
000000d0: f321 bc3d 8dc6 103e 3c3e 52bd ba3e af3d
000000e0: 130a 1ebd b513 14bd 3aea e23c bc26 abbd
000000f0: 63a0 143e b72d cd3c 95aa 08bd a527 a43d
00000100: dc0d a13d 4c97 f83d 9575 b139 68f6 6abd
00000110: dccf b43d 92c4 d3bd 50c3 043d 021c 973d
00000120: e57e c43d af42 923d 4c82 823d d11e 7bbc
00000130: 8aee f3bd 8f3f a13d 3d1c 08bd 6a96 64bd
00000140: 095a e3bd 4b3e 5c3d 7992 ad3d c5b1 07be
00000150: b869 193d 77d3 03bd cbe6 21bd 0c05 e53d
00000160: e4cb 2ebe 06d6 b2bc 28b0 1c3e f157 81bd
00000170: e993 b2bd 6630 95bd 0538 bdbd 712c fd3b
00000180: b940 473e d251 2cbe 1282 f9bc 770c b53d
00000190: 6e36 b93d 3a9d e63d 2abb 083d 07b0 2d3e
000001a0: 9ea9 243e 1bc1 02be ead0 a73c 6b5e a0bd
000001b0: cd57 6d3d 0ddf 0a3e 9b1b 55bc 57bc 003e
000001c0: d6e0 26be e5b8 153d fb14 c13d 6366 7d3d
000001d0: ef85 c83d 57e0 a63d 42d2 09be b729 9ebd
000001e0: d11e ad3d 06d6 b5bd e149 bc3d 0add 27be
000001f0: f55c 183e e21f 2d3e 26cf c3bd 6556 4abe
00000200: c919 4e3e 5fc3 613d 67ba 6c3d 5c30 04be
00000210: 8b49 dcbd fc47 b5bd 46e3 3a3d c122 04be
00000220: 1475 dfbd 5ac6 203e 75b1 c63d 4757 e8bd
00000230: 675c cd3d 65a1 fbbd 2605 d03d ed6a dbbd
00000240: ec32 813d fa2a 12be 7f07 f9bd d75b 103e
00000250: 6f4a d9bd 9de4 213c 331c df3a 318e 763e
00000260: 81e9 443e f4c9 a6bd a5c6 e6bd 25a6 6e3d
00000270: ab97 033e 69f8 a8bd eee8 11be 805c 0cbe
00000280: 3c02 4a3e ef5b 893e 7841 853d aaf2 c23d
00000290: 0cdb dabd 45bc ba3d 694f f3bd 5704 70bd
000002a0: 9b66 e0bd fb4d 003e f001 08be e6bc 283e
000002b0: cde5 4b3d 878b 2c3d ae45 b03c 7ade 8bbd
000002c0: f5a8 20bc e6d5 89bc b90e 563c 9c83 213d
000002d0: fcaf 883c 3952 24bd 65fe 853d b526 0e3e
000002e0: cab4 af3d 84fb 1fbe 4d39 843d b4fb eb3d
000002f0: 9d0e e43d 3ec2 d1bd 36f1 51be 8bb3 71bd
00000300: 5db7 123e 2e40 f73d da96 47bd 6546 8ebd
00000310: 5247 083e 88d1 99bc 621b a2bd 4add eebc
00000320: 7b3c 25be fb4b 2b3e 1c5a fc3d 0eed 2dbd
00000330: dc5c afb9 3888 073e cd4b 49bc c6f0 f5bd
00000340: 942c c7bd 69c9 1a3d 9d47 04be 2da2 1e3e
00000350: 72fa 45bd ebd1 243d 3402 42bd a09d 703e
00000360: 7995 823c 7d0e cc3d f16b 98bd 2e48 f33d
00000370: b31b 2e3d f59e 113d b700 b53d 70d5 083e
00000380: b08b c5bd 239c bdbd 7e68 173d 3228 4abd
00000390: 3680 f33d 0f60 043e 2be1 813d 10fe e4bd
000003a0: 4c9d a6bd f250 893c 2a13 1f3e 33b9 913d
000003b0: b40a 88bd 2ee4 f8bc 4433 82bd 3d65 a33d
000003c0: c9ed d4bd 9e75 b53d 4b38 18bd ff3d 503c
000003d0: 335f b83c 23ce 153c 8ae7 fbbd baee 9b3c
000003e0: b765 d5bc feab 553b 0896 b8bd fe36 4b3d
000003f0: a29b 05bd a36e d6bd 053e 1c3e 5d4c 82bd
0.11401322 -0.08884826 -0.1448756 0.1319394 0.0072999266 -0.037635427 0.062200353 0.1665008
-0.17140524 -0.07741082 -0.0655967 0.08874712 -0.12405504 0.03225431 0.078698 -0.16827378
0.024542771 0.00622006 -0.0065699234 0.16843922 0.010660129 0.11728349 -0.07821332 -0.11473697
0.10716792 0.10990025 -0.039894428 -0.07867671 -0.027877787 0.15250786 -0.027109629 0.07917351
0.14530684 -0.018261932 0.1340388 -0.18911868 -0.04006741 0.051620465 0.13459031 0.01610702
0.14425121 -0.104903504 -0.09508449 -0.15118349 0.003467271 0.043134358 -0.07855175 0.11076642
-0.0336999 -0.02648451 0.04318868 0.109486476 0.09186163 0.14138241 -0.051328883 0.08556886
-0.038583826 -0.036151607 0.027699579 -0.08356997 0.14514308 0.025046213 -0.033365805 0.08015374
0.078639716 0.121382326 0.00033847676 -0.057363898 0.088287085 -0.10340227 0.032412827 0.07378389
0.09594516 0.07141625 0.063725084 -0.015327171 -0.11910732 0.07873451 -0.033230055 -0.05580751
-0.11101157 0.053770345 0.08475203 -0.13251407 0.037454337 -0.03218409 -0.039526742 0.11182603
-0.17069966 -0.02183057 0.15301573 -0.063156016 -0.08719618 -0.07284622 -0.092392005 0.007726245
0.19458283 -0.16828087 -0.03045753 0.08840268 0.09043585 0.11260457 0.03338162 0.1696168
0.16080329 -0.12768976 0.02048536 -0.07830509 0.05794506 0.1356165 -0.01300707 0.12571846
-0.16296706 0.036553282 0.0942783 0.06186522 0.09791171 0.08148258 -0.13459113 -0.077228
0.084531434 -0.08878712 0.09193779 -0.16392913 0.1487921 0.16906694 -0.09560995 -0.1975952
0.20127024 0.05511796 0.057794955 -0.12909073 -0.10756215 -0.088516206 0.0456269 -0.12903883
-0.10911003 0.15700665 0.09701816 -0.11344772 0.1002739 -0.12286643 0.10157232 -0.10713754
0.06308541 -0.14274207 -0.12159633 0.14097534 -0.106099 0.009881166 0.0017021954 0.24077679
0.192297 -0.08143988 -0.11268357 0.058263917 0.12850825 -0.082505055 -0.14249012 -0.13707161
0.19727415 0.26827952 0.06506628 0.09518941 -0.10686311 0.09117941 -0.11880381 -0.05859789
-0.109570704 0.12529747 -0.13281989 0.16478309 0.049779702 0.04212525 0.0215176 -0.068295434
-0.0098059075 -0.016825628 0.013065034 0.039432153 0.016685478 -0.040117476 0.065426625 0.13881953
0.08579405 -0.1562329 0.06456242 0.11522618 0.111356 -0.10242127 -0.20502171 -0.059009116
0.1432776 0.12072788 -0.048727848 -0.069470204 0.13308457 -0.01877667 -0.07915379 -0.029158253
-0.16136353 0.16728203 0.123218745 -0.0424624 -0.00033447787 0.13235557 -0.012286139 -0.120088145
-0.097252995 0.037789736 -0.12917943 0.15491553 -0.048334546 0.040239256 -0.047365382 0.23497629
0.015940415 0.09963701 -0.07442463 0.118790016 0.042506885 0.035551984 0.08838027 0.1336267
-0.09645784 -0.09258296 0.036964886 -0.04935474 0.11889689 0.12927268 0.063417755 -0.11181271
-0.08135471 0.01676223 0.15534654 0.07115402 -0.066426665 -0.030382242 -0.063574344 0.07978294
-0.103969164 0.08860324 -0.03716306 0.0127100935 0.022506332 0.009143385 -0.12300022 0.019034732
-0.026049478 0.0032603736 -0.09012991 0.04961299 -0.032619126 -0.10470321 0.15258034 -0.063622214

convs.1.nn.0.bias f4 [32]
00000000: 3688 2e3e 2ddf 223e 2490 b73c 9ec2 e23d
00000010: 231e 2dbe f4b0 08be 6b88 8c3c de7c 223c
00000020: 9ac9 c53d b692 f2bd 432e 2abe 1a88 be3d
00000030: 6bb7 ad3b ac74 a83d f0f5 643d da96 a1bd
00000040: b601 833d 8797 5fbe 64fa 863c 8b9e 023e
00000050: cb79 2bbd 98ad 953e 9e14 b1bc 611b dbbd
00000060: 435a a9bd 6332 453e 58df 413e ab59 8a3d
00000070: 3f20 32be f2a3 74be e86d 94bd c859 e6bb
0.17044148 0.15905447 0.022407599 0.110722765 -0.16906027 -0.13348752 0.017154893 0.009917466
0.09657593 -0.11844389 -0.1661921 0.09303303 0.005301406 0.082253784 0.055898607 -0.07890101
0.06396811 -0.21835147 0.016476817 0.12755792 -0.041864198 0.29234004 -0.021616276 -0.106985815
-0.08269169 0.19257502 0.18932855 0.06755384 -0.17395113 -0.23890665 -0.072475255 -0.0070297457

convs.1.nn.2.weight f4 [32, 32]
00000000: 3c5d 20be d064 703d 3b19 fe3d 7d62 7ebc
00000010: 8613 853e 1442 bf3d f190 313e 7d71 71bd
00000020: a23b 7ebd 0a3d 60be c58d 19be 3e07 52bc
00000030: 1e62 abbc 7264 a93d 2482 b9bd e562 d33d
00000040: 36c3 b83d c5cc 713c 0d49 053d 1594 84ba
00000050: 9e7c 713d 6ff8 4fbe 8efd 4bbe d503 51be
00000060: 5f34 123e b7de b8bd 1a00 dcba 0265 2e3e
00000070: ab26 073d 72f6 4cbe 5f68 a43d 10b5 26bc
00000080: ded8 4fbd 8fbf 423d 0c4d 0dbe 5991 95bd
00000090: 51c0 463d f1ed 9f3d ee5e 09bd 63b6 ed3d
000000a0: acc2 e6bd a825 02be 9cac 4e3e cc3b 2cbe
000000b0: a58b 6c3e 3201 e83d f711 f3bc e1cf 03be
000000c0: 4e1d ea3d 0be6 1cbd b74f 0e3d 341b d23d
000000d0: 148f bebd c17a 973d 0996 4dbd bfde 5c3e
000000e0: 6bc0 263d 6ad0 4fbd 7fba ffbd 980c 54bc
000000f0: b9b3 143e c792 4cbe 7bb9 283d c7c6 78bb
00000100: 5b0c c83d 96c5 8abd 2e43 ebbc 940a 8c3d
00000110: 039a 3dbd 9d2b 65be e995 a43d 7724 3bbe
00000120: 292d f0bc 6f0f ff3d e57f 433d ac41 7fbd
00000130: 48e8 4abe 4fbf 2fbe 6e45 00be a100 15be
00000140: d6bf 0bbe c04b c7bd 73fb 3ebe 3011 18be
00000150: a4e5 203e c75d 7bbe abf2 fd3d 7099 f73d
00000160: fab4 37be df37 273c d4c8 c6bc 3e50 1abe
00000170: 624e e8bd 8828 173e b6b3 463d f147 bebc
00000180: 7a17 a63d 6594 403d 1dc2 65bd 9e6e 013e
00000190: 4682 493d 3a26 f1ba 1ed6 34bd 2158 8b3d
000001a0: 1799 013e 8ca5 cebd 0bb9 9bbd 19fb 8ebd
000001b0: e51f 41be a5ae b8bd 9a3b 173e 7bef e4bd
000001c0: 08ab 9c3d cbbd efbd 78f7 1dbe 91af 61bd
000001d0: e93e 0d3d 7e3d 383e ee75 6e3d 329f be3d
000001e0: c487 6abd a217 753d 5214 063e 6ce3 41be
000001f0: 2a50 a7bd 0135 073e d774 bb3d 5d90 13be
00000200: 1da0 21be 2ab4 1cbd 292a 43be 05ec 82bd
00000210: 0469 be3d 1b3b c63d 9a6a 313c 7f35 96bd
00000220: b5f5 f3bd 1cdf 223e 6dcd 673c d4ad 24be
00000230: 7631 173e b9bc 353c a39b c83d 9a3c 03be
00000240: 81f2 1bbe 00e1 e23b c52f 313d 214a 123d
00000250: 6a76 bdbd 75fb b53d eb5f 6c3e 2e6b c53d
00000260: bec5 0e3e 3164 dfbc eb2b f83c 3b7a dcbc
00000270: 273c ce3d 0d7d 013e b5ac a6bd 1a30 58bd
00000280: 356a 24bd f8e4 003e b7a2 1ebd c337 97bd
00000290: 35ce 313d d7ed 8dbe 2100 3b3d 2bc5 a4bd
000002a0: 7ce2 8a3c 2da4 093e ef74 493d 9a8d 5d3d
000002b0: 1973 973c dd0b 36be 66c5 0a3e 37b3 dbbd
000002c0: 607e b03d c163 af3a 4b0a 49be 66c2 b6bb
000002d0: a51d 563e 398d aebd c3a8 f63d e015 cc3d
000002e0: f9f5 133d 6ecc 8dbd d1ee ba3d 3533 72be
000002f0: 45a5 18be 7735 c23d 1fa4 4a3e dfd0 1cbe
00000300: e5d4 223e 8124 f73d 4b5b 4fbd da4d 80bd
00000310: 98d4 783c 7411 32be 42d3 1ebe c17b 1cbd
00000320: 795f 723e 675d b7bd 82a3 ba3d f182 1abc
00000330: 9a6f a33c 1d96 cebd ee0c 703d 5640 cabd
00000340: 5330 27bd 60c2 eebd 14e9 a83d a89f ff3d
00000350: a50c 1cbe fed8 01be e876 2dbe 24f7 003e
00000360: 7691 a5bd e691 3fbe 65eb eabd 5475 463d
00000370: 6701 24bd 0663 003e ece0 36bd b3dd 883c
00000380: b18c 2e3e d30d 6e3e 4869 8ebd 4c74 173e
00000390: e037 fcbd a1ee 483d f2a9 02be b6d0 2d3d
000003a0: a7fe be3b eb17 833e e078 18be 7c14 5ebe
000003b0: 54c5 513d f3ce a8bd 3680 d73c 4999 8bbe
000003c0: 2e9d 483e 128e 9ebd 06ba 9dbd 6f91 353d
000003d0: b88c 5a3e d7fe 383d 73d0 abbd de2c 38bd
000003e0: 576e 223e 9df9 d33b e648 c73c 3bf8 c03c
000003f0: 4f88 073e 55ec 39bd 353c 31bd 87a9 2bbd
-0.15660566 0.058689892 0.12407156 -0.015526411 0.25991458 0.09338775 0.17340447 -0.05894612
-0.06206859 -0.21898285 -0.14995487 -0.0128191095 -0.02092081 0.082711115 -0.090580255 0.10321597
0.090216085 0.0147582935 0.03254037 -0.0010114933 0.058956735 -0.20309614 -0.19920942 -0.20411618
0.1427779 -0.090268545 -0.0016784698 0.17030719 0.03299586 -0.20015886 0.0802772 -0.010175005
-0.05074393 0.047545966 -0.13798922 -0.073031135 0.04852325 0.078090556 -0.033537798 0.11607053
-0.112675995 -0.12709677 0.20183033 -0.16819686 0.23100145 0.11328353 -0.029671652 -0.12872268
0.11431371 -0.038305324 0.03474399 0.10259095 -0.09304634 0.0739646 -0.050191913 0.21569346
0.040710848 -0.05073587 -0.12486743 -0.012942456 0.14521684 -0.19977866 0.041192513 -0.0037960277
0.097679816 -0.06775968 -0.028718557 0.06837955 -0.046289455 -0.22379918 0.080364056 -0.18275629
-0.029318409 0.124541156 0.04772939 -0.06231849 -0.19815171 -0.17162822 -0.12526485 -0.14551021
-0.13647398 -0.09731245 -0.18650608 -0.14850307 0.15712601 -0.24547492 0.12399801 0.12089813
-0.17940131 0.010206192 -0.024265684 -0.15069672 -0.11343075 0.14761555 0.04851123 -0.023227664
0.081099465 0.04701652 -0.056093324 0.12639853 0.049196504 -0.0018398233 -0.04414951 0.06803919
0.12656055 -0.10090169 -0.076036535 -0.06981487 -0.18859823 -0.09017686 0.1476883 -0.1117849
0.07649809 -0.11706122 -0.15426433 -0.055099074 0.034483824 0.17992207 0.058217935 0.09307708
-0.057258382 0.05983699 0.13093689 -0.18934411 -0.08169587 0.13203813 0.09153145 -0.14410539
-0.15783735 -0.038257755 -0.19059052 -0.063926734 0.09297374 0.09679242 0.010828638 -0.07334422
-0.11912099 0.15905422 0.014148098 -0.16081935 0.14764962 0.011092358 0.0979531 -0.12816086
-0.15229227 0.0069237947 0.043258447 0.035715226 -0.09251101 0.08885852 0.23083465 0.096395835
0.1394262 -0.027269455 0.03029438 -0.026913753 0.10070067 0.1264536 -0.0813841 -0.05278025
-0.04014035 0.12587345 -0.038729396 -0.073836826 0.043409545 -0.2772052 0.04565442 -0.08045419
0.0169537 0.13441534 0.049183782 0.05409012 0.0184875 -0.17777963 0.13551864 -0.10727542
0.08617854 0.0013381169 -0.19632833 -0.0055773733 0.20909746 -0.0852303 0.120439075 0.0996511
0.03612325 -0.069237575 0.09127582 -0.23652346 -0.14906795 0.09482854 0.1978917 -0.15314053
0.15901525 0.120675094 -0.050624173 -0.06264849 0.015187405 -0.1738947 -0.15510276 -0.03820396
0.23669232 -0.08953362 0.09113218 -0.009430633 0.019950677 -0.100872256 0.05860608 -0.09875552
-0.04081757 -0.11658168 0.08247581 0.12481624 -0.15239199 -0.12680432 -0.1693989 0.12594277
-0.08084385 -0.18708 -0.11470679 0.048451737 -0.0400404 0.12537774 -0.044648096 0.016707277
0.17045857 0.23247461 -0.069536746 0.14790457 -0.12315345 0.0490557 -0.12760141 0.04243537
0.005828697 0.25604185 -0.1488986 -0.21687502 0.051213577 -0.082425974 0.026306253 -0.27265385
0.1959121 -0.077419415 -0.07701497 0.04432815 0.21342742 0.04516491 -0.08389368 -0.044964664
0.15862404 0.006468965 0.024326753 0.023555866 0.13235591 -0.0453914 -0.04327031 -0.04190972

convs.1.nn.2.bias f4 [32]
00000000: b33a c6bd d265 16bd addf e33d b75b 6e3e
00000010: 41ec 013e 4bcb 46be 9d04 13be 09a4 02be
00000020: a3d1 4b3e 884c 013e 84a3 babd ec31 aabd
00000030: b9c1 7e3e 4869 1abe f94e 473e 6910 e33d
00000040: 4bdd 25bd 4b2e 7d3c c346 813c d018 0bbe
00000050: 8a2b 02be 0f87 033e de4e 833e 128d c73d
00000060: a0f7 b43e 02b8 183d c86b cbbd d41b a9bc
00000070: e14c cfbb d9c0 adbd 383d 743d b0a3 3f3e
-0.09679165 -0.036718197 0.11126647 0.23277174 0.1268778 -0.19413488 -0.14357229 -0.12757887
0.19904189 0.1262685 -0.091132194 -0.08310303 0.24878587 -0.15079224 0.1946372 0.11087114
-0.040494245 0.015452932 0.015780812 -0.13583684 -0.12711921 0.1284449 0.25646108 0.09743704
0.35345173 0.03728486 -0.09932667 -0.020643152 -0.0063263034 -0.084840484 0.059628695 0.18714786

convs.1.nn.4.weight f4 [32]
00000000: 1eb3 9e3f 7d12 693f a30c 9e3f 04bb 9e3f
00000010: 547c 703f 96e1 9e3f 54b5 823f d30f a33f
00000020: 1249 993f 2eb7 993f 56ad 9c3f 722c 983f
00000030: 1a4e 9d3f f33e a33f d712 9e3f fb72 9a3f
00000040: bc9e 723f a610 a33f 8211 693f b8c5 9b3f
00000050: 682c 9d3f 5d7f 613f c5e2 9e3f f01d 9d3f
00000060: d2ef 9c3f b490 a43f 3549 9d3f 7536 9e3f
00000070: 4ed1 993f ec54 9c3f b89f 953f 883c 9f3f
1.2398412 0.91043836 1.2347606 1.2400823 0.9393971 1.2412593 1.0211587 1.2739204
1.1975424 1.2009027 1.2240398 1.1888564 1.228946 1.2753586 1.23495 1.2066339
0.9477346 1.2739456 0.9104234 1.2169714 1.2279177 0.88084966 1.2412955 1.2274761
1.2260687 1.285666 1.2287966 1.2360369 1.2017 1.2213416 1.1689367 1.2440348

convs.1.nn.4.bias f4 [32]
00000000: 1fdb 8b3d 2434 333e acae ffbd 8d0f 67bd
00000010: 8286 753d 6580 e9bc 0395 2abe 2f80 003e
00000020: c012 35be abae babd 05ca 56be 007b 623e
00000030: 5545 593c 64ad 00be a831 1e3e 9715 603e
00000040: c4c6 7dbe 6b7d 7cbc 9dc2 6f3e 8253 cd3d
00000050: 1e79 563d 168e a8bc 0882 1d3c d207 9dbd
00000060: 53de 24bd 082c 5e3e a1ff 113e 487a 853d
00000070: 4d70 863d 8961 39bd f69f 113d bb4f 6ebd
0.068289034 0.17500359 -0.12484488 -0.056411315 0.05994273 -0.028503606 -0.16658406 0.12548898
-0.17682934 -0.091153465 -0.20975502 0.22117233 0.013261159 -0.12566143 0.1544863 0.21883236
-0.24782854 -0.015410761 0.23414083 0.100256935 0.0523616 -0.020575564 0.009613521 -0.07667507
-0.040251087 0.21696484 0.14257671 0.06517464 0.065643884 -0.045259032 0.03555294 -0.058181506
